基于ABM的智能化经济模拟平台/ambs/worker_buffer/target_critic_checkpoint.pth (torch, 15999 bytes, 9 tensors)

linear1.weight f4 [30, 9]
-0.05135752 -0.19431642 0.04547308 0.18142362 -0.40687755 0.48548833 0.090383485 -0.31803015
0.066267096 0.08951586 -0.31413546 -0.22593418 0.1380728 -0.24662928 0.2186643 0.16842012
-0.015804624 -0.07644157 -0.25528336 -0.21567965 0.187947 0.070857376 0.19515708 0.17190495
-0.10240722 -0.20471427 0.04204333 0.1296548 -0.3048225 0.16443408 -0.24037333 -0.12861878
-0.24986467 -0.0008397928 0.129825 -0.010395179 0.409045 0.25512964 0.20032056 -0.4801574
0.29413006 -0.11816666 0.06602223 0.35046366 0.44772938 -0.473129 0.040245473 -0.30743277
0.030985128 -0.39472765 0.48367125 0.1779505 -0.44531202 -0.49027035 0.14189236 -0.48599207
0.1739043 -0.44327715 0.47079304 -0.07444801 0.01971269 0.19196956 0.32072163 -0.35316116
0.047145728 -0.29158056 0.34225687 -0.40840098 0.289986 0.22942738 0.017895762 -0.45832837
0.16511092 -0.1732882 0.2724729 0.28399673 -0.20735864 0.15617466 -0.073403955 -0.20159945
0.12566677 -0.17148864 -0.104103446 -0.120170444 0.28881678 0.119648844 -0.19936506 -0.109451
-0.12759683 0.29365495 -0.0376995 -0.28340322 -0.20664917 0.29856622 -0.3946485 0.021652782
0.033800296 0.15608416 -0.3021961 -0.22448175 -0.09862439 0.025283694 -0.14546268 0.10216868
-0.20135257 -0.28506765 -0.018819094 -0.27385128 0.20630448 -0.020397954 0.24397308 -0.03314564
-0.13123694 -0.14175478 0.07628246 0.37509534 -0.10908801 -0.39651763 0.02286091 -0.09137021
-0.21048295 -0.42764285 0.3408322 0.15090038 -0.28888172 -0.10572502 0.13670617 -0.040722154
-0.011171154 -0.051051985 -0.13454457 0.3676601 0.07432724 0.031306516 -0.08751967 -0.09682535
-0.00051686587 0.24842651 0.046068184 -0.17671165 -0.19547735 -0.3721309 -0.017602334 -0.1925373
0.13460502 -0.30632475 -0.4628605 -0.027834738 -0.12075475 0.22594753 -0.033190463 0.06461143
-0.17757204 0.27973884 0.21319176 0.23767391 0.30100626 -0.264111 -0.19398072 -0.07294699
0.00421361 0.0075453175 0.017316353 0.3267959 0.021512697 0.090476856 0.15226948 -0.38745826
0.27292043 0.07965349 0.3641706 -0.24784033 -0.1103257 -0.32890093 -0.14604542 -0.29752433
0.16895176 -0.28080863 -0.1911109 0.26001927 -0.16751035 0.19634362 0.34979814 0.0012233594
0.073984 -0.048775822 0.094559774 0.37914178 0.32298908 -0.4589507 -0.4236623 -0.21552174
-0.6454129 0.08915929 -0.14577039 -0.1735594 0.1841337 0.15868232 0.10293116 0.040907376
0.028096074 0.10364875 0.13621838 -0.29557034 0.1706861 0.21769209 -0.17309071 0.2742541
-0.09376086 -0.12857419 0.57782876 -0.0015538104 0.3167724 -0.2209707 0.09384997 0.2875696
-0.48700902 -0.33878022 -0.39166862 0.2343256 0.007678646 0.06802464 0.29375815 -0.48132327
0.014559169 -0.35774565 -0.32812354 -0.027253218 0.008536649 -0.4271168 -0.42484668 0.10157414
-0.06858827 0.0017448061 0.13106568 -0.05085978 0.26856992 -0.51478994 -0.07940339 -0.24891233
-0.13936064 0.15896735 -0.1778646 0.26921418 0.15504363 0.12976667 -0.2101289 -0.17922783
0.06054925 -0.05101195 -0.13671824 0.26211098 -0.01509075 0.21812865 -0.04018759 -0.3386169
00000000: 435c 52bd e2fa 46be fb41 3a3d 1dc7 393e
00000010: 4152 d0be ed91 f83e fa1a b93d d9d4 a2be
00000020: 0bb7 873d 1754 b73d 5dd6 a0be 4a5b 67be
00000030: f562 0d3e 638c 7cbe 89e9 5f3e 5376 2c3e
00000040: b378 81bc 668d 9cbd 80b4 82be 20db 5cbe
00000050: 2e75 403e ac1d 913d 42d7 473e da07 303e
00000060: e0ba d1bd 9ea0 51be a035 2c3d 3ac4 043e
00000070: b211 9cbe 6861 283e 6d24 76be a4b4 03be
00000080: 86dc 7fbe 8a25 5cba d8f0 043e 8a50 2abc
00000090: 596e d13e 5aa0 823e d520 4d3e 31d7 f5be
000000a0: 3798 963e 5d01 f2bd aa36 873d f96f b33e
000000b0: c93c e53e f73d f2be 70d8 243d d467 9dbe
000000c0: 86d4 fd3c be19 cabe c2a3 f73e a838 363e
000000d0: f0ff e3be b704 fbbe 3b4c 113e f4d3 f8be
000000e0: f813 323e 39f5 e2be c90b f13e 3378 98bd
000000f0: 827c a13c ab93 443e a035 a43e 8ad1 b4be
00000100: e11b 413d 0c4a 95be 4b3c af3e ef19 d1be
00000110: 0c79 943e 03ef 6a3e 229a 923c 04aa eabe
00000120: d612 293e 7672 31be 9181 8b3e 0568 913e
00000130: d355 54be 40ec 1f3e d054 96bd 1670 4ebe
00000140: caae 003e b89a 2fbe 3034 d5bd ec1b f6bd
00000150: cbdf 933e 740a f53d 5b26 4cbe d927 e0bd
00000160: bea8 02be f159 963e ca6a 1abd 3a1a 91be
00000170: d79b 53be acdd 983e 5e0f cabe 2d61 b13c
00000180: 2e72 0a3d 87d4 1f3e 72b9 9abe 8bde 65be
00000190: 96fb c9bd c01f cf3c 2bf4 14be d03d d13d
000001a0: 5e2f 4ebe 63f4 91be 802a 9abc 3c36 8cbe
000001b0: 7b41 533e 9c19 a7bc 14d4 793e b9c3 07bd
000001c0: fa62 06be 2a28 11be fa39 9c3d 7f0c c03e
000001d0: 8969 dfbd 5c04 cbbe ce46 bb3c 4e20 bbbd
000001e0: d888 57be 01f4 dabe 8f81 ae3e a185 1a3e
000001f0: 4ee8 93be 5c86 d8bd b4fc 0b3e 46cc 26bd
00000200: 3707 37bc e31b 51bd 0dc6 09be f23d bc3e
00000210: e138 983d 433b 003d 833d b3bd 5e4c c6bd
00000220: 487e 07ba 8563 7e3e feb1 3c3d e6f3 34be
00000230: 372b 48be f187 bebe c532 90bc 7f28 45be
00000240: e6d5 093e 99d6 9cbe 0dfc ecbe ad05 e4bc
00000250: 444e f7bd ca5e 673e b9f2 07bd ff52 843d
00000260: 72d5 35be ee39 8f3e f14e 5a3e ca60 733e
00000270: 7e1d 9a3e 8f39 87be e2a2 46be 3b65 95bd
00000280: 5312 8a3b b63e f73b 06db 8d3c cb51 a73e
00000290: 653b b03c ee4b b93d 88ec 1b3e ee60 c6be
000002a0: 3abc 8b3e 5e21 a33d 9274 ba3e dbc9 7dbe
000002b0: 71f2 e1bd b465 a8be ee8c 15be 1c55 98be
000002c0: b101 2d3e 26c6 8fbe 93b2 43be 3f21 853e
000002d0: d587 2bbe 4d0e 493e be18 b33e 2159 a03a
000002e0: ec84 973d 28c9 47bd 8ea8 c13d df1e c23e
000002f0: d35e a53e 96fb eabe 44ea d8be bbb1 5cbe
00000300: c839 25bf 2599 b63d d544 15be 8eb9 31be
00000310: 8b8d 3c3e 9e7d 223e 92cd d23d 7e8e 273d
00000320: bd29 e63c cc45 d43d d57c 0b3e ff54 97be
00000330: 56c8 2e3e adea 5e3e b13e 31be 096b 8c3e
00000340: b205 c0bd f4a8 03be 96ec 133f 3aa9 cbba
00000350: fe2f a23e 2546 62be 6a34 c03d 533c 933e
00000360: 3f59 f9be 9a74 adbe ca88 c8be 0df3 6f3e
00000370: 279d fb3b 8150 8b3d 7867 963e 0170 f6be
00000380: 9589 6e3c 702a b7be cfff a7be 2442 dfbc
00000390: 4ddd 0b3c 0eaf dabe 8185 d9be 1a06 d03d
000003a0: 0278 8cbd fab1 e43a 1536 063e 5852 50bd
000003b0: ff81 893e 46c9 03bf 3f9e a2bd e0e2 7ebe
000003c0: 8eb4 0ebe 56c8 223e 2322 36be 71d6 893e
000003d0: c2c3 1e3e 8ee1 043e 082c 57be 8087 37be
000003e0: 7e02 783d e8f1 50bd deff 0bbe 6933 863e
000003f0: 313f 77bc 1e5d 5f3e be9b 24bd 325f adbe

linear1.bias f4 [30]
-0.3588757 -0.048390426 -0.28085607 -0.17080359 0.28391775 0.012056672 0.40967152 -0.107697725
0.14566794 0.054925922 0.14578223 0.0133813955 0.39895597 0.015335169 -0.046936423 -0.35609496
0.08238733 -0.060003616 -0.017253328 -0.31292024 0.31302688 -0.1446706 0.28369597 -0.10304406
-0.2490572 -0.4733425 0.3551885 -0.07657322 -0.08774395 0.04868124
00000000: 8ebe b7be 0a35 46bd 5ecc 8fbe 23e7 2ebe
00000010: ab5d 913e 5989 453c 77c0 d13e a090 dcbd
00000020: fa29 153e 01fa 603d f047 153e a43d 5b3c
00000030: f543 cc3e 5c40 7b3c 6840 40bd 1452 b6be
00000040: b0ba a83d 5ac6 75bd da56 8dbc 1537 a0be
00000050: 0f45 a03e 8824 14be 9940 913e c408 d3bd
00000060: da08 7fbe f359 f2be 44db b53e 6cd2 9cbd
00000070: 1ab3 b3bd fb65 473d

linear2.weight f4 [30, 30]
-0.07244124 -0.100205846 -0.14874935 0.021990417 -0.13335922 0.058446534 0.070258714 0.10883973
0.115690865 -0.11422278 -0.22833706 0.12546343 -0.20620261 0.060597338 -0.2436022 0.09112628
-0.30519506 -0.13475236 0.08518543 0.07706049 -0.042356778 -0.10059756 0.015162397 -0.16659738
0.016991252 0.044635043 0.067184344 0.031841934 0.070935614 -0.22489066 -0.06278968 -0.01773583
-0.090700164 -0.0034625835 0.15571402 -0.0017997319 -0.1900665 0.15801618 -0.049543098 -0.16221757
0.020030214 -0.037277207 -0.12789953 -0.08964959 -0.0312926 -0.036643792 -0.101920635 0.111339375
-0.08461265 0.09781 -0.10163159 -0.054347746 -0.041491073 -0.13415937 0.07488797 -0.15643023
-0.0879381 0.012637943 -0.09818377 -0.027890692 0.07903225 0.027082192 0.02585382 -0.048916265
0.072234504 0.051912837 -0.1418669 -0.13806377 -0.06623323 -0.16214567 -0.045839194 0.16554987
0.15279767 0.030886553 -0.17604642 0.12998524 -0.13262051 0.0024412484 0.12577894 0.045397744
0.109573096 -0.1902362 -0.109706625 0.112125285 -0.099014565 0.034411937 -0.02399078 -0.031669285
0.020313775 -0.15524274 0.11074295 0.025721611 0.06402409 -0.070450455 0.058353014 -0.011989015
-0.03371567 -0.037505966 0.10513982 0.12981308 0.07037567 0.16767219 0.09401178 -0.13326858
0.006869829 -0.06070158 0.038336303 -0.2275761 -0.23043029 0.14946145 -0.120391876 0.1265563
-0.08423448 0.08852628 -0.13816425 0.022870095 -0.14310755 0.108356 -0.018389331 0.03953509
-0.15872824 -0.10427558 0.017654821 0.09936803 0.10333555 0.04563172 -0.16707279 -0.16076505
-0.10607448 0.087688416 -0.17893444 -0.062243618 0.082291275 -0.008440725 0.12068468 -0.068351455
0.05562502 0.051705044 0.050274026 0.11752656 -0.1325124 0.020010024 0.039774228 0.049675744
-0.069451384 0.028592644 0.032994933 -0.121003695 -0.09155421 -0.030380575 -0.14207816 -0.0151345385
-0.015712783 -0.20147936 0.08361303 -0.10856894 0.008606694 0.011786668 -0.11554143 0.09435797
0.03071237 0.17488256 -0.22424406 -0.16248184 0.119372554 0.041461553 -0.07889475 0.041518923
0.13497326 0.025325254 -0.07608976 0.13741128 0.011803035 0.047651038 0.08434757 -0.19780864
0.107653186 0.025737748 0.07182643 -0.089017116 0.16924085 -0.07760686 0.03905058 0.17298257
0.01408706 0.0715372 -0.07337153 -0.06127107 0.084590286 0.0636325 0.11889988 -0.121459685
-0.08379145 0.11434731 0.17004666 -0.005595982 -0.022224963 -0.14321342 -0.09667897 0.1789062
-0.07346559 -0.16184172 -0.15199651 0.020136729 -0.045449674 0.015193164 0.13283032 -0.10290171
0.066950426 -0.063130304 0.018891755 -0.092971645 -0.019013137 -0.0077636903 0.039764315 0.08576133
0.013890748 0.08250273 -0.06485541 -0.17700183 0.13337542 -0.07223309 -0.12698531 -0.130989
0.031052412 -0.15783589 -0.081292555 -0.034360766 -0.077041715 -0.15476601 -0.20579419 -0.17099941
0.07223433 0.03854394 0.074361384 -0.18977143 0.12751041 0.13630241 -0.16482717 -0.0314111
0.07990969 0.09012965 0.040701196 -0.123978466 -0.17965727 -0.035821546 0.08718629 -0.16812246
0.1239053 -0.17235874 -0.0661082 -0.0216925 0.12071863 0.12593386 -0.042532217 0.030064609
00000000: 135c 94bd b938 cdbd c051 18be 3f25 b43c
00000010: 528f 08be a265 6f3d cde3 8f3d 5de7 de3d
00000020: 55ef ec3d a2ed e9bd 31d1 69be 7c79 003e
00000030: c726 53be ea34 783d db72 79be 6aa0 ba3d
00000040: 8742 9cbe 86fc 09be b375 ae3d e4d1 9d3d
00000050: 4d7e 2dbd 1806 cebd b46b 783c 8198 2abe
00000060: 3d31 8b3c 3cd3 363d f297 893d b06c 023d
00000070: b146 913d bd49 66be e097 80bd bb4a 91bc
00000080: 02c1 b9bd 83ec 62bb 7f73 1f3e fbe4 ebba
00000090: cba0 42be fece 213e b4ed 4abd 5d1c 26be
000000a0: 6716 a43c fcaf 18bd 18f8 02be 349a b7bd
000000b0: ab2c 00bd cd17 16bd c4bb d0bd e605 e43d
000000c0: 6649 adbd 9c50 c83d 3924 d0bd be9b 5ebd
000000d0: 8bf2 29bd 1361 09be dd5e 993d 3f2f 20be
000000e0: e418 b4bd 600f 4f3c 9314 c9bd 057b e4bc
000000f0: a9db a13d 79db dd3c 64cb d33c 6c5c 48bd
00000100: afef 933d 8ea2 543d 8e45 11be 9760 0dbe
00000110: 4aa5 87bd 8409 26be e1c1 3bbd e885 293e
00000120: fe76 1c3e cc05 fd3c 8345 34be da1a 053e
00000130: accd 07be 5afd 1f3b 32cc 003e fcf2 393d
00000140: dc67 e03d 47cd 42be dead e0bd f1a1 e53d
00000150: 26c8 cabd 88f3 0c3d 5088 c4bc a7b7 01bd
00000160: 1369 a63c f4f7 1ebe 33cd e23d 21b6 d23c
00000170: 101f 833d 5448 90bd 9203 6f3d 936d 44bc
00000180: 7119 0abd db9f 19bd 8c53 d73d b8ed 043e
00000190: 1f21 903d 42b2 2b3e 4089 c03d 8f77 08be
000001a0: 4d1c e13b 38a2 78bd 8706 1d3d b609 69be
000001b0: ebf5 6bbe 6c0c 193e 0490 f6bd fa97 013e
000001c0: 2183 acbd 444d b53d ee7a 0dbe 115a bb3c
000001d0: c98a 12be c0e9 dd3d 39a5 96bc 8cef 213d
000001e0: a889 22be 6f8e d5bd d8a0 903c 7781 cb3d
000001f0: 97a1 d33d 54e8 3a3d 2115 2bbe 989f 24be
00000200: 943d d9bd fc95 b33d 973a 37be 2af3 7ebd
00000210: 5488 a83d f74a 0abc 8829 f73d d9fb 8bbd
00000220: 10d7 633d abc8 533d 23ec 4d3d c4b1 f03d
00000230: 55b1 07be 10ec a33c 4dea 223d cb78 4b3d
00000240: 873c 8ebd 1f3b ea3c b225 073d c9d0 f7bd
00000250: c680 bbbd afe0 f8bc f07c 11be dbf6 77bc
00000260: 18b8 80bc 9b50 4ebe 4f3d ab3d 6459 debd
00000270: 1703 0d3c de1c 413c fca0 ecbd c03e c13d
00000280: 8298 fb3c 6a14 333e 3ca0 65be a461 26be
00000290: 9979 f43d 97d3 293d 9293 a1bd bf0f 2a3d
000002a0: 6e36 0a3e e876 cf3c f3d4 9bbd 8bb5 0c3e
000002b0: 8461 413c bc2d 433d 6bbe ac3d 598e 4abe
000002c0: 4679 dc3d f8d7 d23c bc19 933d 9b4e b6bd
000002d0: 794d 2d3e 58f0 9ebd 80f3 1f3d 5822 313e
000002e0: 69cd 663c 1882 923d d043 96bd 60f7 7abd
000002f0: ac3d ad3d c251 823d c881 f33d dbbf f8bd
00000300: da9a abbd ec2e ea3d b620 2e3e 805e b7bb
00000310: 2011 b6bc 8aa6 12be a0ff c5bd 3033 373e
00000320: 2175 96bd d6b9 25be f9a4 1bbe c8f5 a43c
00000330: 7029 3abd c0ec 783c ac04 083e 22be d2bd
00000340: 4e1d 893d 764a 81bd e2c2 9a3c eb67 bebd
00000350: 70c1 9bbc 8e66 febb e8df 223d a3a3 af3d
00000360: 0596 633c 31f7 a83d ead2 84bd f83f 35be
00000370: 9193 083e f1ee 93bd 7008 02be fb21 06be
00000380: a161 fe3c bb9f 21be b67c a6bd e0bd 0cbd
00000390: 0cc8 9dbd fb7a 1ebe b6bb 52be 781a 2fbe
000003a0: 98ef 933d 40e0 1d3d c84a 983d 7153 42be
000003b0: 1792 023e dc92 0b3e 74c8 28be eda8 00bd
000003c0: b1a7 a33d e595 b83d 4cb6 263d 6ce8 fdbd
000003d0: 13f8 37be 9db9 12bd ba8e b23d 4b28 2cbe
000003e0: 10c2 fd3d cf7e 30be bc63 87bd 78b4 b1bc
000003f0: 543b f73d cef4 003e 4336 2ebd 0e4a f63c

linear2.bias f4 [30]
0.024490375 -0.005916629 -0.15649568 -0.21573895 0.11006631 0.071497634 0.10509217 -0.15366915
0.053854372 0.26618317 0.045313925 -0.012655735 0.10247903 -0.031613786 -0.045323297 0.16369182
-0.025662802 -0.06914908 -0.23573174 -0.066937454 0.25598747 0.12276861 0.023192933 0.059134316
0.15035659 0.09775668 -0.18938357 0.11545184 0.07067721 0.022711923
00000000: 0aa0 c83c 48e0 c1bb 6740 20be acea 5cbe
00000010: 726a e13d 5a6d 923d 903a d73d 725b 1dbe
00000020: 6796 5c3d 2949 883e 189b 393d 005a 4fbc
00000030: 87e0 d13d 757d 01bd eca4 39bd d49e 273e
00000040: cc3a d2bc 089e 8dbd a963 71be 8116 89bd
00000050: ca10 833e 1c6e fb3d 1bff bd3c d336 723d
00000060: 14f7 193e a734 c83d c4ed 41be 0472 ec3d
00000070: 37bf 903d 5b0e ba3c

linear3.weight f4 [30, 30]
0.1224593 0.05394733 0.11046353 0.009122642 0.09265837 0.009401562 0.1825276 0.07949751
-0.07536787 -0.19875225 -0.016915828 -0.02917893 0.028535143 -0.07548021 0.07600099 0.06049989
0.06731931 -0.06422924 -0.1844125 -0.076919585 -0.19955602 -0.028056607 0.13102321 0.100089595
0.16194007 0.07424166 0.1708053 -0.05994084 -0.12549321 -0.14602663 0.1708414 -0.097320884
-0.0113112 0.048423618 -0.117202125 -0.09242312 0.035968885 -0.06975645 0.15436225 0.080113076
0.16159588 0.045702484 0.06482856 -0.16741101 -0.11811397 -0.13709557 0.059427913 0.12150338
0.09192277 -0.25878412 0.013423584 0.12677464 -0.33466005 -0.06961153 0.16098037 -0.054135446
-0.048414614 0.051017366 0.16257112 0.013845118 -0.10521229 0.020758426 0.046667814 0.061972726
0.077456 -0.09180491 -0.06768628 -0.051066495 -0.022652993 -0.17375496 0.07511383 -0.07486905
-0.06498939 -0.08072619 0.08869536 0.18160662 -0.132995 0.044238925 0.07868504 0.098666824
-0.24322774 -0.11792704 0.045991685 -0.20924483 -0.15202291 0.03123094 0.04025367 -0.03475646
-0.10843489 -0.16390526 0.043495607 0.017386883 -0.11404641 -0.15186699 0.0326658 -0.0021588753
0.13963428 -0.08281848 0.1321962 -0.0875852 0.009603947 0.053424016 0.033293217 -0.10500774
-0.13890484 -0.07922327 0.009986536 -0.080526836 0.011692696 -0.07394678 -0.052190036 0.03241919
0.057158325 -0.11123575 -0.16419923 -0.11484868 0.081799865 -0.0975406 -0.24643314 -0.1595057
0.010233597 0.1738503 -0.03863385 0.12278391 0.13958304 -0.06381451 -0.006696269 -0.12674688
-0.177158 0.092318885 0.16462559 -0.049824957 -0.049026996 -0.10204885 -0.089831576 -0.017041191
-0.003630806 -0.0016222149 0.034105506 0.033976078 -0.13070878 -0.012325853 -0.15900251 -0.01636548
-0.015754148 0.014800269 0.042763207 -0.16392516 0.025479037 0.11611309 -0.018061599 0.07064886
-0.04180309 0.08122593 0.0763455 -0.21846965 0.016873866 0.12034793 -0.09935664 0.050258003
0.052107677 -0.03516417 -0.057113647 -0.0021446224 0.15522945 0.06507988 0.05761179 -0.044785723
0.02165711 0.078936346 -0.061790727 0.09913424 -0.011901834 -0.17447892 -0.05683753 0.10526527
-0.061785825 -0.23937857 0.037449248 -0.029736096 0.029817758 -0.11467331 0.09607103 -0.041890632
-0.16157271 -0.11978735 0.11374119 -0.0381573 0.08007589 0.07958339 -0.071778424 -0.04505605
-0.12335244 -0.07840057 0.15933684 -0.052270755 0.10899259 -0.14076133 -0.09661446 0.08561155
-0.04145655 -0.059234828 -0.06566251 0.03160881 0.15925536 -0.14091621 0.1580647 -0.1456996
-0.18388315 -0.07638263 0.019034853 -0.16474336 0.08693333 0.003253885 -0.012342513 -0.043276537
-0.080931455 -0.0068952898 0.052819133 0.06718573 0.15753922 -0.14853749 0.065467075 -0.075944155
-0.20607485 -0.042341053 0.10979339 0.048553094 -0.027928455 -0.031824056 -0.1430778 0.1413089
-0.114882596 0.12847488 0.04015708 -0.040275894 -0.020882415 0.027743058 -0.118501656 -0.06593177
0.040756986 -0.14738654 0.1290014 -0.06431982 0.02508231 0.020442737 0.021139413 0.030862182
-0.0071244747 0.07240883 0.08008534 -0.037455324 0.0016283551 0.08547413 -0.17023294 -0.023062378
00000000: f1cb fa3d e0f7 5c3d b43a e23d 2277 153c
00000010: acc3 bd3d 0209 1a3c 84e8 3a3e 97cf a23d
00000020: 785a 9abd b685 4bbe 1093 8abc a708 efbc
00000030: 88c2 e93c 5e95 9abd 68a6 9b3d bcce 773d
00000040: b5de 893d 9f8a 83bd a1d6 3cbe 0488 9dbd
00000050: 6a58 4cbe f8d6 e5bc f32a 063e c6fb cc3d
00000060: 9ed3 253e 030c 983d 96e7 2e3e 8784 75bd
00000070: 4b81 00be 0188 15be 0cf1 2e3e 2c50 c7bd
00000080: 9d52 39bc d857 463d ab07 f0bd 5548 bdbd
00000090: 1c54 133d 78dc 8ebd 2311 1e3e 5312 a43d
000000a0: 6479 253e 8732 3b3d d6c4 843d cb6d 2bbe
000000b0: bde5 f1bd c862 0cbe af6a 733d c4d6 f83d
000000c0: 0142 bc3d 5a7f 84be 98ee 5b3c 36d1 013e
000000d0: 9058 abbe 7d90 8ebd 0ad8 243e 21bd 5dbd
000000e0: 674e 46bd 96f7 503d 0b79 263e a2d6 623c
000000f0: 8b79 d7bd 930d aa3c c026 3f3d 1dd7 7d3d
00000100: 40a1 9e3d 3604 bcbd 1b9f 8abd 1a2b 51bd
00000110: c592 b9bc d2ec 31be 48d5 993d f254 99bd
00000120: 2819 85bd c653 a5bd eaa5 b53d 16f7 393e
00000130: d72f 08be e033 353d 9f25 a13d d511 ca3d
00000140: b110 79be bb83 f1bd c761 3c3d 4744 56be
00000150: e5ab 1bbe 07d8 ff3c 08e1 243d ca5c 0ebd
00000160: 1d13 debd c8d6 27be 7328 323d f06e 8e3c
00000170: 2a91 e9bd 0583 1bbe 93cc 053d eb7b 0dbb
00000180: 4afc 0e3e bc9c a9bd 715e 073e df5f b3bd
00000190: e059 1d3c 24d3 5a3d 785e 083d 4c0e d7bd
000001a0: 123d 0ebe cf3f a2bd 919e 233c 41eb a4bd
000001b0: b992 3f3c 6971 97bd 38c5 55bd fcc9 043d
000001c0: d91e 6a3d 92cf e3bd d823 28be c935 ebbd
000001d0: b086 a73d 5ec3 c7bd f858 7cbe 7655 23be
000001e0: d1aa 273c d005 323e 873e 1ebd 2176 fb3d
000001f0: dbee 0e3e 2fb1 82bd 606c dbbb efc9 01be
00000200: e868 35be af11 bd3d 9c93 283e 4115 4cbd
00000210: 88d0 48bd fdfe d0bd 9ef9 b7bd f899 8bbc
00000220: d1f2 6dbb 80a0 d4ba 37b2 0b3d 802a 0b3d
00000230: 86d8 05be 60f2 49bc 8ed1 22be e610 86bc
00000240: d80e 81bc d47c 723c 7928 2f3d ffdb 27be
00000250: 6ab9 d03c b3cc ed3d ebf5 93bc 59b0 903d
00000260: b839 2bbd c859 a63d 085b 9c3d 82b6 5fbe
00000270: 103b 8a3c fa78 f63d 7e7b cbbd 56db 4d3d
00000280: dc6e 553d 4e08 10bd 00f0 69bd cb8c 0cbb
00000290: 78f4 1e3e 9a48 853d 57fa 6b3d 3c71 37bd
000002a0: 406a b13c 61a9 a13d 4618 7dbd e406 cb3d
000002b0: e9ff 42bc 9aaa 32be 78ce 68bd 5195 d73d
000002c0: 2213 7dbd a81f 75be 6264 193d 1d99 f3bc
000002d0: 5f44 f43c d7d9 eabd e3c0 c43d 8395 2bbd
000002e0: 5173 25be 1253 f5bd 24f1 e83d d44a 1cbd
000002f0: d4fe a33d 9efc a23d 9100 93bd b18c 38bd
00000300: 34a0 fcbd 7a90 a0bd 3229 233e dc19 56bd
00000310: 8237 df3d bd23 10be cddd c5bd 1c55 af3d
00000320: 58ce 29bd 38a0 72bd 117a 86bd 3d78 013d
00000330: d613 233e 574c 10be b6db 213e 4732 15be
00000340: dd4b 3cbe 7f6e 9cbd fbee 9b3c 7cb2 28be
00000350: 1a0a b23d 223f 553b 4038 4abc bd42 31bd
00000360: 64bf a5bd e2f1 e1bb e058 583d ac98 893d
00000370: f651 213e 361a 18be 9a13 863d 9c88 9bbd
00000380: 4905 53be d06d 2dbd 5bdb e03d 9cdf 463d
00000390: 37ca e4bc f159 02bd fd82 12be 48b3 103e
000003a0: 9147 ebbd eb8e 033e c07b 243d 56f8 24bd
000003b0: 9911 abbc 6945 e33c ffb0 f2bd 3c07 87bd
000003c0: ccf0 263d 7fec 16be f118 043e 1cba 83bd
000003d0: 6b79 cd3c 8777 a73c 902c ad3c b0d2 fc3c
000003e0: 6d74 e9bb 154b 943d c803 a43d c16a 19bd
000003f0: 886e d53a 100d af3d 8b51 2ebe 50ed bcbc

linear3.bias f4 [30]
-0.04212642 -0.038809273 -0.10711497 -0.0881878 -0.085984886 -0.24341498 -0.17286901 -0.15699968
-0.09148498 -0.03995757 0.026065176 -0.026928278 -0.049491946 0.004635938 -0.13629793 0.052773837
-0.0006609773 0.023766296 -0.20085326 -0.18124449 -0.0070885518 -0.023809366 -0.004114379 0.18918082
-0.084613994 -0.22421898 -0.20787431 -0.016005961 -0.15582004 -0.33378673
00000000: c18c 2cbd 79f6 1ebd 185f dbbd ce9b b4bd
00000010: d818 b0bd c741 79be 9304 31be 86c4 20be
00000020: 7a5c bbbd 8daa 23bd a386 d53c b198 dcbc
00000030: 11b8 4abd 11e9 973b af91 0bbe 6129 583d
00000040: 7045 2dba 89b1 c23c 7aac 4dbe 2898 39be
00000050: 1547 e8bb dc0b c3bc ead1 86bb 9eb8 413e
00000060: 1a4a adbd a999 65be 01dd 54be ef1e 83bc
00000070: 4a8f 1fbe 18e6 aabe

linear4.weight f4 [30, 30]
0.1453173 -0.12653376 0.078392364 0.06609611 -0.012423936 -0.10062438 -0.11563732 -0.13735798
-0.10617662 0.07324921 0.10660259 -0.028367484 -0.05618704 0.16865599 0.1298207 -0.12696455
-0.077913225 -0.018730909 -0.08976217 0.08510786 0.009424508 -0.17800093 -0.15843025 -0.08696535
-0.121351294 0.015396625 0.042627413 -0.09237989 0.005515769 -0.15855679 -0.10293792 -0.014684483
-0.002852642 0.06515807 0.11353765 0.07912271 -0.092323236 0.05063872 -0.08853958 -0.20009471
-0.037219074 0.1242896 0.1267945 0.0437969 0.003349567 0.03489644 -0.047940437 0.0049577896
-0.04806294 0.18385178 -0.08142239 0.14288105 -0.025104603 -0.054206166 0.13425562 0.20000562
-0.081916004 0.08488296 0.12987109 0.09151863 0.07401497 0.07638561 0.046407413 0.03794759
-0.09312843 0.15743996 0.12992829 0.03824101 0.09853683 0.11576922 0.12068585 -0.122192234
0.17105031 0.06675519 0.12479413 0.23183608 -0.07006017 0.017373314 -0.0662415 0.19099423
0.12339147 0.20243287 -0.053546317 -0.1832496 -0.0037942792 0.048189886 0.18214166 0.13026464
-0.1438409 -0.007905992 -0.11574798 0.0647826 -0.059107546 -0.016552566 0.1277143 -0.001996071
-0.11659419 0.09172167 -0.17801893 -0.14230964 0.07108055 0.07731694 0.08453858 0.041131794
-0.19830425 0.025575355 -0.20923285 0.06742049 0.06755271 0.04504931 0.045282148 -0.011296459
-0.25557557 -0.036850028 -0.16163234 0.035067983 -0.07942547 0.13066672 -0.17362149 0.03389379
-0.098981835 -0.13947456 0.049271055 0.057547003 -0.06215565 -0.0005434749 0.03153501 0.151225
-0.14845435 -0.16327672 0.048283722 0.09227835 -0.062264644 -0.03926436 0.09742251 -0.087418415
-0.039514843 -0.029773269 -0.064161405 0.1061204 0.0620647 0.12494397 -0.031862 -0.1003324
-0.17551886 -0.1480144 0.11755313 0.13337667 -0.008891763 0.24893814 0.14668597 -0.047243852
0.023266682 -0.09341635 0.11372598 -0.050842434 -0.15525365 -0.09974038 0.07675937 0.06345834
-0.045670774 0.023562696 0.057378184 -0.18846141 0.15147385 -0.044151276 0.009571481 0.015761908
0.10606792 -0.07544468 -0.006096696 0.059455164 0.022817202 -0.118975535 0.07651964 0.012193724
0.02841125 0.201707 -0.03871358 0.0070489915 0.0998466 -0.1300879 0.15222308 0.08865428
0.06201663 -0.17160904 0.016667191 -0.038727183 0.0015742779 -0.082206085 0.07470864 -0.07507414
0.15551978 0.023149073 0.043152515 -0.2081629 0.038649917 -0.014846074 -0.11059238 -0.11762371
-0.11020891 0.05684966 -0.16771239 0.059677042 -0.085844815 -0.12967768 -0.06128251 -0.013743513
0.11652072 0.014074757 -0.03697773 0.12843074 0.108369805 -0.08932823 -0.05109074 0.12615721
-0.11403744 0.026333835 0.09729916 -0.054709125 -0.08542716 -0.15728171 -0.08978456 -0.028282354
-0.03361767 0.08267242 0.05361887 -0.17242962 -0.18272431 0.1762279 -0.08974001 0.03696424
-0.17710577 0.12342598 -0.08754246 -0.104240574 -0.06103709 0.09278789 -0.16571476 -0.20745327
0.1086359 -0.126557 -0.05357109 0.066248894 -0.14762399 -0.17513388 0.03327617 -0.036400035
-0.15255097 -0.107684344 -0.034339607 0.10062966 -0.005087942 -0.00932689 0.14470527 -0.11840134
00000000: 0fce 143e 1192 01be 2d8c a03d 665d 873d
00000010: c48d 4bbc 2814 cebd 42d3 ecbd 92a7 0cbe
00000020: 2173 d9bd af03 963d 7552 da3d ed62 e8bc
00000030: 6224 66bd 28b4 2c3e b8ef 043e ff02 02be
00000040: f890 9fbd 9071 99bc 3bd5 b7bd 084d ae3d
00000050: 4069 1a3c e045 36be 8a3b 22be e41a b2bd
00000060: 0787 f8bd 2042 7c3c 159a 2e3d ab31 bdbd
00000070: a0bd b43b b65c 22be 1ed1 d2bd 3097 70bc
00000080: 64f3 3abb 9871 853d 6d86 e83d 160b a23d
00000090: f713 bdbd 8c6a 4f3d 3d54 b5bd a1e5 4cbe
000000a0: 0773 18bd 8c8b fe3d 6bd6 013e 6164 333d
000000b0: 6984 5b3b 92ef 0e3d 315d 44bd f474 a23b
000000c0: a5dd 44bd a443 3c3e c8c0 a6bd 694f 123e
000000d0: 2ba8 cdbc 4907 5ebd 4e7a 093e 46ce 4c3e
000000e0: 94c3 a7bd 1ed7 ad3d edfc 043e 1f6e bb3d
000000f0: 2995 973d 0f70 9c3d b315 3e3d ef6e 1b3d
00000100: 1eba bebd f137 213e ec0b 053e 9ba2 1c3d
00000110: adcd c93d 6a18 ed3d 252a f73d ec3f fabd
00000120: d027 2f3e f2b6 883d 1194 ff3d 7066 6d3e
00000130: b57b 8fbd 7b52 8e3c a0a9 87bd fe93 433e
00000140: abb4 fc3d 904a 4f3e 6253 5bbd c8a5 3bbe
00000150: 71a9 78bb c262 453d 5883 3a3e 1864 053e
00000160: 074b 13be 2288 01bc 470d edbd bdac 843d
00000170: c11a 72bd 3f99 87bc 8ac7 023e 84d0 02bb
00000180: efc8 eebd 92d8 bb3d 984a 36be 9eb9 11be
00000190: ae92 913d 5858 9e3d 9022 ad3d d079 283d
000001a0: 4510 4bbe 6883 d13c 2341 56be c113 8a3d
000001b0: 1359 8a3d a085 383d c679 393d c814 39bc
000001c0: cdda 82be 0ef0 16bd f382 25be 72a3 0f3d
000001d0: d2a9 a2bd 7fcd 053e d5c9 31be 37d4 0a3d
000001e0: fdb6 cabd 6bd2 0ebe 72d0 493d 68b6 6b3d
000001f0: ec96 7ebd fc77 0eba db2a 013d bada 1a3e
00000200: 6b04 18be 0332 27be 27c5 453d 6efc bc3d
00000210: 3609 7fbd aad3 20bd 7485 c73d 6d08 b3bd
00000220: 51da 21bd 12e7 f3bc 0e67 83bd a755 d93d
00000230: 8e37 7e3d a0e2 ff3d ba81 02bd 137b cdbd
00000240: 37bb 33be 1691 17be b2bf f03d e593 083e
00000250: c2ae 11bc a4e9 7e3e d934 163e c582 41bd
00000260: c599 be3c 1251 bfbd 2be9 e83d 2840 50bd
00000270: d0fa 1ebe af44 ccbd 0434 9d3d 72f6 813d
00000280: 4711 3bbd 8e06 c13c 6305 6b3d 07fc 40be
00000290: f61b 1b3e f8d7 34bd b3d1 1c3c 1e1f 813c
000002a0: 233a d93d be82 9abd cbc6 c7bb 4287 733d
000002b0: 24eb ba3c 72a9 f3bd 54b6 9c3d 2fc8 473c
000002c0: b6be e83c 488c 4e3e 2292 1ebd 3afb e63b
000002d0: 607c cc3d c335 05be 5ee0 1b3e 6090 b53d
000002e0: 2605 7e3d 48ba 2fbe a289 883c 65a0 1ebd
000002f0: 0058 ce3a aa5b a8bd d800 993d 79c0 99bd
00000300: 9440 1f3e 20a3 bd3c b1c0 303d a828 55be
00000310: 604f 1e3d f33c 73bc 427e e2bd b3e4 f0bd
00000320: 36b5 e1bd 30db 683d ccbc 2bbe ea6f 743d
00000330: 68cf afbd 3aca 04be 5f03 7bbd 792c 61bc
00000340: 6aa2 ee3d cf99 663c f675 17bd 5983 033e
00000350: fdf0 dd3d b8f1 b6bd 8644 51bd 5b2f 013e
00000360: 768c e9bd 0eba d73c c844 c73d ad16 60bd
00000370: 6ff4 aebd 750e 21be f8e0 b7bd 65b0 e7bc
00000380: afb2 09bd 2850 a93d 769f 5b3d 6491 30be
00000390: 151c 3bbe 1675 343e 9cc9 b7bd d167 173d
000003a0: 375b 35be c3c6 fc3d 7649 b3bd 157c d5bd
000003b0: 0702 7abd 9407 be3d 21b1 29be a16e 54be
000003c0: 807c de3d 2998 01be 5c6d 5bbd 80ad 873d
000003d0: be2a 17be 4c56 33be 984c 083d 3418 15bd
000003e0: 5236 1cbe 9c89 dcbd b0a7 0cbd ec16 ce3d
000003f0: c0b8 a6bb d0cf 18bc 9e2d 143e 677c f2bd

linear4.bias f4 [30]
0.10535114 -0.0994961 -0.1286196 -0.029405287 -0.0991211 -0.15195465 0.08769037 0.12902704
0.15371417 0.05621219 -0.29264775 -0.034269113 0.11576204 -0.10777501 -0.1752568 0.088758394
-0.10529551 -0.23156983 0.09626982 0.018970558 -0.4038285 -0.070696086 -0.06696697 -0.005056727
-0.118447945 0.041033424 -0.20432031 -0.3194624 -0.12212008 -0.1424883
00000000: 57c2 d73d 9cc4 cbbd dbb4 03be 5be3 f0bc
00000010: 0100 cbbd 009a 1bbe 0297 b33d aa1f 043e
00000020: 3f67 1d3e c13e 663d edd5 95be c55d 0cbd
00000030: a614 ed3d 25b9 dcbd 8576 33be f6c6 b53d
00000040: 2ca5 d7bd a420 6dbe 1d29 c53d 2568 9b3c
00000050: 9cc2 cebe 1cc9 90bd fb25 89bd e7b2 a5bb
00000060: d694 f2bd aa12 283d 5839 51be 9390 a3be
00000070: 181a fabd 74e8 11be

linear5.weight f4 [1, 30]
0.021696582 0.027711447 -0.0029856889 -0.01510434 0.06306386 0.019026473 0.029221017 -0.02947812
0.07970815 0.003307865 0.04408475 0.010294241 -0.023750458 0.061248124 0.0008452377 -0.009582948
0.015359456 -0.0005435998 -0.04410398 0.054932497 0.015304725 0.000875933 -0.007102929 0.024763681
0.001086348 -0.013555795 -0.009300327 0.010644531 -0.053354125 0.005598389
00000000: 08bd b13c 1e03 e33c 8cab 43bb 3278 77bc
00000010: a027 813d 68dd 9b3c ea60 ef3c 197c f1bc
00000020: 073e a33d c4c8 583b 3692 343d 2da9 283c
00000030: 5290 c2bc 50df 7a3d f192 5d3a cc01 1dbc
00000040: 3aa6 7b3c 5d80 0eba 60a6 34bd e600 613d
00000050: abc0 7a3c de9e 653a b0bf e8bb 34dd ca3c
00000060: ca63 8e3a 2019 5ebc 6660 18bc 6666 2e3c
00000070: db89 5abd b172 b73b
