基于ABM的智能化经济模拟平台/ambs/company_buffer/actor_checkpoint.pth (torch, 16895 bytes, 10 tensors)

linear1.weight f4 [30, 12]
0	0x3e6a3782	0.22872737
1	0xbe1ddf70	-0.15417266
2	0x3e8b5fef	0.2722163
3	0x3eb8c121	0.36084846
4	0x3b312eb9	0.0027035906
5	0x3e3645dc	0.17800087
6	0xbda8fede	-0.08251737
7	0x3ebaa9d1	0.36457685
8	0x3ddd7eb1	0.1081518
9	0x3e8ee182	0.27906424
10	0xbd5027d1	-0.050819222
11	0xbe514344	-0.20435816
12	0x3e9e17cd	0.30877534
13	0x3e095908	0.13412869
14	0xbe078fc9	-0.13238443
15	0x3ddacfef	0.106841914
16	0x3e00a159	0.12561549
17	0x3d505111	0.05085856
18	0x3e9dd616	0.30827397
19	0xbe5a074c	-0.21291846
20	0x3d605abc	0.05477403
21	0xbe643ccc	-0.22288817
22	0xbe46c902	-0.19412616
23	0x3e6ebac0	0.23313427
24	0xbe19fbf8	-0.15037525
25	0xbe27236c	-0.16322106
26	0x3e2ad829	0.16684021
27	0x3daa11c9	0.083041735
28	0x3e94647c	0.28982913
29	0x3ea482d1	0.32131055
30	0x3e645853	0.22299318
31	0x3e06f408	0.13179028
32	0x3da5629f	0.08075451
33	0x3e8f43d0	0.27981424
34	0x3db95667	0.09049683
35	0x3e90bf05	0.28270736
36	0x3e5e726c	0.21723336
37	0xbe57a8c7	-0.21060477
38	0x3dab0c89	0.08352
39	0xbe0ca3f3	-0.13734417
40	0x3e84c348	0.25930238
41	0xbcab5a60	-0.020917118
42	0xbd4a7de6	-0.049436472
43	0x3e837824	0.25677598
44	0xbd0e4a05	-0.03473856
45	0x3d401272	0.04689259
46	0x3ea09f8c	0.31371725
47	0x3ea974ad	0.3309683
48	0x3b2f77d6	0.0026774309
49	0xbe2a4a32	-0.16629866
50	0xbe11efd4	-0.14251643
51	0xbd54eef5	-0.0519857
52	0xbdc5fa0d	-0.09666834
53	0x3dde7b29	0.10863335
54	0x3c6231b5	0.013805796
55	0xbe076a5e	-0.1322417
56	0x3ca59c70	0.020216197
57	0x3e687ffd	0.22705074
58	0x3d99ee3d	0.075161435
59	0x3e471b08	0.19443905
60	0x3df1837e	0.11792658
61	0x3e382dac	0.17986172
62	0x3e342237	0.17591177
63	0x3e996a44	0.29963887
64	0x3e554358	0.20826471
65	0xbd43a05e	-0.04776036
66	0xbe39755c	-0.18111175
67	0xbe10ec9f	-0.14152764
68	0xbd9dfe9e	-0.0771458
69	0xbdba66a4	-0.091016084
70	0x3e703ac5	0.23459919
71	0x3de0096e	0.109392986
72	0x3dce5d1f	0.10076355
73	0x3ea6843d	0.32522765
74	0x3e3b7c19	0.18309058
75	0x3eb0715b	0.34461483
76	0x3ea8a0c7	0.32935163
77	0x3db7b409	0.08969886
78	0xbd1d88b2	-0.03846044
79	0xbe3439d5	-0.17600186
80	0xbd6183c4	-0.055057302
81	0x3e7e162c	0.24813145
82	0x3e03f8e4	0.12887913
83	0x3e6fcb2a	0.23417345
84	0xbd81be57	-0.063351326
85	0x3cd83a20	0.026394904
86	0xbd7b5b48	-0.06136635
87	0x3e6e7821	0.23288013
88	0xbe47b509	-0.19502653
89	0x3e8863dd	0.2663869
90	0x3d04ec04	0.032451645
91	0xbd856a26	-0.06514387
92	0xbe080eec	-0.13286942
93	0xbe74af09	-0.23894896
94	0xbe8ac10e	-0.27100414
95	0xbe38629b	-0.18006365
96	0x3ddae125	0.10687474
97	0x3c0f5890	0.008749142
98	0xbe479693	-0.19491033
99	0x3d313ee9	0.043272886
100	0xbd9caf40	-0.07650614
101	0xbdfe3578	-0.12412542
102	0x3e4646ca	0.19362941
103	0xbe29b6c9	-0.16573633
104	0xbdd9fdab	-0.106440865
105	0xbdde7083	-0.10861304
106	0x3ea038d2	0.3129335
107	0x3c40fc48	0.011778899
108	0xbe35aa3c	-0.1774072
109	0x3e7843c4	0.242446
110	0xbda6ba11	-0.08140958
111	0xbdc47636	-0.095928594
112	0x3eb1330e	0.34609264
113	0xbdd0e39f	-0.10199665
114	0x3d6487f3	0.055793714
115	0xbe2b5c34	-0.16734391
116	0xbe279c6d	-0.16368265
117	0xbd9784ff	-0.07398414
118	0xbdf01c9b	-0.11724206
119	0xbe2bf034	-0.16790849
120	0xbe18d6e0	-0.14925718
121	0xbd9a0d09	-0.075220175
122	0xbd9c23fc	-0.07624051
123	0xbc51e71a	-0.012811447
124	0x3e25cdb7	0.16191755
125	0xbc975fae	-0.01847824
126	0x3d31eaff	0.043437
127	0x3e2529bd	0.16129203
128	0xbd1153f5	-0.03548046
129	0x3e77ba82	0.24192241
130	0xbe3f3317	-0.18671833
131	0x3e331280	0.17487526
132	0x3dd0fd5d	0.10204575
133	0xbe16a575	-0.14711554
134	0xbe281c13	-0.1641696
135	0x3e87a0d7	0.264899
136	0x3e9788d8	0.2959659
137	0x3e61ad14	0.2203868
138	0x3eacc8a2	0.3374682
139	0xbd5da1a6	-0.054109238
140	0xbdcfdc52	-0.10149445
141	0x3dae0d1a	0.08498593
142	0xbdedbac3	-0.116078876
143	0x3e457854	0.19284183
144	0xbdbe98a8	-0.093064606
145	0x3e17a0d5	0.14807446
146	0x3ded5964	0.115893155
147	0xbcccb6cb	-0.024989506
148	0x3ea58860	0.32330608
149	0xbdd8b98a	-0.10582264
150	0x3e95dfca	0.292723
151	0x3e9cda39	0.3063524
152	0x3e1c84c5	0.15285023
153	0x3e914ff1	0.28381303
154	0xbdb9a2f3	-0.09064283
155	0x3ea342c8	0.31886888
156	0xbe81700b	-0.25280795
157	0x3c2dfa1a	0.010618711
158	0x3e12ed08	0.14348233
159	0x3e4efbb3	0.20213203
160	0xbded3d31	-0.11583937
161	0xbd09935d	-0.033587802
162	0xbde257fd	-0.11051939
163	0x3e877aec	0.2646097
164	0x3cd31070	0.025764674
165	0xbe344f9c	-0.17608494
166	0x3ba2305b	0.004949612
167	0x3e9a21b0	0.30103827
168	0x3d9218e8	0.07133657
169	0xbd35a7fb	-0.04434965
170	0xbe1307b8	-0.14358413
171	0x3e26958e	0.16267988
172	0x3d1d50c5	0.038407106
173	0x3e029e7d	0.12755771
174	0x3ea671de	0.3250875
175	0x3b31850e	0.0027087363
176	0x3ead1269	0.33803108
177	0x3eb65df6	0.35618562
178	0x3e90c2b0	0.28273535
179	0xbe122bf0	-0.14274573
180	0x3e53dead	0.20690413
181	0xbdcdfc7e	-0.10057925
182	0x3d609ae5	0.05483522
183	0x3d991b57	0.07475918
184	0xbdf76c38	-0.12081188
185	0x3e70be6b	0.23510139
186	0x3e9d2970	0.30695677
187	0xbdc3030e	-0.09522067
188	0x3e4fc1a3	0.2028871
189	0x3e7d7d1c	0.24754757
190	0x3da4b0a8	0.08041507
191	0xbe0a3b38	-0.13499153
192	0x3e9a8998	0.301831
193	0x3e598302	0.21241382
194	0x3e3c0bea	0.1836392
195	0xbe35850b	-0.17726533
196	0x3eac1baf	0.3361487
197	0x3d41a924	0.047280446
198	0xbdff560b	-0.12467583
199	0x3e2851e0	0.16437483
200	0xbe525e84	-0.20543867
201	0xbe1033e8	-0.140823
202	0xbe27b31c	-0.16376919
203	0x3e756524	0.23964363
204	0x3eac559c	0.33659065
205	0x3ea81f3c	0.3283633
206	0x3eaf3ca4	0.34225953
207	0x3c6b586e	0.014364345
208	0x3db00168	0.08594018
209	0x3ded84d0	0.115975976
210	0xbc95bf08	-0.018279567
211	0x3ea6b6a9	0.32561234
212	0xbd59cd74	-0.05317445
213	0x3db3cb49	0.08779008
214	0x3d2fa076	0.042877637
215	0x3e208d86	0.15678987
216	0xbdf2c26a	-0.11853488
217	0x3e406a0e	0.18790457
218	0x3d98f19e	0.0746796
219	0x3eb063d1	0.34451154
220	0x3d94fc5b	0.072746955
221	0xbe2f22f1	-0.17103173
222	0xbe2c0daf	-0.16802095
223	0x3eaadfae	0.3337378
224	0xbe3d7bb9	-0.18504228
225	0x3c9f51e3	0.019448226
226	0xbe5133be	-0.20429894
227	0x3e2382be	0.15967843
228	0x3e92d293	0.2867628
229	0x3e22e147	0.15906249
230	0x3e2d7d4b	0.16942327
231	0x3ea2240f	0.31668136
232	0x3c05451f	0.0081341555
233	0x3dec4b35	0.11537782
234	0x3eaf3112	0.34217125
235	0x3dab01c7	0.083499484
236	0xbd97614c	-0.07391605
237	0xbc7278ff	-0.0147993555
238	0xbe115b15	-0.14194901
239	0x3eb45a50	0.35225153
240	0x3c7a9838	0.015295081
241	0xbe31cf47	-0.17364226
242	0xbe232c43	-0.15934853
243	0x3e8799d3	0.26484546
244	0x3dafe8b0	0.085893035
245	0x3d04a3e0	0.032382846
246	0xbe41da3d	-0.18930908
247	0x3db159f7	0.086597376
248	0x3e8c5bd0	0.27413797
249	0xbe2af096	-0.16693339
250	0xbe6ef682	-0.23336223
251	0xbdbdb792	-0.09263529
252	0x3e04016b	0.12891166
253	0xbcc08ed3	-0.023505604
254	0xbd67a509	-0.056553874
255	0x3e592ec7	0.2120925

linear1.bias f4 [30]
0	0x3e8adffc	0.27124012
1	0xbde66b34	-0.11250916
2	0x3e393cc9	0.18089594
3	0x3e894710	0.2681203
4	0xbdb28949	-0.08717591
5	0xbe4d65bb	-0.20058338
6	0xbe2adc67	-0.1668564
7	0x3d16c9c8	0.036813527
8	0x3eaaccc4	0.3335935
9	0x3ea9ed9e	0.331891
10	0xbde6a14f	-0.11261236
11	0x3e9c1553	0.3048502
12	0x3e31f88b	0.17379968
13	0xbe724d1c	-0.23662227
14	0x3e36f4a5	0.17866762
15	0x3e9fcc2d	0.3121046
16	0x3e5b4495	0.2141288
17	0xbe3ccd02	-0.1843758
18	0xbd50c7fc	-0.05097197
19	0xbe2dd879	-0.16977109
20	0x3e85127d	0.25990668
21	0xbdd9668d	-0.10615263
22	0xbd5036f1	-0.050833646
23	0x3def6417	0.116890125
24	0xbe45bae4	-0.19309574
25	0xbe1f405b	-0.15551893
26	0xbdf1528b	-0.11783322
27	0x3ebb375b	0.3656567
28	0x3eb2afe7	0.34899828
29	0x3eb564fb	0.35428604

linear2.weight f4 [30, 30]
0	0x3e5a9fc8	0.21350014
1	0xbcbd9ae0	-0.02314514
2	0xbc171430	-0.009221122
3	0x3c57da33	0.013174581
4	0xbdc8c27b	-0.09802719
5	0x3e095df7	0.13414751
6	0xbc334c64	-0.010943506
7	0x3cd63d73	0.026152348
8	0x3c1e9f0d	0.009681475
9	0xbc711c2e	-0.014716191
10	0x3e40770a	0.1879541
11	0x3db86b32	0.09004821
12	0x3de9497e	0.11390971
13	0x3dfe6def	0.12423312
14	0x3d5284c5	0.05139615
15	0x3e4d41cc	0.20044631
16	0xbdfbd00a	-0.1229554
17	0x3ddc0051	0.10742248
18	0xbb0aa0ee	-0.002115305
19	0x3e3f0b4d	0.18656655
20	0xbbe2e256	-0.006923954
21	0xbd3282ff	-0.04358196
22	0x3e061de8	0.13097346
23	0xbd950a14	-0.07277313
24	0xbdbe419e	-0.09289859
25	0xbb65df3b	-0.0035075683
26	0x3e43a3fc	0.19105524
27	0x3d0cedcf	0.03440648
28	0x3daa6cbe	0.08321522
29	0xbdaa0c32	-0.08303107
30	0x3e7d8db6	0.2476109
31	0xbd4ac022	-0.04949964
32	0x3db21bfa	0.08696742
33	0xbbdf70c4	-0.0068188626
34	0xbde37d6b	-0.11107906
35	0xbd185768	-0.037192732
36	0x3e424089	0.1896993
37	0x3da6ee8c	0.08150968
38	0x3de53418	0.11191577
39	0xbd6ef8e1	-0.05834282
40	0x3dd0a579	0.101878114
41	0x3d7b85b7	0.061406817
42	0x3e774ed1	0.2415116
43	0x3e01af7d	0.126646
44	0xbdae5dec	-0.08514008
45	0x3db0843a	0.0861897
46	0x3e521b50	0.20518231
47	0x3e3bbbb8	0.18333328
48	0xbc66694b	-0.01406319
49	0x3da748ca	0.0816818
50	0xbc67097a	-0.0141013805
51	0x3e60474a	0.21902195
52	0xbd2cf030	-0.04222125
53	0x3df72fe1	0.12069679
54	0x3d0e4f24	0.034743443
55	0x3e188582	0.14894679
56	0x3dfbff9e	0.123046145
57	0x3d9cd58b	0.076579176
58	0x3e0c0a23	0.13675742
59	0xbcf3e316	-0.029771369
60	0xbdca1ead	-0.09869132
61	0xbd8874b1	-0.06662882
62	0x3e60efb6	0.21966442
63	0x3d78f3d0	0.060779393
64	0x3de4fc49	0.11180932
65	0x3e32465e	0.17409655
66	0x3db99a85	0.090626754
67	0x3d9fdf9f	0.07806324
68	0xbcb93a1e	-0.02261072
69	0xbdb6e0a0	-0.089295626
70	0x3b1b44c7	0.0023692118
71	0x3da2a998	0.07942504
72	0xbde1f3bc	-0.11032817
73	0x3e149aa8	0.14512122
74	0x3d043bd0	0.032283604
75	0x3e420158	0.18945825
76	0xbd277739	-0.040885184
77	0x3e355f42	0.17712119
78	0xbbdfd851	-0.006831207
79	0x3e4e37e7	0.20138513
80	0xbd9ddf40	-0.07708597
81	0x3db73779	0.089461274
82	0xbdc67b8e	-0.09691535
83	0x3d94ffb8	0.07275337
84	0x3e375e46	0.17907056
85	0x3e7595c2	0.2398291
86	0x3e038ce0	0.12846708
87	0xbdc9f9df	-0.09862112
88	0xbda9f981	-0.08299542
89	0xbdcaeb87	-0.099082045
90	0x3e10cbac	0.14140195
91	0x3d6df56c	0.05809538
92	0x3d51fc97	0.05126628
93	0x3e295c6e	0.16539165
94	0x3cbc946e	0.023019996
95	0xbd6d1927	-0.057885315
96	0x3d48036a	0.04883138
97	0x3d835b80	0.064139366
98	0x3e175498	0.14778364
99	0x3dfcc11d	0.12341521
100	0x3e29c505	0.16579063
101	0x3e080c45	0.1328593
102	0x3e5bd5c3	0.21468262
103	0x3e04c69a	0.12966385
104	0x3b40cd3b	0.0029419202
105	0x3dc3780a	0.0954438
106	0x3ddd9fc8	0.108214915
107	0x3de4d1b1	0.11172808
108	0x3d45b5d1	0.048269097
109	0xbe019c9b	-0.12657396
110	0xbc24d1aa	-0.010059753
111	0x3e6678a0	0.22506952
112	0x3ddde6ae	0.10835014
113	0x3d8de620	0.069286585
114	0xbd326a95	-0.043558676
115	0x3e42e4fc	0.19032663
116	0x3e47d586	0.19515046
117	0x3d512d08	0.051068336
118	0x3e20cc6d	0.15702982
119	0x3e29e31c	0.16590542
120	0xbd896e46	-0.06710486
121	0x3cd86010	0.026412994
122	0xbd42efb0	-0.047591865
123	0xbe010481	-0.12599374
124	0x3b706c00	0.0036685467
125	0xbd9b335c	-0.075781554
126	0x3da37f18	0.079832256
127	0x3e1982a8	0.14991248
128	0x3beec780	0.007286966
129	0xbd70e3fe	-0.05881118
130	0xbded88d8	-0.115983665
131	0xbdb7d77b	-0.089766465
132	0xbde75161	-0.11294819
133	0x3dddf694	0.10838047
134	0x3dc24030	0.09484899
135	0xbdff4617	-0.124645405
136	0x3ce2a438	0.027666196
137	0x3e0ecf26	0.13946208
138	0xbd0075e0	-0.031362414
139	0x3dadaa94	0.08479801
140	0x3d5b2ef4	0.053511575
141	0x3cbbd540	0.022928834
142	0xbd0883c0	-0.03332877
143	0x3e08c722	0.13357213
144	0xbe191e7a	-0.14953032
145	0xbc419ba0	-0.011816889
146	0x3d89dc0e	0.06731425
147	0xbcd5ccb8	-0.026098594
148	0xbd8def43	-0.06930401
149	0x38f9b800	0.00011907518
150	0x3e1389fd	0.14408107
151	0x3dafd010	0.08584607
152	0x3dff4e89	0.12466151
153	0x3e1d5c90	0.15367341
154	0x3d62cef4	0.055373147
155	0xbc42974c	-0.011876892
156	0x3e6bd0b9	0.2302884
157	0x3d4fe224	0.050752774
158	0xbd3e9d2e	-0.046536617
159	0x3e4ad746	0.19808683
160	0x3e1abbbf	0.15110682
161	0x3d9bf743	0.07615521
162	0xbcd77681	-0.026301624
163	0x3dc5ae61	0.09652401
164	0x3dfaf2af	0.122533195
165	0xbdd7b29b	-0.10532113
166	0x3dae3701	0.08506585
167	0x3e07e689	0.13271536
168	0xbcf3682f	-0.029712765
169	0x3e2aef44	0.16692835
170	0x3d7f9ae7	0.062403586
171	0x3e34c9aa	0.17655054
172	0x3e5c7ab0	0.21531177
173	0x3d6a5744	0.05721213
174	0x3d8de92c	0.0692924
175	0xbdacdc01	-0.084404
176	0x3e3284a8	0.17433417
177	0xbbbd9438	-0.0057854913
178	0x3e151d39	0.14561929
179	0x3e19979e	0.14999244
180	0x3db9ca67	0.09071808
181	0x3cebc2a7	0.02877934
182	0x3e644db6	0.2229527
183	0x3c45494c	0.012041401
184	0x3da2534a	0.079260424
185	0xbcf22520	-0.029558718
186	0xbdb00077	-0.08593839
187	0x3d184050	0.03717071
188	0x3e1babbf	0.15202235
189	0x3e29d4d2	0.16585091
190	0x3d072e04	0.03300287
191	0x3e146e47	0.14495192
192	0x3e1ff873	0.1562212
193	0x3d1b921a	0.03798113
194	0x3e50228e	0.20325682
195	0x3d46dd6c	0.048551008
196	0x3c2e1dda	0.010627234
197	0x3e76eb97	0.24113308
198	0xba9e43ed	-0.0012074687
199	0x3c07db4c	0.008292031
200	0x3c8725fe	0.016497608
201	0xbd0fcefe	-0.035109513
202	0x3e6da643	0.23207955
203	0xbd0789eb	-0.033090513
204	0xbdab6297	-0.08368414
205	0xbd47f68c	-0.04881911
206	0x3d7a14c0	0.061054945
207	0x3dfa1ffd	0.122131325
208	0x3e41bd90	0.18919969
209	0x3dac375b	0.08408996
210	0xbe023e60	-0.12719107
211	0xbb70e540	-0.0036757737
212	0x3d30c1bc	0.04315351
213	0xbdca8de9	-0.098903485
214	0xbc8bf3b0	-0.017083973
215	0xbe13a1b0	-0.14417148
216	0x3dfbe2d0	0.122991204
217	0xbdea97bf	-0.114547245
218	0xbe374f3a	-0.17901316
219	0xbdac3bbc	-0.08409831
220	0xbcff3f20	-0.03115803
221	0xbe0c35f2	-0.13692454
222	0xbda15e75	-0.078793444
223	0xbd9c4276	-0.07629864
224	0xbdb3bab7	-0.087758474
225	0x3e000960	0.12503576
226	0x3c167b70	0.009184703
227	0xbdee5631	-0.116375335
228	0x3e2ee596	0.17079768
229	0xbe071516	-0.13191637
230	0x3d27aed0	0.0409382
231	0x3e0606aa	0.1308848
232	0x3cb1c6b0	0.021701187
233	0x3e065d74	0.13121587
234	0xbe27b8c5	-0.16379078
235	0xbca4a888	-0.020099893
236	0x3d0e2754	0.034705475
237	0x3df4c340	0.119513035
238	0xbcd9aac0	-0.026570678
239	0xbe17d330	-0.14826655
240	0x3d07acc0	0.03312373
241	0x3be39260	0.0069449395
242	0x3da91e90	0.082577825
243	0x3da08c40	0.078392506
244	0xbd518ad4	-0.051157787
245	0x3e1bce62	0.15215448
246	0xbe38113d	-0.17975326
247	0xbdae05b0	-0.084971786
248	0xbca45de0	-0.020064294
249	0x3dc2df48	0.09515244
250	0xbccf14f0	-0.025278538
251	0x3d9fa9bc	0.07796046
252	0xbbceff60	-0.006317064
253	0x3c24dbc0	0.010062158
254	0xbdee7ff5	-0.116454996
255	0x3cd5c8a8	0.026096657

linear2.bias f4 [30]
0	0xbe07450b	-0.13209932
1	0xbdc1ce05	-0.09463123
2	0xbc7a9ffc	-0.015296932
3	0x3e712b84	0.23551756
4	0xbdbab828	-0.09117156
5	0xbd8e5850	-0.06950438
6	0x3e4f9778	0.20272624
7	0xbe2badd8	-0.16765535
8	0xbdd57081	-0.10421849
9	0x3d4ff6f2	0.050772615
10	0x3d16e44b	0.03683881
11	0x3e351a34	0.17685777
12	0x3e1f1332	0.15534666
13	0x3e5eb1a9	0.2174746
14	0x3e7858b9	0.24252595
15	0x3d3a004b	0.045410436
16	0xbe25e7c2	-0.1620169
17	0x3e12ec6b	0.14347999
18	0x3dc5dd5f	0.09661364
19	0x3d037c0f	0.032100733
20	0x3dddbb4d	0.108267404
21	0xbe209b41	-0.15684225
22	0x3da273f9	0.07932276
23	0x3d85b1c2	0.06528045
24	0xbb970bc7	-0.0046095583
25	0x3e69b63c	0.22823423
26	0xbdd53d74	-0.10412112
27	0xbd4a02a0	-0.04931891
28	0x3e4a27e8	0.19741786
29	0xbd282ba8	-0.04105726

linear3.weight f4 [30, 30]
0	0x3d49421f	0.049135324
1	0xbc2c0006	-0.010498052
2	0x3de89739	0.113569684
3	0x3e293b9e	0.16526648
4	0x3e2209b4	0.15824014
5	0xbcfbd85b	-0.030742815
6	0x3e699f77	0.22814737
7	0x3e1facd0	0.15593266
8	0xbe1d5ddc	-0.15367836
9	0x3d892d43	0.06698086
10	0x3e6120a9	0.21985115
11	0x3e72a510	0.23695779
12	0x3c4d2bc0	0.012522638
13	0x3d5126db	0.051062446
14	0x3d2a69df	0.041604873
15	0x3da4c200	0.08044815
16	0xbc189600	-0.009313107
17	0xbcdd876a	-0.02704211
18	0x3d88416c	0.06653103
19	0x3d73e7eb	0.059547346
20	0x3ccd80e7	0.02508588
21	0x3dff27e9	0.12458784
22	0xbe08c6b2	-0.13357046
23	0xbaa647b8	-0.0012686169
24	0x3cd85702	0.026408676
25	0x3ce232b0	0.02761206
26	0xbdd789b8	-0.10524315
27	0xbcecb796	-0.028896134
28	0x3d606ee0	0.05479324
29	0x3e659ace	0.22422335
30	0x3e2e2f9c	0.17010349
31	0x3d3be013	0.04586799
32	0x3d7797d2	0.06044752
33	0xbce3fa0a	-0.027829189
34	0x3e29ae84	0.16570479
35	0x3e44f985	0.19235809
36	0x3c93875f	0.018008886
37	0x3e305c98	0.17222822
38	0x3dd4af0c	0.1038495
39	0xbe118b33	-0.14213257
40	0x3d4c9f85	0.049956817
41	0x3d36b4ea	0.044606127
42	0x3e31dd0c	0.17369479
43	0xbe06772f	-0.13131402
44	0x3e567263	0.20942073
45	0x3dfeedcf	0.12447702
46	0xbe344f20	-0.17608309
47	0x3e65b19d	0.22431035
48	0x3e472df6	0.19451126
49	0x3ba45461	0.0050149416
50	0xbdaac05e	-0.083374724
51	0xbe32014a	-0.17383304
52	0xbd02317f	-0.031785484
53	0x3e05bc18	0.13060033
54	0x3d2556c4	0.04036595
55	0x3de93b08	0.113882124
56	0xbe3957be	-0.18099877
57	0x3c36ce33	0.01115756
58	0xbda0d20a	-0.07852562
59	0x3e44feef	0.19237874
60	0x3c0fd7ab	0.008779447
61	0x3e6d245f	0.23158406
62	0x3e24422b	0.16040866
63	0x3e25612a	0.16150346
64	0x3e10f3ba	0.14155474
65	0xbc5bba77	-0.013411156
66	0x3e34ab17	0.1764339
67	0xbdf0008a	-0.11718853
68	0xbd381414	-0.044941023
69	0x3e2be215	0.16785462
70	0x3d6e6511	0.058201853
71	0x3d44cb93	0.048045706
72	0xbdcb3ce5	-0.09923724
73	0x3d260083	0.04052783
74	0x3e2965a1	0.16542675
75	0xbd318c8e	-0.043346934
76	0xbd317030	-0.04331988
77	0xbbf74db2	-0.007547104
78	0x3e38e41b	0.18055765
79	0xbb083dc1	-0.0020788761
80	0x3dcbdc8c	0.09954175
81	0xbd831d6a	-0.06402095
82	0xbd7c3878	-0.06157729
83	0x3e2a278f	0.16616653
84	0x3e4d80b4	0.20068628
85	0x3e6b5a64	0.229837
86	0xbdc74692	-0.09730257
87	0x3dc909c0	0.09816313
88	0x3a7d3136	0.0009658517
89	0xbbc3dd26	-0.0059772907
90	0xbccba732	-0.024859998
91	0x3e1a1e94	0.15050727
92	0x3e72ee95	0.23723824
93	0x3e1b0352	0.15137985
94	0xbd0d692c	-0.034524128
95	0x3e1b64d9	0.15175189
96	0xbd7d3bac	-0.061824486
97	0xbde239a0	-0.11046147
98	0xbdd0c0ef	-0.10193049
99	0xbd80f0af	-0.06295907
100	0x3dc333b8	0.09531349
101	0xbdbc3a2c	-0.09190783
102	0x3d626e8c	0.055281207
103	0x3c98e547	0.018664015
104	0x3dfa768c	0.12229642
105	0x3dc76918	0.09736842
106	0xbd47626c	-0.048677847
107	0x3e2c17f0	0.16806006
108	0x3d8cf8dc	0.06883404
109	0x3e6dec32	0.23234633
110	0x3e479d0a	0.194935
111	0x3de71e86	0.11285119
112	0x3dc62f85	0.096770324
113	0x3dfbda96	0.12297551
114	0xbda1a6d0	-0.07893145
115	0x3d828438	0.06372875
116	0x38a8c800	8.048117e-05
117	0xbd380019	-0.044921968
118	0x3e07dbf5	0.132675
119	0x3e348689	0.17629446
120	0x3c2c1f9d	0.010505584
121	0x3e4e9f9c	0.20178074
122	0x3d25f530	0.040517032
123	0x3e1f94c9	0.15584101
124	0x3dd93e60	0.106076
125	0x3da4cc52	0.080467835
126	0x3db92768	0.09040719
127	0x3d1eb104	0.038743034
128	0x3de8ad30	0.11361158
129	0x3e12db05	0.14341362
130	0x3e748573	0.23879032
131	0x3b6d4c08	0.0036208648
132	0x3ddf55f8	0.10905069
133	0xbdedfb3f	-0.11620187
134	0x3e5e689b	0.21719591
135	0x3e52ae29	0.2057425
136	0xbdecf160	-0.11569476
137	0x3e1566eb	0.14590041
138	0x3de1d817	0.11027544
139	0x3c959de5	0.018263767
140	0x3b3b9b8a	0.0028626644
141	0x3c59037d	0.013245461
142	0xbd1df888	-0.038567096
143	0x3e467102	0.19379047
144	0x3e1c5e64	0.15270382
145	0x3e4208e2	0.18948701
146	0x3d43be8c	0.04778914
147	0xbd7a829f	-0.061159726
148	0xbbca74be	-0.0061784675
149	0xbda13a02	-0.07872392
150	0x3e54a034	0.20764238
151	0x3dfd4fb5	0.123687185
152	0x3ce96c44	0.028494008
153	0xbd620b7e	-0.05518674
154	0xbb0d5500	-0.0021565557
155	0x3e56585a	0.20932141
156	0x3e2d4efe	0.16924664
157	0xbdb457a6	-0.0880578
158	0x3e376c04	0.17912298
159	0x3d60bb3d	0.054866064
160	0xbdabf93d	-0.08397148
161	0x3e3095a4	0.17244583
162	0x3e134b4a	0.14384189
163	0x3e257cca	0.16160884
164	0x3c963953	0.018337881
165	0x3db74326	0.089483544
166	0x3cbcfbb0	0.023069233
167	0x3d124199	0.03570709
168	0x3e818b05	0.25301376
169	0x3e47fb76	0.19529518
170	0x3e296e00	0.16545868
171	0x3d626612	0.055273123
172	0x3e098d48	0.13432801
173	0x3c48fef3	0.012267816
174	0x3e23e34b	0.16004674
175	0xbd056d90	-0.03257519
176	0x3d99a500	0.075021744
177	0xbccdc6ce	-0.025119212
178	0x3e74f587	0.23921786
179	0x3df89fc2	0.121398464
180	0x3e321845	0.1739207
181	0xbcb722be	-0.022355434
182	0xbd6b7331	-0.057482902
183	0x3e087104	0.13324362
184	0x3dfd4a34	0.12367669
185	0x3e6c9f54	0.23107654
186	0x3e44d433	0.19221573
187	0x3c67fa60	0.014158815
188	0x3dc99c4c	0.098442644
189	0xbe17fd73	-0.14842777
190	0x3e4e356b	0.20137565
191	0x3e467e54	0.19384128
192	0xbde3323f	-0.11093568
193	0x3d5c8ddf	0.053846236
194	0x3d937364	0.071997434
195	0xbb15ea33	-0.002287519
196	0x3c1e2140	0.009651482
197	0x3e69f0f1	0.22845818
198	0x3cbe9c32	0.02326784
199	0x3e255e13	0.16149168
200	0x3d872523	0.0659888
201	0x3e0bcd18	0.13652456
202	0xbd33fd84	-0.043942943
203	0x3d8fbb94	0.070181996
204	0x3b675d43	0.003530339
205	0xbe04e9a3	-0.1297975
206	0x3e1183e0	0.14210463
207	0xbc3250ff	-0.010883569
208	0x3c3b8b56	0.0114467945
209	0x3e06421d	0.13111158
210	0xbcf96b31	-0.03044662
211	0x3e74e80b	0.23916642
212	0x3caf7fa9	0.021423178
213	0x3cda987a	0.026684035
214	0xbe04f7be	-0.12985131
215	0x3e28cf76	0.1648539
216	0x3e6cffc1	0.23144437
217	0xbcf1b940	-0.02950728
218	0xbc3a1250	-0.011356905
219	0xbd404059	-0.046936367
220	0xbd05dedf	-0.03268325
221	0x3cc0c9c0	0.023533702
222	0xbe14c942	-0.14529899
223	0x3e52a48a	0.20570579
224	0x3b9bafce	0.004751182
225	0x3d796aae	0.060892753
226	0x3de41f10	0.11138737
227	0x3a72e4d0	0.0009265663
228	0xbcf6dfda	-0.030136038
229	0xbdd30fae	-0.10305725
230	0x3e268fd6	0.16265807
231	0xbd407078	-0.04698226
232	0x3e0b5e05	0.13610084
233	0x3e096d14	0.13420516
234	0x3e1a72e3	0.15082888
235	0x3e1fa59a	0.15590516
236	0xbdebc215	-0.115116276
237	0x3de718df	0.11284041
238	0xbdc951ae	-0.09830032
239	0x3d78d515	0.060750086
240	0xbdc66886	-0.09687905
241	0xbc74a7d9	-0.014932596
242	0xbc330498	-0.010926388
243	0x3df2ae8d	0.11849699
244	0xbbe70c00	-0.007050991
245	0xbd7fb4be	-0.06242823
246	0x3e05dab2	0.13071707
247	0xbe12a500	-0.14320755
248	0xbc98d0b8	-0.018654212
249	0xbdb947f7	-0.09046929
250	0x3d87a488	0.06623179
251	0x3d135e5c	0.03597866
252	0x3bf46be0	0.0074591488
253	0xbdc8ce83	-0.09805014
254	0xbd145509	-0.03621391
255	0xbd92294a	-0.071367815

linear3.bias f4 [30]
0	0x3e551853	0.2081006
1	0x3e571343	0.21003442
2	0x3e38a194	0.18030387
3	0xbd33f373	-0.043933343
4	0x3d1cf2d1	0.038317505
5	0xbd1ad1af	-0.037797626
6	0x3e0458c2	0.12924483
7	0x3e461b52	0.1934636
8	0x3d91517e	0.070956215
9	0x3e872b32	0.26400143
10	0xbe0d10b3	-0.13775901
11	0xbdb8f3b7	-0.0903086
12	0xbd3be33d	-0.04587101
13	0x3df0816a	0.11743434
14	0x3df79a30	0.12089956
15	0xbc290750	-0.010316685
16	0x3e419533	0.18904571
17	0x3c168aa7	0.009188331
18	0x3e1081b0	0.14111972
19	0xbdbbd1dc	-0.09170887
20	0x3dbc816a	0.09204371
21	0x3e40d678	0.18831813
22	0x3e0d68bc	0.13809484
23	0x3e0ef9b8	0.13962448
24	0xbdbd5522	-0.092447534
25	0xbcfa1e78	-0.030532107
26	0x3e679cb5	0.22618373
27	0xbda124ab	-0.07868322
28	0x3e4b3b0a	0.1984674
29	0xbd321b7a	-0.043483235

linear4.weight f4 [30, 30]
0	0x3c96cb91	0.018407615
1	0x3e331f2d	0.17492361
2	0x3e1fc5d2	0.15602806
3	0x3e139238	0.14411247
4	0x3cc5cbcf	0.024145035
5	0x3dfaa35c	0.122381896
6	0x3d860567	0.06543999
7	0x3d946823	0.07246425
8	0x3d400bf7	0.04688641
9	0x3dfca229	0.12335617
10	0xbdeaea2b	-0.11470445
11	0x3dab0cfc	0.08352086
12	0x3e2fcd70	0.17168212
13	0x3e5b48f3	0.21414547
14	0x3dc3fff0	0.095703006
15	0xbe190390	-0.14942765
16	0xbd5f58e0	-0.054528117
17	0x3df68f46	0.12039046
18	0x3d915cfc	0.070978135
19	0xbdba72f2	-0.09103955
20	0x3ce9550c	0.028482936
21	0xbd4154ed	-0.047200132
22	0xb9203022	-0.0001527672
23	0xbdc7b2da	-0.0975091
24	0x3c920034	0.017822362
25	0x3d19ca4c	0.03754644
26	0x3e663463	0.22480921
27	0x3bb2167a	0.0054348083
28	0x3b2f0e8a	0.0026711547
29	0xbd9bd68b	-0.0760928
30	0xbe1da96f	-0.15396665
31	0xbdfb9a88	-0.12285334
32	0xbe07c8b4	-0.13260156
33	0xbd32b29c	-0.043627366
34	0x3d1f55b8	0.038900107
35	0x3d377004	0.04478456
36	0xbe1cbbdc	-0.15306038
37	0xbd4dbde4	-0.050229922
38	0x3d8356cc	0.064130396
39	0xbc917710	-0.017756969
40	0xbe126f92	-0.14300373
41	0xbe385767	-0.18002091
42	0xbe1bd6ec	-0.15218705
43	0xbce358f0	-0.02775237
44	0xbd9d7486	-0.07688241
45	0xbd6fb80c	-0.05852513
46	0xbd114090	-0.035461962
47	0x3e2283a4	0.1587053
48	0x3d399838	0.045311183
49	0xbe257fcd	-0.16162033
50	0x3d65e9fc	0.056131348
51	0x3e0e2546	0.13881406
52	0x3c182eb0	0.009288475
53	0xbc347980	-0.011015296
54	0xbe1a00ec	-0.15039414
55	0xbda5034c	-0.080572695
56	0x3d016e58	0.031599373
57	0xbe041d49	-0.12901796
58	0xbc4a2990	-0.012339011
59	0xbe069774	-0.13143712
60	0x3e1037a4	0.14083725
61	0x3e1707ae	0.14749023
62	0xbdaad618	-0.083416164
63	0xbe00e622	-0.12587789
64	0xbd7a3ad8	-0.061091274
65	0xbca84f30	-0.020545572
66	0xbe1e7341	-0.15473653
67	0xbc9a3890	-0.0188258
68	0xba0f2300	-0.00054602325
69	0xbe2bcf78	-0.16778362
70	0x3d9b1538	0.075724065
71	0xbdc141d4	-0.09436384
72	0xbda6728b	-0.08127316
73	0xbc51a190	-0.012794867
74	0xbe351b5a	-0.17686215
75	0x3dc0d860	0.0941627
76	0x3c720090	0.014770642
77	0xbd13e3ac	-0.036105797
78	0xbd016804	-0.031593338
79	0xbdcc09de	-0.099628195
80	0xbe1b29d1	-0.1515267
81	0xbe303cf6	-0.17210755
82	0xbde519f6	-0.11186592
83	0xbdeb9cfa	-0.1150455
84	0x3e0f277c	0.13979906
85	0x3dcebc50	0.100945115
86	0x3e21d4b4	0.15803796
87	0x3e0e3dec	0.13890809
88	0x3d189644	0.03725268
89	0xbe27cedc	-0.16387504
90	0x3d507974	0.050897077
91	0xbda88c97	-0.082299404
92	0x3da56c68	0.080773175
93	0x3d3ea40c	0.046543166
94	0xbd8c1177	-0.06839269
95	0x3d865114	0.06558433
96	0x3d965d0c	0.07341966
97	0x3df15eb0	0.11785638
98	0x3e077548	0.13228333
99	0xbe1766f7	-0.14785372
100	0x3c0113a0	0.007878214
101	0x3d333358	0.043750137
102	0xbd3ab4b8	-0.045582503
103	0xbcd2d968	-0.025738433
104	0xbdecda5f	-0.115650885
105	0x3e22b2fa	0.15888587
106	0xbde275e0	-0.11057639
107	0x3ceb6230	0.028733343
108	0x3e002de4	0.12517506
109	0xbd89d2f1	-0.06729687
110	0xbba6c260	-0.0050890893
111	0xbd9f5791	-0.07780374
112	0xbe371d35	-0.17882235
113	0xbddf9f1e	-0.10919021
114	0x3e2f2a02	0.17105868
115	0x3e1e3514	0.15449935
116	0xbe244d09	-0.16045012
117	0x3df3280c	0.11872873
118	0x39cd2a00	0.0003913194
119	0x3de42c50	0.111412644
120	0x3db6a719	0.0891859
121	0x3d264a7e	0.040598385
122	0x3e5e9640	0.21737003
123	0x3e4c839e	0.19972083
124	0x3e66d048	0.2254039
125	0x3e133734	0.14376527
126	0x3e2741af	0.1633365
127	0x3d87dc1a	0.06633778
128	0xbc0a007d	-0.008422968
129	0x3dbc1be6	0.09185009
130	0x3e1c63fa	0.15272513
131	0x3e2dd7aa	0.169768
132	0x3e30e2e6	0.17274055
133	0x3ddbf5ef	0.107402675
134	0x3d98bb78	0.07457632
135	0x3cd6301d	0.02614599
136	0x3d870d0a	0.06594284
137	0x3e4e367b	0.2013797
138	0x3c61c34b	0.013779472
139	0x3d60cce4	0.0548829
140	0x3e1bac34	0.15202409
141	0x3e7c20fb	0.24621956
142	0x3dfd5e88	0.12371546
143	0x3e443a80	0.19162941
144	0x3dcb5f22	0.099302545
145	0x3df3bd78	0.11901373
146	0x3dd6f5f1	0.10496128
147	0x3e58b50a	0.21162811
148	0xbcba6f8c	-0.022758268
149	0xbc99be25	-0.018767426
150	0xbd2071c4	-0.039170995
151	0x3e0f258f	0.13979171
152	0x3e3abdba	0.18236437
153	0x3e05f106	0.13080224
154	0x3dbe56b5	0.09293882
155	0x3e3af6ce	0.18258211
156	0x3e238319	0.15967979
157	0x3e4563e0	0.1927638
158	0xbbadaef5	-0.0053003975
159	0xbd33b1f5	-0.043870885
160	0xbe02d32c	-0.12775868
161	0x3a89ce80	0.0010513812
162	0x3e74d9a5	0.2391115
163	0x3e875b6a	0.2643693
164	0x3b9cbb79	0.0047830907
165	0xbe1fdec8	-0.15612328
166	0x3e1ad863	0.15121607
167	0x3d696b10	0.05698687
168	0x3e19080b	0.14944474
169	0xbdac8fd6	-0.08425872
170	0xbd613057	-0.05497774
171	0xbcbea20d	-0.023270631
172	0x3e81c4e5	0.2534553
173	0x3e444998	0.19168699
174	0x3d048565	0.032353777
175	0xbc95bcc8	-0.018278494
176	0xbc91ba4f	-0.017789034
177	0x3ca7e9a0	0.020497143
178	0x3d897ea9	0.06713612
179	0x3cfc3136	0.030785184
180	0x3e229c22	0.15879872
181	0x3e2f8afe	0.17142865
182	0x3baa1e92	0.0051916325
183	0x3dc64e06	0.096828505
184	0x3e5b57cb	0.21420209
185	0x3e578e69	0.21050419
186	0x3e51ec02	0.20500186
187	0xbdd7626f	-0.105168216
188	0xbdeb2031	-0.114807494
189	0x3c031f1c	0.0080030225
190	0xbdc7d890	-0.09758103
191	0xbe075882	-0.13217357
192	0x3e1707e6	0.14749107
193	0x3da94055	0.082642235
194	0x3e104b20	0.14091158
195	0x3dd9451d	0.106088854
196	0xbdef262a	-0.11677201
197	0x3e3b5e30	0.18297648
198	0x3e4e2148	0.20129883
199	0x3e2603e7	0.16212426
200	0x3d4e543a	0.050373293
201	0xbc838e7a	-0.016059149
202	0x3dbb7989	0.0915404
203	0x3d427c1b	0.047481637
204	0xbd583064	-0.052780524
205	0xbce22660	-0.02760619
206	0xbbef0067	-0.007293749
207	0xbdd1f089	-0.102509566
208	0x3dd972da	0.10617609
209	0xbd3d118c	-0.046159312
210	0xbd2633ae	-0.04057663
211	0x3ab8dc12	0.0014103672
212	0x3e5ac0ec	0.21362656
213	0x3c8fafde	0.017539915
214	0xba6320ab	-0.00086642307
215	0x3e0c77e6	0.13717613
216	0xbcd7e91f	-0.026356278
217	0x3e1943a2	0.14967206
218	0x3d256c9d	0.040386785
219	0x3df619c3	0.120166324
220	0xbddf3f2c	-0.10900721
221	0x3d81e766	0.06342964
222	0x3daf68e4	0.08564928
223	0xbdc96c39	-0.09835095
224	0x3e05693c	0.13028425
225	0xbe288a01	-0.16458894
226	0x3e45fc69	0.19334568
227	0xbdebfef9	-0.115232415
228	0x3e2d7944	0.1694079
229	0xbd417296	-0.04722842
230	0xbdb82fb2	-0.08993472
231	0x3d434ef2	0.04768271
232	0x3de841a7	0.11340647
233	0x3d7b2e8f	0.0613237
234	0xbc0a5cd3	-0.008444983
235	0xbda87270	-0.08224952
236	0xbd86a320	-0.065740824
237	0x3d7d651a	0.061863996
238	0x3e8c6daf	0.27427432
239	0x3d84348f	0.06455337
240	0x3e3bfabd	0.18357368
241	0x3e0358be	0.12826821
242	0x3c21e0c6	0.00988025
243	0x3e62a361	0.22132637
244	0xbc6a3c88	-0.014296658
245	0x3e65d8a2	0.2244592
246	0x3e6b7cb7	0.22996794
247	0x3e00b2e4	0.12568241
248	0xbddbd4bb	-0.107339345
249	0xbdab1933	-0.08354416
250	0x3daeda30	0.0853771
251	0xbd2f3008	-0.042770416
252	0x3c5f5e5c	0.013633337
253	0xbd1f0d58	-0.038831085
254	0x3d62eea9	0.055403385
255	0xbe221450	-0.15828061

linear4.bias f4 [30]
0	0x3e5b4d19	0.21416129
1	0xbda6ad7e	-0.0813856
2	0xbd93b40d	-0.07212076
3	0xbe185804	-0.14877325
4	0x3bc4d41c	0.0060067307
5	0x3e346ceb	0.17619674
6	0x3e052059	0.13000621
7	0x3e454ce5	0.19267614
8	0x3e22caa1	0.1589761
9	0xbd4d61e9	-0.050142203
10	0x3e1ee4e5	0.15517004
11	0xbdec8c9f	-0.11550259
12	0xbcb1dccb	-0.021711728
13	0x3df24129	0.118288346
14	0x3e7d8371	0.24757172
15	0xbd9e8b0a	-0.07741363
16	0xbdfdc34e	-0.12390767
17	0xbd521fc5	-0.05129983
18	0x3dc9689c	0.09834406
19	0xbe07495d	-0.1321158
20	0xbd4788bc	-0.048714384
21	0x3e7f6aa4	0.24943024
22	0x3e07964c	0.13240927
23	0xbd593c4f	-0.05303603
24	0xbdd36c5c	-0.10323402
25	0x3d53d006	0.05171206
26	0x3e1f8016	0.15576205
27	0x3e73fe59	0.23827495
28	0x3e1017ee	0.14071628
29	0x3e860c0e	0.26181072

linear5.weight f4 [6, 30]
0	0xbc431d77	-0.01190888
1	0x3b2de22c	0.0026532514
2	0x3a9f23d0	0.001214141
3	0xbb0c1026	-0.002137193
4	0xbc90833a	-0.017640699
5	0xbc4487fa	-0.01199531
6	0xbc8f65fd	-0.017504686
7	0x3cc7858e	0.024355676
8	0xbc86df4f	-0.016463904
9	0x3c267f9a	0.0101622585
10	0xbc538ebe	-0.01291245
11	0xbc9c1804	-0.01905442
12	0xbc7a3c4c	-0.015273165
13	0xbc96f9a6	-0.018429589
14	0x3c4d723f	0.012539445
15	0xba86989c	-0.001026887
16	0xbd4be472	-0.04977841
17	0x3a2d97a5	0.0006622023
18	0xbca2ce42	-0.019873742
19	0xbcc86fe8	-0.024467424
20	0xbcb8c91d	-0.022556836
21	0xbc3ab265	-0.011395072
22	0xbc6389e4	-0.013887856
23	0xbd562cc4	-0.052288786
24	0xbd01d7cd	-0.031699944
25	0xbc994227	-0.018708302
26	0xbc42ee52	-0.01189764
27	0xbc39e26a	-0.011345485
28	0xbcbd246a	-0.023088653
29	0x3c5a2b01	0.013315917
30	0xbd023df6	-0.03179737
31	0x3b202180	0.002443403
32	0xbb0e61a4	-0.0021725679
33	0x3ad1c3e0	0.001600381
34	0xbd087b0e	-0.03332048
35	0xbce6d1e0	-0.028176248
36	0xbcef666c	-0.029223643
37	0xba880a4b	-0.0010379044
38	0xbcdbd2f8	-0.026833996
39	0xbc50d931	-0.012747095
40	0xbd0e96ba	-0.034811713
41	0xbd06b50e	-0.03288751
42	0xbd07204b	-0.03298978
43	0xbcf53434	-0.029932119
44	0x39847a3b	0.0002526807
45	0xba96ad63	-0.0011495765
46	0xbd88f592	-0.06687464
47	0x3be5ec0a	0.0070166634
48	0xbcfbcfc7	-0.030738724
49	0xbc463d98	-0.012099646
50	0xbd0bce31	-0.034132186
51	0xbc5bd019	-0.013416314
52	0xbceb5a7a	-0.028729666
53	0xbd47bcd2	-0.048764057
54	0xbd12d745	-0.03584983
55	0xbd03e227	-0.032198098
56	0xbd001beb	-0.031276625
57	0xbcdea1d7	-0.02717678
58	0xbcef30c2	-0.029198054
59	0xbbe7757c	-0.007063566
60	0xbd9c406b	-0.07629474
61	0x3971cad0	0.00023059105
62	0x3a5b0614	0.0008355093
63	0x3b0f0f58	0.0021829214
64	0xbd8e7175	-0.06955234
65	0xbd97c136	-0.07409899
66	0xbd90bc51	-0.070671685
67	0xbde06b9f	-0.10958027
68	0xbd9d248c	-0.076729864
69	0xbd89930f	-0.06717502
70	0xbda023b8	-0.07819313
71	0xbd96bb10	-0.07359898
72	0xbd9723a2	-0.07379843
73	0xbd93e146	-0.07220702
74	0xbe039c86	-0.12852678
75	0x3adafac0	0.0016706809
76	0xbd525ef8	-0.0513601
77	0xbc21b4a9	-0.009869733
78	0xbd8e3f0a	-0.069456175
79	0xba089151	-0.0005209642
80	0xbd90e0a9	-0.070741005
81	0xbda2d403	-0.07950594
82	0xbd8d3dc7	-0.06896549
83	0xbd3ca054	-0.04605134
84	0xbd8af7a5	-0.06785516
85	0xbd8bac30	-0.068199515
86	0xbd9d433b	-0.07678839
87	0xbd92e42d	-0.07172427
88	0xbd92ce68	-0.07168275
89	0xbe06cf40	-0.13164997
90	0x3ca736b7	0.020411832
91	0xbb40c98d	-0.0029417009
92	0xbb124338	-0.0022317898
93	0xbae125b7	-0.0017177378
94	0x3c62f205	0.013851647
95	0x3ca1893a	0.019718755
96	0x3c72a49e	0.014809756
97	0x3d007471	0.031361047
98	0x3cad4b12	0.02115396
99	0x3d4304e2	0.04761208
100	0x3d4cfecf	0.050047692
101	0x3ba51222	0.005037562
102	0x3c23a045	0.009986942
103	0x3c5c43e3	0.01344392
104	0x3d002dbd	0.03129362
105	0xbb1fcedd	-0.0024384775
106	0xbc13d4b3	-0.009022879
107	0x3c8d034c	0.017213486
108	0x3c8d3a33	0.017239666
109	0xbcaceb67	-0.021108342
110	0x3c3d5297	0.0115553355
111	0x3cc832ac	0.024438225
112	0x3c899680	0.016795397
113	0xbc5c9429	-0.0134630585
114	0xbc0483de	-0.00808808
115	0x3c5b97f1	0.013402925
116	0x3c723f78	0.01478564
117	0x3c780bbc	0.015139516
118	0x3c961e2e	0.018324938
119	0x3d02742f	0.031849083
120	0xbdb7df9b	-0.08978196
121	0x3b16d438	0.0023014676
122	0xbaf7e235	-0.001891202
123	0x3af7bf10	0.0018901546
124	0xbdadca24	-0.08485821
125	0xbdd73017	-0.10507219
126	0xbdb11a02	-0.08647539
127	0xbde230dc	-0.110444754
128	0xbdb11e0d	-0.0864831
129	0xbd88fd41	-0.06688929
130	0xbdac97da	-0.08427401
131	0xbdaaba8e	-0.08336364
132	0xbdaeb7ee	-0.085311756
133	0xbdb17cc1	-0.08666373
134	0xbde0b36f	-0.10971724
135	0x3b1d66de	0.0024017612
136	0xbd3c13f3	-0.045917463
137	0xbbbd389a	-0.0057745697
138	0xbdb00272	-0.085942164
139	0x3bc95d8e	0.006145186
140	0xbdaee776	-0.085402414
141	0xbdb88a48	-0.0901075
142	0xbdb81838	-0.08988994
143	0xbd1abecd	-0.037779618
144	0xbd77e15b	-0.06051765
145	0xbdaaedee	-0.08346163
146	0xbdb3d276	-0.087803766
147	0xbdb84f83	-0.08999541
148	0xbdb07f44	-0.08618024
149	0xbde90747	-0.11378341
150	0xbd1d447b	-0.038395386
151	0x3a431c1c	0.00074428483
152	0xba12d1b0	-0.0005600704
153	0x38facda0	0.000119592296
154	0xbd1cd9ea	-0.038293757
155	0xbd95270a	-0.07282837
156	0xbd176ba6	-0.036967896
157	0xbd9f23aa	-0.07770474
158	0xbd26ea46	-0.040750764
159	0xbd5f1a25	-0.054468293
160	0xbd211300	-0.03932476
161	0xbd148278	-0.036257237
162	0xbd094b84	-0.033519283
163	0xbd1e7595	-0.038686354
164	0xbda10af5	-0.07863418
165	0xbb1dfd9f	-0.0024107469
166	0xbcc96b1e	-0.02458721
167	0xbc27619b	-0.010216142
168	0xbd1d208d	-0.03836112
169	0x3bf22bfd	0.0073904977
170	0xbd187242	-0.03721834
171	0xbd81acfc	-0.06331822
172	0xbd2589e5	-0.04041471
173	0xbc91a852	-0.017780457
174	0xbcf9142a	-0.030405123
175	0xbd0e2261	-0.034700755
176	0xbd21a3d3	-0.039462876
177	0xbd2b9db8	-0.04189846
178	0xbd35a144	-0.044343248
179	0xbd9b25fe	-0.07575606

linear5.bias f4 [6]
0	0x3d073870	0.033012807
1	0xbb914f93	-0.004434535
2	0xbdd8e9fb	-0.10591503
3	0x3d554004	0.052063003
4	0xbdc7c649	-0.09754617
5	0xbd329e3f	-0.043607946
