基于ABM的智能化经济模拟平台/ambs/company_buffer/critic_checkpoint.pth (torch, 17023 bytes, 9 tensors)

linear1.weight f4 [30, 18]
00000000: 7708 78bf 484b 03bf a9d7 8fbf cd75 17be
00000010: 00c5 823f 5a6b 703f 4feb 303f 097b 7ebf
00000020: 8a7d 6bbe aa53 1ebf 9b3f 58be 8b3b 953f
00000030: 5ef5 4fbe 4b1c c8bd 878a b93d 7fd1 bf3e
00000040: 4238 60be 56c9 60be 92ac ac3f 47b3 9d3e
00000050: 2ecc a23f c290 bfbd dbaa bfbf a5ad 35bf
00000060: 84af 2fbf b17b 953f e076 823e 31a7 333f
00000070: 318f d43e c59b aabf 0252 27be 0167 80be
00000080: 2a57 253d 6a5e e9be fb1a e83b fd7f d93d
00000090: 6b12 8b3e 99c7 8f3d 8165 a33e c212 64be
000000a0: b2de 84be 6845 06bf 356b adbd f2dd 1b3f
000000b0: 1e3a 14be a8a7 f23e a193 af3e 99c8 c3be
000000c0: 3761 ddbd 82d9 733e 5e4a 6e3d b0c2 30be
000000d0: 57fd 53bd 25e6 a3bd c049 8cbf adee 24bd
000000e0: c50f 77bf e48e 5ebe caef 673f 1eba 0f3f
000000f0: 2da1 f63e 5f63 42bf 266a 8fbe ad66 5fbf
00000100: 1af2 8cbe 3d3d 5b3f ff5e d13c d0d0 51be
00000110: d66e 5e3e bb5a af3e 97b4 c3bd 052d cbbd
00000120: b0fb 18bf 44f4 1c3e 1c22 cabe 5713 813d
00000130: f4b2 c33f a4a9 093f 4510 133f cd08 35bf
00000140: e501 9ebd de64 29bf 72ed 933d b54a ba3f
00000150: 830a 903e f183 9e3e e639 c4bd 7783 ef3e
00000160: d05e b0bc ec83 98bc e9e3 cfbe 2843 713c
00000170: e9d6 e0be 3fa1 c5bd 4831 b33f b5bd ee3e
00000180: 7c3f cb3e 1178 0fbf 7afa 1d3e 0dd9 1abf
00000190: 35e2 c73e aa5a 9a3f 2667 923e bd94 a13e
000001a0: ddd6 80be cb45 033e be7d 933c e918 20be
000001b0: bd50 873f f2f8 323e ae4e 9e3f 1fa9 0e3d
000001c0: 760d 73bf 0e3e 6ebf 4c98 cebe 5601 983f
000001d0: 1ceb 5b3d b04a 653f d935 283e 6e0e 9abf
000001e0: 97fd 163e cc57 df3d 0587 e8bd bc44 a0be
000001f0: 456a f8bd ece4 55be d028 d73e ab1f 8f3d
00000200: d3ee 133f a5bc 8a3e 6414 6cbf bfac 00bf
00000210: 76c6 0cbf f00c 6f3e d7ac c1bb 2283 6e3e
00000220: 4e4e b43e 8ab1 30bf 0f0d 903d 23b7 813d
00000230: cc72 233e 14f8 25bd a8b1 5abe b6c5 90be
00000240: d6a9 7a3f 0cb3 2a3e d0ef 623f 4157 3a3e
00000250: 59a4 8dbf bc70 18bf 15a5 22bf 20be a43e
00000260: 1b48 5f3e 2131 fd3e d15b 02be 2aac a4bf
00000270: a541 223e 8b34 65bd cd11 4d3e 8deb 87be
00000280: ece2 cfbd 9719 ffbd 6ad0 203c 41ee a0bc
00000290: 6152 a13d 4f6f 7dbe ff0e d83c 098b c53d
000002a0: 3bb9 a03d 2c01 32bc 1107 5dbe 4de0 b7bb
000002b0: 69a1 3e3e 41fc 413d 8136 56bd 070c 86be
000002c0: 7ded a9bb 262e 313e 7c75 1dbe 3372 26be
000002d0: 715c aa3e 17e4 0e3e 1310 a73e a221 94be
000002e0: 2a8a 8dbe a7f9 b8be 4c20 35bf 9dfb 863c
000002f0: 816f 6fbe 662e c03e 7600 e4bc 0ed3 c5bd
00000300: 602f 87be c536 e7be 19ae 1b3e 20ce 61be
00000310: 3328 983d 1eba 0cbd 21af a33f 6bd5 a03e
00000320: a752 983f fd2a e73e 202d babf 01a7 70bf
00000330: 4334 09bf 9f74 af3f 4c54 953e ddbf 953f
00000340: a159 073f 34fd b6bf 79fb 26bc aa65 6a3e
00000350: 5b5e e3bd cc40 04be 66af 703e d1e2 5d3e
00000360: 120c b13f f081 343f 52a1 c23f aa11 d13e
00000370: f6ca a5bf 5c68 81bf b011 61bf ca5c 923f
00000380: 306b 643e 3f80 883f a973 b83e fd15 b5bf
00000390: 0c85 f03d a183 ca3d 4f41 053e 93de 63be
000003a0: 1cff 523e d752 9fbd 3257 c33f 385e 923e
000003b0: 6a20 a53f 794c 94bc d9e4 99bf a82d 8bbf
000003c0: a08f 48bf 8dec a63f 3f11 333e 4d8d 983f
000003d0: b3f4 073f b76d ccbf 0a82 f43d 0113 6fbe
000003e0: cf01 d53d 82e4 d3be e368 663e ae74 583e
000003f0: 3071 463f ea66 683e ed6b 603f 4ce7 7b3e
-0.96887916 -0.51286745 -1.1237689 -0.14791031 1.021637 0.93913805 0.6910905 -0.99406487
-0.22997108 -0.6184641 -0.21118014 1.1658796 -0.20308444 -0.097710215 0.09059625 0.3746452
-0.2189646 -0.21951804 1.3490164 0.3080084 1.2718561 -0.09353782 -1.4974016 -0.70968086
-0.6862719 1.1678373 0.2548132 0.7017699 0.41515496 -1.3328787 -0.16339877 -0.25078586
0.04036633 -0.45579845 0.0070832944 0.10620115 0.2716249 0.07020492 0.3191338 -0.2227278
-0.25951153 -0.52449656 -0.08467714 0.60885537 -0.14475295 0.47393537 0.3429232 -0.3823898
-0.10809558 0.23813441 0.05817639 -0.17261767 -0.051755276 -0.08002881 -1.0960007 -0.04026668
-0.9650844 -0.21734196 0.90600264 0.5614337 0.48169842 -0.7593288 -0.28010672 -0.87266046
-0.2752846 0.8564032 0.025557993 -0.20489812 0.21721968 0.3424891 -0.09555929 -0.09920696
-0.59759045 0.15327555 -0.39479148 0.06302517 1.5288987 0.53774476 0.574467 -0.70716554
-0.07715205 -0.66169536 0.072230235 1.4554049 0.2813302 0.30960038 -0.09581356 0.46779987
-0.021529585 -0.018617593 -0.4060357 0.014725484 -0.43913963 -0.09649896 1.3999414 0.4662911
0.39696872 -0.5604258 0.1542758 -0.60487443 0.3903977 1.2058918 0.2859432 0.3155879
-0.25163928 0.12819593 0.018004294 -0.15634502 1.0571514 0.17477778 1.2367761 0.034829255
-0.94942415 -0.9306344 -0.40350568 1.1875408 0.053691015 0.8956709 0.16426791 -1.2035654
0.14745174 0.10905418 -0.11353878 -0.3130244 -0.12129644 -0.20888108 0.42023325 0.06988462
0.5778629 0.2709705 -0.92218614 -0.5026359 -0.5499033 0.23344779 -0.0059104967 0.2329221
0.35215992 -0.69020903 0.07033741 0.06333759 0.1596176 -0.04051979 -0.21356833 -0.2827584
0.979154 0.16669863 0.88647175 0.18197347 -1.106578 -0.5954702 -0.63533145 0.32176304
0.2180485 0.49451545 -0.12730338 -1.286504 0.15845354 -0.055958312 0.20026322 -0.26546898
-0.10150704 -0.12456053 0.009815315 -0.019644858 0.07877041 -0.24749492 0.026374338 0.096456595
0.0784783 -0.010864537 -0.21584727 -0.0056114555 0.1861626 0.04735971 -0.052298073 -0.2618105
-0.0051857815 0.1730276 -0.15376848 -0.16254501 0.33273652 0.13954197 0.3262945 -0.2893191
-0.27644473 -0.3612797 -0.70752406 0.0164774 -0.23382379 0.375354 -0.027832251 -0.09659396
-0.26403332 -0.45158973 0.15203132 -0.22051287 0.074295424 -0.034357183 1.278782 0.31412825
1.1900223 0.45149985 -1.4545021 -0.9400483 -0.5359537 1.3707465 0.29165876 1.1699177
0.5287114 -1.4296021 -0.010191792 0.22890344 -0.11101981 -0.12915343 0.23504409 0.21668555
1.3831809 0.7051077 1.5205481 0.4083379 -1.2952564 -1.0109973 -0.87917614 1.1434567
0.22306514 1.0664138 0.36025742 -1.4147335 0.11744127 0.098883875 0.13013195 -0.22252874
0.20605129 -0.07779472 1.5260985 0.28587508 1.2900517 -0.018102871 -1.2022964 -1.0873308
-0.78344154 1.304094 0.17487048 1.1918122 0.53107756 -1.5970982 0.119388655 -0.23347093
0.104007356 -0.41385275 0.22500949 0.2113826 0.7751646 0.22695509 0.8766468 0.24599952

linear1.bias f4 [30]
00000000: 5f6c fcbe e8dc 683e dccd ce3e 7da8 8ebe
00000010: 074a bc3d e041 613d e871 8b3e dec2 833e
00000020: 18e8 f63e 1dcf edbd 3473 9e3d 63c8 943e
00000030: 38f4 ce3e 9da4 183f e228 ac3e 1ca7 293f
00000040: 62f8 33bd 6458 c63e 317e bbbd 79aa debd
00000050: ba9d 48bc b2f1 53be 490d ba3e 62fc 863d
00000060: f7a1 dcbd a9a2 ad3e afd3 f73e 9d88 3cbd
00000070: de96 293d 3a58 80be
-0.4930143 0.22740519 0.40391433 -0.2786292 0.09193807 0.054994464 0.2723534 0.2573461
0.48223948 -0.11611769 0.07736817 0.29059133 0.404207 0.5962618 0.3362494 0.66270614
-0.04393805 0.38739312 -0.091549285 -0.10872359 -0.012244636 -0.20697668 0.3633826 0.06591107
-0.1077308 0.33913162 0.4840369 -0.046028722 0.041403644 -0.25067312

linear2.weight f4 [30, 30]
00000000: ecf8 443c 38c5 a4bc 3bc5 babd 3261 c9bc
00000010: bd3e b1bd d203 bebd e04f 0d3e b9cc 583c
00000020: b957 fb3c 30bb 8d3d 0e8f 0e3e e266 13be
00000030: 387a 14be 70b0 40be 9df6 bdbd d18f dbbc
00000040: e465 eb3d 632a 0fbe 90dc 533c 6c89 46be
00000050: bcf6 233e 34b3 2dbe 0811 e2bd 40fb 1e3e
00000060: e02d 3bbc 80e5 c93d e0ed 32bd 384e d5bc
00000070: d859 a1bc 6ea3 033e ecea 5fbe 4916 2abe
00000080: 0b31 92bd d3a3 95be e38f 3dbe b2bc 09be
00000090: dc32 92bd ae7b 13be 20b1 81be 339c f5bd
000000a0: a67e 6e3d c0a1 9cbd a42a 4c3c c015 0738
000000b0: 44a5 74be 953f 433d 5432 f93c 0994 343d
000000c0: 30be bdbe 6cf6 48be 822f 313c f3a8 f1bd
000000d0: c658 54bd d7e1 a6bc 8145 7cbe 5635 d5bd
000000e0: 048e dfb9 9394 3b3c d7e4 8bbe 69dd 7bbe
000000f0: 1560 013e f60e 63bd 6a16 f6bd c88e cd3c
00000100: 6da0 12be a065 a03d 74b2 41be 44f3 d1bd
00000110: 0735 e73c d0db 5e3d 29b2 29be 20a3 11be
00000120: c8b8 a7bc 11f3 3bbc a75e ec3d ecd9 1ebe
00000130: 7cae 1abd 4cf0 00be 681c bc3d 7daa 05be
00000140: ee98 83bd c4b5 913d fef2 e33b b830 703d
00000150: 112a e53d 4030 86bc 139b 373d 387c 873c
00000160: 78ec d73c 50d4 14bd e8d7 1b3e b82e d0bc
00000170: d03e 16bc d4c7 6abd ac81 43bd c451 68bd
00000180: 7c2a 16be 5079 173c 9850 943c 14d5 b33d
00000190: a09e a4bc c02d 66bb a061 6ebd 2434 10bd
000001a0: e6fc febd 00ab db3c 34b5 113e b00e 683d
000001b0: 00cc 54bc 6497 3dbd 5cf9 9e3d 0858 94bc
000001c0: 83bf 1ebe 04b3 1a3d 1eb0 7ebd 6090 87bc
000001d0: a16c d6bd 80e2 4dbd e8c0 9e3d a0be 233e
000001e0: 915b 66bd d01f 30bd e11c c53d 7693 39be
000001f0: ef2d e1be 2d14 28be f7db 843d 25c1 13be
00000200: f67b 9f3d b417 94bd 8a88 35be deb4 2cbd
00000210: d66a 62be 79bd f03c ac20 7639 19a1 a13d
00000220: 2298 4d3d 48b2 ac3d 4a0d a4be 9d0a 21be
00000230: 2385 11bd a2ed 9fbe 6000 5f3d 3f92 673d
00000240: b1c8 2cbd 55b9 943d ef68 aabd 853c e8bd
00000250: ab7f 40bd 0877 4fbe affe 35bc 67fc 6f3c
00000260: ab28 a9bd 1c00 c8bd 4510 9bbd 2213 90be
00000270: 3cac 633d 4217 f33c 0dd8 1dbe 39fa f9bd
00000280: c8eb f53d 986b b53d 18e8 03bc d6de 493e
00000290: f0fb e7ba a213 593e ef6f f7bc 7b58 3b3e
000002a0: 14cb c5be 8edd 9ebe 900a 6cbe d71d d2be
000002b0: 7f54 1a3e 0c4f 72bd 1363 3ebe 1273 bbbe
000002c0: 64b1 7e3e b58d 8abe 7955 90be e635 afbe
000002d0: 5e48 f93d f2bc 023e c195 2fbe 3a6a 23bd
000002e0: 956f a33e 54cb 823e f9df e3bd d9f1 5a3e
000002f0: dff4 94bd 9add 95bd 9e48 1f3e d57b 1ebd
00000300: 2358 16be 5edf ccbc eb89 8abd 83cd bcbd
00000310: 4d34 b63d 292c e53c 1368 ab3e 3e98 443e
00000320: eb3f 0dbe a691 b23e 0ace 6abe caad 813d
00000330: 4e14 cd3d a0d1 2b3e 12b4 87bd d748 35bc
00000340: 3eb8 423e 1185 d73d 2e6a 95bd 3c15 093e
00000350: a1df 05be 45d3 853d 6dfa 88be f24c 9fbe
00000360: f6d2 913d edc6 163d 21c0 f13d 3acd 01be
00000370: 7b72 053e c4e0 e33c 6b18 3d3e 3e68 913d
00000380: 799e b13d 1620 223e 84bd 07be d783 0bbe
00000390: 30a0 eabe af37 63be 09bf 64bc 54e3 17be
000003a0: 4f71 5b3e ea9b 013c cddd 50be 57d7 543e
000003b0: 560c 563e 63bb 1d3e c43e 55be 207e d0be
000003c0: 5057 213b d3d0 25be 78f0 933d a58f 9f3d
000003d0: 76e3 a7bc b54a 3abc 0740 a1bd a84f 9e3d
000003e0: 828f e83d 3f78 e73d 1f4b 78be af61 973b
000003f0: 8bcf fabd 63b8 903c 5f9d 82be 42bb 27bb
0.012022238 -0.020113572 -0.0911965 -0.02458248 -0.086545445 -0.092780724 0.13800001 0.013232403
0.030681478 0.06920469 0.13921759 -0.14394715 -0.14499748 -0.18817306 -0.092755534 -0.026801975
0.114940435 -0.13981013 0.012931004 -0.1938836 0.1601209 -0.16962892 -0.11038405 0.15525532
-0.011424512 0.09858227 -0.043683887 -0.026038274 -0.019696161 0.12855312 -0.2186696 -0.16610064
-0.071382605 -0.2922655 -0.1851192 -0.13450888 -0.07138607 -0.14402649 -0.25330448 -0.11992683
0.05822625 -0.07648039 0.012461338 3.2206764e-05 -0.23891169 0.04766806 0.030419506 0.04408649
-0.37059164 -0.19625252 0.010814549 -0.11799803 -0.051842473 -0.02037136 -0.24635889 -0.10410564
-0.00042639684 0.011448997 -0.27323028 -0.2459618 0.12634309 -0.05543419 -0.12015994 0.025092497
-0.1431901 0.078318834 -0.1891573 -0.10251477 0.028223528 0.05440885 -0.16571869 -0.14222383
-0.020473853 -0.011471526 0.11541491 -0.15512818 -0.037764058 -0.12591666 0.091851056 -0.13053317
-0.064256534 0.07114747 0.006956457 0.05864021 0.11189664 -0.01638043 0.044825625 0.016538724
0.026357874 -0.03633529 0.1521908 -0.025412902 -0.009170249 -0.057319477 -0.047731087 -0.056718603
-0.14664644 0.009245232 0.018104836 0.08780876 -0.02009517 -0.0035122484 -0.05819857 -0.035205975
-0.1245058 0.026814938 0.1422928 0.056654632 -0.0129880905 -0.046286955 0.07762405 -0.018108383
-0.15502743 0.03776838 -0.062179677 -0.016548336 -0.10469938 -0.050264835 0.07751638 0.15990686
-0.05623967 -0.04299909 0.09624649 -0.18122658 -0.43980357 -0.16413946 0.064872675 -0.14429148
0.077873155 -0.072310835 -0.17727867 -0.042164676 -0.22111067 0.029387223 0.0002347256 0.07892055
0.050193913 0.08432442 -0.3204139 -0.15726705 -0.03552736 -0.31235987 0.054443717 0.056535956
-0.04218358 0.07261912 -0.08320796 -0.11339668 -0.046996754 -0.2026025 -0.011108085 0.01464758
-0.0825971 -0.09765646 -0.075714625 -0.28139597 0.055584177 0.029674176 -0.15414448 -0.12205929
0.12007862 0.088584125 -0.008050941 0.19713911 -0.0017698985 0.21198896 -0.030204741 0.18295471
-0.386315 -0.31028408 -0.23050904 -0.4103839 0.15071295 -0.059157416 -0.18592481 -0.3661123
0.24872357 -0.2706124 -0.2819021 -0.3422081 0.12172006 0.1276739 -0.1714697 -0.039896227
0.31921068 0.25545752 -0.11126704 0.2138132 -0.07273268 -0.07317658 0.15555045 -0.038692314
-0.14682059 -0.025008854 -0.06764587 -0.09218886 0.08896694 0.027975159 0.3347784 0.19198701
-0.13793914 0.34876746 -0.2293016 0.06331976 0.100136384 0.16779184 -0.066261426 -0.01106473
0.19015595 0.10523427 -0.07295643 0.13387007 -0.13073589 0.06534437 -0.2675356 -0.31113392
0.07120316 0.036810804 0.11804224 -0.12675944 0.13031952 0.027817138 0.18466346 0.07099961
0.086728044 0.15832552 -0.13255888 -0.13624512 -0.45825338 -0.2218921 -0.013961562 -0.14832813
0.21429943 0.007910708 -0.2039711 0.2078527 0.20903143 0.15403514 -0.20824724 -0.40721226
0.0024618693 -0.16192941 0.072236 0.0779107 -0.020494204 -0.011370351 -0.0787354 0.07730037
0.11355497 0.11302232 -0.24247406 0.004619799 -0.12246617 0.017666047 -0.2551069 -0.0025593792

linear2.bias f4 [30]
00000000: 0ee3 23be 87a0 b73d fa4b 84bd f0b3 0abe
00000010: 3101 553e c961 963e 96c4 bcbe a06d 053f
00000020: 8ff1 3cbd f9a8 7fbd 9f5a 0b3f 32c8 c83e
00000030: 6e33 a03e d60e 8c3d 2f06 d53d dc86 bdbd
00000040: 8140 233f b94b a73d 2961 633e e46d 733d
00000050: 9ec8 05be a4b2 2abe b40a cf3e 6934 dcbd
00000060: 26ba c73d 8a28 c1bd df61 70bb 6e89 273f
00000070: f2c2 b1bd dd43 e83c
-0.16004583 0.08966165 -0.06459804 -0.13545203 0.20801236 0.2937148 -0.36868733 0.521204
-0.046128806 -0.062417004 0.5443515 0.39215237 0.31289238 0.06838767 0.1040157 -0.09254238
0.637703 0.0816874 0.22205032 0.05943097 -0.1306481 -0.16669708 0.40437853 -0.10752184
0.09752302 -0.0943156 -0.003667943 0.65444076 -0.08679761 0.028352672

linear3.weight f4 [30, 30]
00000000: 2a7d 2a3e fb21 10be 407e c53b 2e62 083e
00000010: 47e2 bcbd f8ec 5dbe d09a debd 749b 42be
00000020: 2194 e83d 678d 8ebd 7371 293c d493 803d
00000030: 0132 2d3d eda1 adbd 60bd a83c 7dfd 733d
00000040: eace 2fbe 9388 803b 4086 94bd 780b f4bd
00000050: 7549 7f3d a0c7 f6bb a2d4 bcbb 6760 eb3d
00000060: a985 2b3e 700a 42be 83b4 b13d 8aa8 76bb
00000070: 43dc 693d ca93 59bd 7032 da3c 930a ecbd
00000080: 4013 4b3d 067f ccbd 7b7f 8bbd f184 b3bd
00000090: 0b37 973d a71d 7bbd 6cdb 21be 3396 f03c
000000a0: e4c4 41bd 050f ce3d cced e7bd 6c0b d03d
000000b0: 6d4b 20be 3285 133e e109 61be 4767 59bc
000000c0: 1d2a 81bd 09a0 d6bd 1306 aabd ce72 b0bd
000000d0: ccda 073e 1cc1 0fbe c014 ac3d 7851 e53d
000000e0: 2e28 1dbe 700f 6cbc 80e4 26be ad4a 3f3e
000000f0: b6f6 fabd 24b2 263e b805 043e c874 ed3d
00000100: 316f 99bd dcbd 64bd e920 e83d c5a2 703d
00000110: d8b3 d03d dbc1 b03d 35cb b53b 5cd6 ffbb
00000120: f921 e03d 0a42 1a3e ab46 cdbd e0a2 f7bc
00000130: a290 55be 3376 623d 4d3a 3fbe 0863 c73c
00000140: e094 a73c 60cc 853d fd41 44be 0987 92bd
00000150: 4381 e9bd 8b5f 773d 2954 3cbb e5da e33d
00000160: 9f8b 1f3e 7d9f 273b a0ba 123d 08a7 90bd
00000170: 18de 0bbe d3ee 2fbe 1472 c7bc 0915 e5bd
00000180: 0540 aa3d 53aa dd3d 5ac1 abbd a7e7 81bd
00000190: 2a6d 013e 64d8 41be 6d46 7dbe 74c1 1a3d
000001a0: f0d3 31be f4dd 3d3d a769 8fbe 4ef1 2f3e
000001b0: 3a07 90bd 5cb1 203e 558d ccbd 0062 42ba
000001c0: 90b2 5ebd a678 34be 400c 443c 44d7 95bd
000001d0: 19f3 adbd 64f6 33be 59b6 153e f276 1c3e
000001e0: 509d 4bbd bc8d fc3d c0b3 cbbb d80b 39be
000001f0: 7b60 343d 3a78 f7bd 3fcc 2abe 7530 00be
00000200: 8849 bb3c 8f5e 56bd b785 3b3d 12be c73d
00000210: f00d 063c bcb8 833d 3877 d43c 9c76 383e
00000220: 1f10 54be 281d d8bd c05f 50bd 4cbf 2a3e
00000230: 6707 afbd f3a3 0cbe 6796 49be 3ea1 07be
00000240: e833 cd3d 3301 0dbe b827 6f3b f149 8dbd
00000250: 3850 e63d 303e f1bc fcd8 283d ae0c 113e
00000260: 223c 27be 08d3 31be 11e0 933d 3436 20be
00000270: 70c6 9abd 09a4 63be 185a cc3d a1d6 2bbe
00000280: bc60 433d edc6 1bbe 27bf d8bd 7170 163e
00000290: 4a2b 85bd 8ca8 e33c 090e b5bc 152f 893b
000002a0: 386b feb9 6660 89bd 1a90 b4bd a2dc 10be
000002b0: b098 96bd 5525 873d e47b 373e e0e9 33be
000002c0: 1a37 a03d 5bb8 d13d 25ef 9dbc 191e 673d
000002d0: aef8 01be 60f3 70bd c7f3 463e 18e3 60bd
000002e0: 1881 19bd aecf a63d 4faf 2bbe 7023 63bd
000002f0: 7e53 6bbe 0500 9dbd 7cf4 863a c27c 423d
00000300: b992 01be 205e 86bd 5e65 183e ccec cfbd
00000310: 329b 3e3d afc8 a63d e887 53be 5488 aa3d
00000320: 2a35 913c 6890 c63d 37a0 5a3e e170 b0ba
00000330: dd20 3fbb cac5 47bd ef56 713c 0cb0 2c3e
00000340: a216 0f3e adbf 65bd 91b2 033c 1c54 11bd
00000350: 0f48 0a3c e395 fcbd 69e4 5e3d fcb6 91bd
00000360: 54e7 6aba 9558 f73d 2b3a 903d 108a 183e
00000370: c902 0a3e 8211 67be 3e75 1fbd 2d97 f73d
00000380: babc ef3c de8e cfbd 9981 4a3e 4fc4 16bd
00000390: 1919 0f3e 0010 2339 8bc6 a6bd 7235 c43d
000003a0: 191b e03d c062 b13c 0470 e3bc a7cd 30bd
000003b0: c7b3 183c edd5 c03d 1297 f1bd d4de 92bc
000003c0: f9ab debd a27f 053e fa40 243e 3e90 2f3e
000003d0: eab1 7fbd 6d38 33be 85da 113d 2881 ae3c
000003e0: 3f74 f6bd 35d0 99bd 3cc6 3abe 48f0 023d
000003f0: bc4b 383e 1f0c 99bd c0d1 1dbe e189 0d3e
0.16649309 -0.14075463 0.006027013 0.13318703 -0.092228465 -0.21672428 -0.10869372 -0.19004613
0.11356378 -0.06960564 0.01034199 0.06278196 0.042284016 -0.084781505 0.020598114 0.059567917
-0.17168775 0.003922531 -0.07252169 -0.1191625 0.062325913 -0.0075311214 -0.0057626525 0.11492997
0.16750206 -0.18949294 0.08677008 -0.0037637078 0.057094824 -0.05311946 0.026635379 -0.11525454
0.049578905 -0.09985165 -0.06811424 -0.08765591 0.073835455 -0.061307576 -0.15806359 0.029368496
-0.04730691 0.100614585 -0.11324653 0.101584285 -0.15653773 0.14406279 -0.21976425 -0.013269252
-0.063068606 -0.10479743 -0.0830194 -0.08615647 0.13267058 -0.14038509 0.08402395 0.111971796
-0.15347359 -0.014407977 -0.16298103 0.1868083 -0.122540876 0.16278893 0.12892807 0.1159454
-0.07491911 -0.055845127 0.11334402 0.05874898 0.101905525 0.08630725 0.005547906 -0.007807536
0.1094398 0.15064254 -0.100232445 -0.030229032 -0.20855954 0.055288505 -0.18674584 0.024339214
0.020456731 0.06533122 -0.19165798 -0.07154662 -0.11401608 0.06039385 -0.0028736687 0.11125735
0.15580605 0.002557724 0.03582251 -0.07063109 -0.13658941 -0.17180948 -0.024346389 -0.11185653
0.08312992 0.108235024 -0.08386488 -0.06343012 0.12639299 -0.18930203 -0.24733897 0.037782148
-0.17366004 0.04635425 -0.28010294 0.17181894 -0.07032628 0.15692657 -0.099878944 -0.0007415116
-0.05436951 -0.17624149 0.011965811 -0.07316449 -0.08493633 -0.1757446 0.14620341 0.15279749
-0.04971057 0.12331721 -0.006216496 -0.18070924 0.044037323 -0.12083478 -0.16679476 -0.12518485
0.02286221 -0.05233627 0.045781817 0.0975305 0.008182034 0.0643172 0.025935754 0.18013996
-0.20709275 -0.10552436 -0.050872564 0.16674536 -0.08546334 -0.13734417 -0.1968628 -0.13245103
0.10019666 -0.13769989 0.003649218 -0.06898869 0.11245769 -0.029448599 0.041222557 0.14164993
-0.16331533 -0.17365658 0.07220472 -0.15645677 -0.0755738 -0.22230543 0.099781215 -0.16781093
0.047699675 -0.15212603 -0.105833344 0.1469133 -0.06502397 0.02779033 -0.022101419 0.004186521
-0.0004852654 -0.0670784 -0.08816548 -0.14146665 -0.073533416 0.065989174 0.17918354 -0.17569685
0.0782301 0.10240241 -0.019279072 0.056425188 -0.1269252 -0.05882585 0.19428931 -0.054904073
-0.03747663 0.081450805 -0.16766094 -0.055453718 -0.22981068 -0.07666019 0.0010296251 0.04748226
-0.12653627 -0.06560922 0.14882419 -0.10152587 0.046534725 0.08143746 -0.20657313 0.08326784
0.017725546 0.09695512 0.2135018 -0.0013461375 -0.0029163875 -0.04877261 0.014730199 0.16864032
0.13973477 -0.056091 0.008038179 -0.035480604 0.008440032 -0.12333276 0.054417048 -0.071149796
-0.0008960862 0.120774426 0.07042345 0.14896417 0.13477625 -0.22565272 -0.03893017 0.12089381
0.029264797 -0.10134672 0.19776 -0.03680831 0.13974418 0.00015550852 -0.08143338 0.095805064
0.109426685 0.021653533 -0.027763374 -0.043164875 0.009320206 0.09415803 -0.117963925 -0.017928518
-0.10872645 0.1303697 0.16040412 0.17144868 -0.06242553 -0.17501993 0.035608787 0.02130182
-0.12033891 -0.075104155 -0.18239683 0.03196743 0.1799764 -0.07473015 -0.15412045 0.13822128

linear3.bias f4 [30]
00000000: 411d 6bbe 3136 15be f1c8 fc3c 4612 2e3d
00000010: a1b8 06be d230 dbbd a0b3 773e 60a4 1a3f
00000020: 34af a2bd 8cc9 083e 7f90 1e3d d03c e13e
00000030: 94d2 19be 369f c1bd 9f8b 74be c7e2 c13e
00000040: fe7e 133e 3172 313d dbe9 64be 8639 153f
00000050: 93ca b33d 2e33 7d3d f52e f0bd 9002 13be
00000060: 3962 ebbc 9e46 a13e b113 9abd d90c 1bbe
00000070: d17c 14bc d4a4 83bd
-0.22960378 -0.14571454 0.030857535 0.042497896 -0.13156368 -0.10702671 0.24189615 0.60407066
-0.079435736 0.13358134 0.03871202 0.4399171 -0.15021735 -0.09454195 -0.23881386 0.3786833
0.14403912 0.043321792 -0.22354834 0.582909 0.08778872 0.061816387 -0.11727706 -0.14356446
-0.02873336 0.3149919 -0.07523287 -0.1514162 -0.009062962 -0.06427923

linear4.weight f4 [30, 30]
00000000: a81a cabc 5520 783c 7645 6d3c 2572 e0bd
00000010: 941f b0bc 4dad f03b 5ee5 70ba 562b 003e
00000020: 1e83 1a3e dd55 153d 5e80 063e 489e 253e
00000030: 07a4 5b3d d0c0 87be 6e34 96bd 1b9d f63b
00000040: 5e82 ebbd 521f 963d 1be4 1abb d918 1a3e
00000050: 0ae0 cd3d a466 06be 85ae e53d 25ad ba3d
00000060: f6f2 aebd d0ed d13c 1114 3fbe 5c09 5b3e
00000070: 71cb 44bc b508 0fbd 06e6 953d 333b c5bc
00000080: 9b35 32be c79a 3d3d 0fb3 02be b14f 27be
00000090: 067f a6bd ebdb a53c 0770 b0bd cbc2 883d
000000a0: 0fdb 3cbd 226e 24bd 2816 2a3e d03b b43b
000000b0: 6aac 20be 27b4 84be 185c 00be f13a 81be
000000c0: 2cf2 e5be 28dd 773c a8ea 78bd b9bb 993d
000000d0: 46c0 183e 1f79 03be 9b8a 573c 7215 6cbe
000000e0: e9d6 493d 4a21 0c3e 5af3 323d 1390 ad3d
000000f0: 95a9 26be e1c1 04be 5fe2 b6bd 025a a6bd
00000100: d151 c2bd 6f6d 15be 963d f43d 6504 e9bc
00000110: d4fd cf3d 6d1f f63d 3a51 5cbd 8d1e 23bd
00000120: 332f 6bbe 32d0 3b3d d786 933d a271 173e
00000130: d3ce 36be 281e b1bb 5612 b13d 2e0e 51be
00000140: fc4f ec3d c035 29bd 952c de3c 6389 503d
00000150: 9c2b 083e 0def 43be e053 41bd 405f 503c
00000160: 4a26 d8bd 9fde 9cbd b03e b3bd 60e2 60be
00000170: c904 3fbe 382a ac3d 8029 a2bb ba9c 62bc
00000180: 16b3 6ebd 09d6 5d3d fa65 063e 921a 43bd
00000190: 155a 8bbc da87 89be 4657 383d 2638 97be
000001a0: 6ad5 aa3d 4cb5 86be 2e34 dabd c8ea 9fbe
000001b0: f046 47bd a396 c3bd 70ac 383d e68d 883d
000001c0: 6b9d 88be 9198 3bbd b748 7ebd 7e5f 3bbe
000001d0: 7246 e3be 35b7 5ebd 4acf 38bd 5c57 c63d
000001e0: dc9b 7ebd 7016 bb3d 4177 09be 94ce 273d
000001f0: c4eb 2ebe 6df3 0d3d 0d65 85be 3cac 17bd
00000200: ac9f f33d 1acd 82bd 5f91 c93d ba9d a8bd
00000210: 14ee 063e 0d7c 0bbe 3735 b3bd ad39 b7be
00000220: ca87 29be 1174 feba 8a1c 47be 9d5b 063d
00000230: ac9e 123d 6477 b1bd 8f25 b23d 8079 12be
00000240: 7dcc 2ebe 9eb7 febd 1f96 0f3e ece0 283d
00000250: 3d8b 6dbe 8104 28be 4a68 d2bd 1157 653d
00000260: dc8c 93be 4c71 063e 980e 11be 56b2 3cbc
00000270: 82eb c2bd 4907 93bd d2aa 063e 6a9a 4d3d
00000280: 079e 4cbd ca83 2b3e dc50 d6bd 2fd2 4cbd
00000290: adbf 603d 1fa2 fd3d fcf4 b43d d4a0 c63b
000002a0: 7c68 41bd 3fbe ec3d 8d13 543d d5bc 57be
000002b0: 5ed7 43be cb9e fe3d 7a32 4abd bd34 2a3e
000002c0: 00dd f53c d1ec 15be d014 edbd e5cf 1abe
000002d0: c1f5 9d3d fc8e 6fbe 0637 97bd 5c63 38bc
000002e0: dd8e f63d ad73 1bbe 4835 253d 2be1 3c3e
000002f0: 28ba ba3d 891e 7b3d a797 b83d a5af 3e3e
00000300: cd8e 08be 3944 5fbe d437 0bbe 7d30 0bbc
00000310: f259 b5bd 16c8 3bbe e380 dfbc d6a5 0d3e
00000320: 78b1 673d 89f9 43be f2a8 ab3d bcd6 7dbd
00000330: 1795 aabd c462 993d b7f1 99be 451d cabd
00000340: 9abb 8abe 4974 1cbe f2a4 46be ab3c 9c3d
00000350: fe7e 26bd 8f20 003e b096 23bd c28a 8fbd
00000360: 2ac3 f53c 80a0 47bd 9847 cb3d 7c06 1fbe
00000370: fa70 613d 7a08 b33d f8c1 92bd 427e 293a
00000380: 7646 cbbd c92e 88be 2862 bd3d 3b9c 0f3e
00000390: ee84 54be 6fab 5cbe a7bf 0dbe 241c a63b
000003a0: 8be6 53bd 6da7 183e d280 a3bd f507 81bd
000003b0: a3cd 1ebd d247 583d 7761 1bbe b16c ff3d
000003c0: e9e4 493d 0e09 0f3d 1e66 84be 59c8 45bd
000003d0: 27ff 16be 0b9e 2e3e c1f6 25be acec 76be
000003e0: 2d97 223e 599e e2bd e7f9 3cbc 7622 38be
000003f0: 7a7b d43c da3d 773d d173 0dbd b612 933d
-0.024670914 0.015144427 0.014481893 -0.10959271 -0.021499433 0.007344878 -0.0009189452 0.12516531
0.1508908 0.03645884 0.13134906 0.16173661 0.053623226 -0.26514292 -0.07334219 0.0075260527
-0.11499475 0.073301926 -0.0023634497 0.15048541 0.10052498 -0.13125092 0.112149276 0.09115056
-0.08542435 0.025626093 -0.18659998 0.21390289 -0.012011395 -0.034920413 0.07319264 -0.02407608
-0.17403261 0.046290185 -0.12763618 -0.16338994 -0.081296965 0.020246467 -0.086151175 0.06677779
-0.046107348 -0.040144093 0.16610014 0.0055002943 -0.15690771 -0.25918695 -0.12535131 -0.2524028
-0.44911325 0.015128411 -0.06077066 0.075065084 0.14917096 -0.12839173 0.013155605 -0.23055056
0.04927722 0.13684574 0.04368911 0.084747456 -0.16275628 -0.12964584 -0.089298956 -0.081226364
-0.094882615 -0.14592527 0.11925809 -0.028444478 0.10155836 0.12017713 -0.0537884 -0.039824057
-0.22967224 0.045852847 0.07203453 0.14789441 -0.17852335 -0.0054052062 0.086460754 -0.20415565
0.11538693 -0.041311026 0.027120868 0.050912272 0.13297886 -0.1913416 -0.04719913 0.012718022
-0.10554178 -0.07659649 -0.08752191 -0.21961355 -0.18654169 0.0840649 -0.004948795 -0.013831312
-0.05827626 0.054159198 0.13124838 -0.04763276 -0.017010728 -0.2686146 0.045005105 -0.29535025
0.08341487 -0.26310194 -0.10654484 -0.3123381 -0.048651636 -0.09550216 0.045086324 0.0666769
-0.266826 -0.045799796 -0.062081065 -0.18298146 -0.44389683 -0.05437394 -0.04511956 0.09684631
-0.062160358 0.09135139 -0.13424398 0.040968493 -0.17082125 0.034655977 -0.26053658 -0.03702949
0.11895689 -0.06386776 0.098421805 -0.08233209 0.13176757 -0.1362154 -0.08750384 -0.3578619
-0.16555706 -0.0019413253 -0.1944448 0.032802213 0.035795853 -0.0866535 0.0869857 -0.14304161
-0.17070194 -0.12437366 0.1402211 0.041230127 -0.23197646 -0.16407968 -0.10273798 0.055991236
-0.28818405 0.13129157 -0.14165723 -0.011517128 -0.09517576 -0.07179124 0.131511 0.05019609
-0.049955394 0.16749492 -0.104646415 -0.050005134 0.054870296 0.12384438 0.088357896 0.0060616527
-0.047218785 0.11559724 0.051776458 -0.21068127 -0.19125125 0.12432631 -0.049364544 0.1662168
0.030012608 -0.1464112 -0.11576235 -0.15118368 0.077128895 -0.23394388 -0.07383542 -0.011254158
0.12038968 -0.15180846 0.040334016 0.1844527 0.09117538 0.061308417 0.090133004 0.1862169
-0.13335724 -0.21803369 -0.13595515 -0.008495447 -0.08855046 -0.18338045 -0.027283138 0.13832793
0.05656573 -0.19138159 0.08381833 -0.061972365 -0.08329218 0.07489541 -0.30067226 -0.09868864
-0.27096254 -0.15278734 -0.19398859 0.07628759 -0.040648453 0.1251242 -0.03993863 -0.07008888
0.030000288 -0.04873705 0.09925765 -0.15529817 0.055039383 0.08741851 -0.07165903 0.0006465652
-0.09925549 -0.26598194 0.092472374 0.14024441 -0.20753834 -0.21549772 -0.13842641 0.0050692726
-0.051733535 0.14907618 -0.07983555 -0.06300346 -0.03877033 0.05280287 -0.15173899 0.12471903
0.04929057 0.034920745 -0.2585916 -0.04828677 -0.1474577 0.17052476 -0.1620741 -0.2411372
0.15877981 -0.11065359 -0.011534191 -0.17981896 0.025937784 0.06036172 -0.03453428 0.07181303

linear4.bias f4 [30]
00000000: a1fc 233f 9c76 233f a113 2b3e 993b 9f3e
00000010: 6cb0 17be 8a58 103f ab38 5d3f 4a6c 153b
00000020: 76df 5cbe d7d4 c53e cab0 c03e 0734 78bd
00000030: 229f 6fbe a75b ce3e c3e9 8d3e e090 103e
00000040: 453b 01be 4230 d7bc d27a f6bd 4522 3c3e
00000050: 30d8 9cbe e6be 053f 9238 313f 2ee6 e7bd
00000060: 5d63 193f ebfd 183f b661 84bd a9c9 d6bd
00000070: 128c b6bd 49af 40bb
0.64057356 0.6385286 0.16706707 0.31100157 -0.14813393 0.563851 0.86414593 0.002280014
-0.21569619 0.38638946 0.3763488 -0.060596492 -0.23400548 0.403043 0.2771741 0.14117765
-0.12620266 -0.026268128 -0.12035145 0.18372448 -0.30633688 0.5224441 0.69226944 -0.113232
0.5991724 0.5976245 -0.064639494 -0.10487682 -0.08913435 -0.0029401353

linear5.weight f4 [1, 30]
00000000: cab3 48bd f78b bd3c d0d3 82bd a36c e0bc
00000010: 1811 423d 3af9 07bd bb55 4dbd db0b 03bc
00000020: a235 a1bb 0883 333d ce3d 0cbd f50e 9239
00000030: d733 89bc f362 c63c 173d b23b 3d75 423d
00000040: e0c6 733a 69b6 973c cf3e 563d b6f6 02bc
00000050: 133c 1a3b f115 8abd 26a3 f4bc bce9 3d3c
00000060: 2cfe 9039 131f b0bd cff3 d73b 463c 523c
00000070: 81fc c23c ca5c cd3c
-0.048999585 0.02313803 -0.06388056 -0.027395552 0.047379583 -0.033196665 -0.050130587 -0.007998432
-0.0049197236 0.043826133 -0.03423863 0.00027858434 -0.016748352 0.024217105 0.0054394114 0.04747509
0.0009299349 0.018519597 0.052305993 -0.007993391 0.0023534342 -0.06742466 -0.029862951 0.011591371
0.00027655193 -0.08599677 0.0065903435 0.012831753 0.023802044 0.02506866
