基于ABM的智能化经济模拟平台/ambs/company_buffer/target_actor_checkpoint.pth (torch, 16831 bytes, 10 tensors)

linear1.weight f4 [30, 12]
0	0x3e4d523c	0.20050901
1	0xbe3cd0c2	-0.1843901
2	0x3e7a1c12	0.2442477
3	0x3ea95c3d	0.33078185
4	0xbd00ce32	-0.031446643
5	0x3e17e27e	0.14832494
6	0xbde549e4	-0.11195734
7	0x3eab9410	0.335114
8	0x3da6517f	0.08121013
9	0x3e804f71	0.2506061
10	0xbd9ddca5	-0.077081
11	0xbe66f722	-0.22555211
12	0x3e93d040	0.2886982
13	0x3ddab1d9	0.10678453
14	0xbe1b4f31	-0.15166928
15	0x3da2c263	0.079472326
16	0x3dd1206f	0.10211264
17	0x3cd52a4d	0.026021147
18	0x3e921d12	0.28537804
19	0xbe6cfc3a	-0.23143092
20	0x3cf76e9a	0.030204106
21	0xbe76d53c	-0.2410478
22	0xbe62f4e1	-0.22163726
23	0x3e583f04	0.21117789
24	0xbe33fe87	-0.17577563
25	0xbe450783	-0.19241147
26	0x3e116210	0.14197564
27	0x3d5d0553	0.053960156
28	0x3e8796c4	0.26482213
29	0x3e95d63c	0.2926501
30	0x3e48352a	0.1955153
31	0x3dd79c89	0.105279036
32	0x3d5c99f1	0.053857747
33	0x3e82fa8c	0.25581777
34	0x3d7ea066	0.062164687
35	0x3e84ce67	0.25938722
36	0x3e46eb58	0.19425714
37	0xbe733fcd	-0.23754807
38	0x3d7b7e2c	0.061399624
39	0xbe282036	-0.16418537
40	0x3e75aed1	0.23992468
41	0xbd4219dc	-0.047387943
42	0xbd97f19b	-0.074191295
43	0x3e6ec232	0.23316267
44	0xbd72ac71	-0.059246484
45	0x3cd7ba4c	0.02633395
46	0x3e93ba09	0.2885287
47	0x3ea073ea	0.31338435
48	0xb982210d	-0.00024820157
49	0xbe31e7f5	-0.17373641
50	0xbe140ce7	-0.14458047
51	0xbd713b11	-0.05889422
52	0xbdd9863c	-0.10621306
53	0x3dd5e1ea	0.1044348
54	0x3c10267f	0.008798241
55	0xbe08fc75	-0.13377555
56	0x3c855b98	0.016279027
57	0x3e6ab2af	0.22919725
58	0x3d87b7f5	0.06626884
59	0x3e3b9c88	0.1832143
60	0x3dd05a4e	0.10173474
61	0x3e2384b6	0.15968594
62	0x3e2479dc	0.1606211
63	0x3e8f4604	0.27983105
64	0x3e41e316	0.18934283
65	0xbd8871c1	-0.06662322
66	0xbe49bd84	-0.197012
67	0xbe20718d	-0.15668316
68	0xbdbe8ff9	-0.09304804
69	0xbdd26b85	-0.10274414
70	0x3e5dd8dd	0.21664758
71	0x3dbb8095	0.091553845
72	0x3d9be272	0.076115504
73	0x3e97df3f	0.2966251
74	0x3e22c5ba	0.15895739
75	0x3ea1e633	0.3162094
76	0x3e9c0d4a	0.3047889
77	0x3d7e55cd	0.062093545
78	0xbd85edd9	-0.065395065
79	0xbe4eaff9	-0.20184316
80	0xbda65520	-0.08121705
81	0x3e663197	0.22479855
82	0x3dcf7f96	0.10131757
83	0x3e58f905	0.21188743
84	0xbd8a582a	-0.06755097
85	0x3cb21f83	0.021743542
86	0xbd86ef25	-0.06588582
87	0x3e69da41	0.22837164
88	0xbe4c3d5b	-0.1994528
89	0x3e86ad02	0.2630387
90	0x3ce66187	0.028122677
91	0xbd856a26	-0.06514387
92	0xbe0b8c11	-0.1362765
93	0xbe74e351	-0.2391484
94	0xbe8b597f	-0.27216718
95	0xbe38629b	-0.18006365
96	0x3dae245f	0.08503031
97	0xbc830b39	-0.015996562
98	0xbe5dffbb	-0.21679585
99	0x3c9c08b9	0.019047128
100	0xbdd5af52	-0.1043383
101	0xbe175c47	-0.14781295
102	0x3e2e122c	0.1699912
103	0xbe4041ee	-0.1877515
104	0xbe031018	-0.12799108
105	0xbe03ad36	-0.12859043
106	0x3e93da29	0.2887738
107	0xbc5c9d78	-0.013465278
108	0xbe4eeba8	-0.20207083
109	0x3e5b8287	0.21436511
110	0xbdd802a4	-0.10547379
111	0xbdfe414b	-0.124147974
112	0x3ea3ef78	0.32018638
113	0xbe051d98	-0.1299957
114	0x3cf08465	0.029360006
115	0xbe44899a	-0.19193116
116	0xbe415996	-0.1888183
117	0xbdc672f3	-0.096898936
118	0xbe12d85c	-0.14340347
119	0xbe44582e	-0.19174263
120	0xbe304c17	-0.17216526
121	0xbdd8de6d	-0.10589299
122	0xbdc69602	-0.096965805
123	0xbd31d2dc	-0.04341398
124	0x3e0d8c4a	0.13823047
125	0xbd40c081	-0.047058586
126	0x3c9150b6	0.017738681
127	0x3e0e903e	0.13922212
128	0xbd7e914d	-0.06215029
129	0x3e642eea	0.22283521
130	0xbe5c95dc	-0.21541542
131	0x3e1c30e3	0.15253024
132	0x3d9f5012	0.07778944
133	0xbe33126f	-0.174875
134	0xbe405b9f	-0.1878495
135	0x3e72e86f	0.23721479
136	0x3e8c66c7	0.27422163
137	0x3e45c3e7	0.19313012
138	0x3e9f7cf5	0.31150022
139	0xbda0d95e	-0.078539595
140	0xbe01b2c0	-0.12665844
141	0x3d809f8c	0.06280431
142	0xbe121f8f	-0.14269851
143	0x3e31f66c	0.17379159
144	0xbdf4db29	-0.11955864
145	0x3df193cc	0.11795768
146	0x3db81d28	0.08989936
147	0xbd607093	-0.05479486
148	0x3e99214b	0.29908213
149	0xbe0a6c93	-0.1351798
150	0x3e8743dd	0.26418963
151	0x3e8e8f77	0.2784383
152	0x3e0043a3	0.12525801
153	0x3e8409dd	0.25788775
154	0xbdf47b86	-0.11937623
155	0x3e9839a3	0.29731473
156	0xbe88a3e2	-0.26687533
157	0xbc4eda98	-0.012625359
158	0x3e07c1b1	0.13257481
159	0x3e376d6e	0.17912838
160	0xbe084a7f	-0.13309668
161	0xbd5670eb	-0.05235378
162	0xbe04134a	-0.12897983
163	0x3e80afe9	0.2513421
164	0x3b9e505d	0.0048313574
165	0xbe38c818	-0.1804508
166	0xbc8f7f92	-0.017516885
167	0x3e91235b	0.28347287
168	0x3d316ab8	0.043314666
169	0xbd9a004b	-0.07519587
170	0xbe2f639a	-0.17127839
171	0x3e07136b	0.13191001
172	0x3c0fb770	0.008771762
173	0x3dc704bb	0.09717699
174	0x3e972c50	0.29525995
175	0xbcd858a3	-0.026409453
176	0x3e9efc06	0.31051654
177	0x3ea831e1	0.32850555
178	0x3e82626d	0.25465718
179	0xbe310f05	-0.17290886
180	0x3e371726	0.17879924
181	0xbe05628e	-0.13025877
182	0x3cdb76c6	0.026790034
183	0x3d3ad493	0.045612883
184	0xbe1c0e54	-0.15239841
185	0x3e53e1fc	0.20691675
186	0x3e8e757d	0.2782401
187	0xbdfe7ef6	-0.124265596
188	0x3e342e49	0.17595781
189	0x3e6160a2	0.22009519
190	0x3d6080bd	0.054810274
191	0xbe1cfcd1	-0.15330817
192	0x3e8db62b	0.27678046
193	0x3e3b11f2	0.18268564
194	0x3e22d83f	0.15902804
195	0xbe53e563	-0.20692973
196	0x3e9f6848	0.31134248
197	0x3c952ec8	0.018210784
198	0xbe1c36df	-0.15255307
199	0x3e0e6de0	0.13909101
200	0xbe6eb07b	-0.2330951
201	0xbe29d04a	-0.16583362
202	0xbe4324cb	-0.19057004
203	0x3e5ee36e	0.21766445
204	0x3e9f7a1b	0.31147847
205	0x3e99ae20	0.3001566
206	0x3ea2a265	0.31764522
207	0xbc60ae66	-0.013713455
208	0x3d747fa9	0.05969206
209	0x3db62ed1	0.08895648
210	0xbd329bde	-0.043605678
211	0x3e993ec1	0.2993069
212	0xbda1afe3	-0.07894876
213	0x3d827f41	0.06371928
214	0x3c778563	0.0151074855
215	0x3e074a39	0.13211907
216	0xbe0f2868	-0.13980258
217	0x3e23ac0e	0.15983602
218	0x3d5cdb8f	0.053920325
219	0x3ea24134	0.3169037
220	0x3d5854b7	0.052815165
221	0xbe4bb29c	-0.19892353
222	0xbe462224	-0.19348961
223	0x3e9f82b6	0.31154412
224	0xbe5a5414	-0.21321136
225	0xba968a21	-0.0011485257
226	0xbe6b1551	-0.2295735
227	0x3e11d01c	0.14239544
228	0x3e869ca2	0.26291376
229	0x3e0600e8	0.13086283
230	0x3e15a3e4	0.146133
231	0x3e93ae18	0.2884376
232	0xbc8ece5e	-0.017432388
233	0x3db2e519	0.08735103
234	0x3ea19172	0.31556278
235	0x3d73a1d7	0.059480514
236	0xbdcb53cd	-0.09928093
237	0xbd1a8ce7	-0.03773203
238	0xbe2c1275	-0.16803916
239	0x3ea83b4f	0.3285775
240	0xbc1b9f84	-0.009498481
241	0xbe4d7b65	-0.20066603
242	0xbe3c5132	-0.18390349
243	0x3e73925c	0.237863
244	0x3d8368f2	0.06416501
245	0x3be8623d	0.007091789
246	0xbe5b17a6	-0.2139574
247	0x3d7bfca9	0.061520252
248	0x3e7eee03	0.24895482
249	0xbe44915c	-0.19196075
250	0xbe83a852	-0.25714356
251	0xbdeafa14	-0.1147348
252	0x3de05c30	0.10955083
253	0xbd5901b6	-0.052980147
254	0xbd99b8f9	-0.07505984
255	0x3e3b46d8	0.18288743

linear1.bias f4 [30]
0	0x3e77212b	0.24133746
1	0xbe0e9e96	-0.13927683
2	0x3e1bc015	0.15209992
3	0x3e775983	0.2415524
4	0xbdc15f1c	-0.09441969
5	0xbe61fbf5	-0.2206877
6	0xbe47bc3f	-0.19505404
7	0x3d039b98	0.032130808
8	0x3e9e3f4e	0.30907673
9	0x3e9bcf4e	0.30431598
10	0xbe128f97	-0.14312588
11	0x3e8e112e	0.27747482
12	0x3e13905c	0.14410537
13	0xbe8519e5	-0.25996318
14	0x3e17c39a	0.1482071
15	0x3e90b445	0.28262535
16	0x3e3d4472	0.18483141
17	0xbe594ca6	-0.21220645
18	0xbda0ebce	-0.07857476
19	0xbe4a4c10	-0.19755578
20	0x3e6ed4ab	0.23323314
21	0xbe0a96e5	-0.13534124
22	0xbda1f58b	-0.07908162
23	0x3dbbe34a	0.09174211
24	0xbe5e1b9d	-0.21690221
25	0xbe3a0217	-0.1816486
26	0xbe134b81	-0.14384271
27	0x3eacf9df	0.33784387
28	0x3ea36483	0.31912622
29	0x3ea751d6	0.32679623

linear2.weight f4 [30, 30]
0	0x3e4629b8	0.19351852
1	0xbd2ca62b	-0.042150658
2	0xbd02ea76	-0.03196188
3	0xbc02ce75	-0.0079837935
4	0xbde701c1	-0.112796314
5	0x3deac77d	0.114638306
6	0xbd0a18b6	-0.033714972
7	0x3cc42878	0.023945078
8	0xbc03da37	-0.008047632
9	0xbd14b438	-0.036304682
10	0x3e2d2bab	0.1691119
11	0x3d8b5288	0.06802851
12	0x3dba211e	0.09088348
13	0x3ddc6107	0.10760694
14	0x3cf9b5d6	0.030482214
15	0x3e3a0805	0.18167122
16	0xbe12efb4	-0.14349252
17	0x3dad305d	0.0845649
18	0xbcb13af3	-0.021634554
19	0x3e2a1820	0.16610765
20	0xbcd96afd	-0.026540274
21	0xbd808baf	-0.062766425
22	0x3de42ce5	0.111413755
23	0xbdbf4f78	-0.09341329
24	0xbde58345	-0.11206678
25	0xbcd28c86	-0.025701772
26	0x3e305367	0.17219315
27	0x3c314a7d	0.010820982
28	0x3d7c3c1a	0.061580755
29	0xbdda09e0	-0.10646415
30	0x3e6016da	0.21883717
31	0xbd921a2c	-0.07133898
32	0x3d856d7c	0.06515023
33	0xbcec49b2	-0.028843734
34	0xbe023650	-0.12716031
35	0xbd74a37b	-0.05972622
36	0x3e2bbb0f	0.16770576
37	0x3d9dcc5e	0.077049956
38	0x3db13f68	0.08654672
39	0xbda8b269	-0.08237154
40	0x3da4bec3	0.080441974
41	0x3d208b24	0.039195195
42	0x3e60d963	0.21957926
43	0x3ddb2303	0.10700037
44	0xbdea9824	-0.114548
45	0x3d70d75b	0.05879913
46	0x3e3b588f	0.18295501
47	0x3e24f0dc	0.16107506
48	0xbd116b9a	-0.035503007
49	0x3d7ce79e	0.061744325
50	0xbd15593a	-0.036462046
51	0x3e49e8a3	0.1971765
52	0xbd81beb4	-0.06335202
53	0x3dc4667d	0.095898606
54	0x3c73def3	0.014884698
55	0x3e024644	0.12722117
56	0x3dcd7934	0.10032883
57	0x3d5a99b5	0.053369243
58	0x3ddbd683	0.10734274
59	0xbd5855ec	-0.052816316
60	0xbde64489	-0.11243541
61	0xbdaf0817	-0.08546465
62	0x3e4df9b8	0.20114791
63	0x3d2c6dcc	0.042096898
64	0x3dca26fe	0.098707184
65	0x3e1eba53	0.15500765
66	0x3d9329db	0.07185718
67	0x3d9d19aa	0.07670911
68	0xbd120a1f	-0.035654183
69	0xbddf3f2b	-0.1090072
70	0xbc80066b	-0.01562806
71	0x3d773756	0.060355507
72	0xbe03f6da	-0.12887135
73	0x3e03d2fa	0.1287345
74	0x3c873897	0.016506476
75	0x3e355bf8	0.17710865
76	0xbd759ca0	-0.059963822
77	0x3e232764	0.15932995
78	0xbcd17c46	-0.025571954
79	0x3e3ba9c3	0.18326478
80	0xbdbf130b	-0.09329804
81	0x3d90f891	0.0707866
82	0xbdecb774	-0.115584284
83	0x3d640a10	0.05567366
84	0x3e26731d	0.1625485
85	0x3e625491	0.22102572
86	0x3df52998	0.11970824
87	0xbdf1e056	-0.11810367
88	0xbdce1df3	-0.10064306
89	0xbdf1895b	-0.117937766
90	0x3df081a2	0.117434755
91	0x3d262be9	0.04056922
92	0x3d061fee	0.032745294
93	0x3e16a962	0.14713052
94	0x3c50b369	0.012738087
95	0xbd9be7bc	-0.07612559
96	0x3cf81e35	0.030287841
97	0x3d765954	0.060143784
98	0x3e00409b	0.12524645
99	0x3dd09886	0.101853415
100	0x3e19212d	0.14954062
101	0x3de9ab35	0.11409608
102	0x3e484e71	0.19561173
103	0x3ded4b76	0.11586659
104	0xbcb95f9e	-0.022628602
105	0x3d952e6c	0.07284245
106	0x3db76973	0.0895566
107	0x3dbded5c	0.09273788
108	0x3d002238	0.031282634
109	0xbe1236e5	-0.14278753
110	0xbd0e07ef	-0.034675535
111	0x3e54d6f3	0.20785122
112	0x3dba1f5b	0.09088012
113	0x3d36be6b	0.04461519
114	0xbd6e0b82	-0.058116443
115	0x3e2fc86f	0.17166303
116	0x3e32fcab	0.17479198
117	0x3cefc87e	0.029270407
118	0x3e0645e9	0.13112606
119	0x3e153930	0.14572597
120	0xbd896e46	-0.06710486
121	0x3cd86010	0.026412994
122	0xbd42efb0	-0.047591865
123	0xbe010481	-0.12599374
124	0x3b706c00	0.0036685467
125	0xbd9b335c	-0.075781554
126	0x3da37f18	0.079832256
127	0x3e1982ac	0.14991254
128	0x3beec780	0.007286966
129	0xbd70e3fe	-0.05881118
130	0xbded88d9	-0.11598367
131	0xbdb7d786	-0.08976655
132	0xbde75161	-0.11294819
133	0x3dddf694	0.10838047
134	0x3dc24030	0.09484899
135	0xbdff4617	-0.124645405
136	0x3ce2a438	0.027666196
137	0x3e0ecf26	0.13946208
138	0xbd0075e0	-0.031362414
139	0x3dadaa94	0.08479801
140	0x3d5b2ef4	0.053511575
141	0x3cbbd540	0.022928834
142	0xbd0883c0	-0.03332877
143	0x3e08c722	0.13357213
144	0xbe191e7a	-0.14953032
145	0xbc419ba0	-0.011816889
146	0x3d89dc0e	0.06731425
147	0xbcd5ccb8	-0.026098594
148	0xbd8def43	-0.06930401
149	0x38f9b800	0.00011907518
150	0x3df2d80e	0.118576154
151	0x3d7d6b40	0.06186986
152	0x3dcf20d2	0.10113682
153	0x3e04ee76	0.1298159
154	0x3d1bd9bd	0.03804945
155	0xbd14c7eb	-0.03632347
156	0x3e5370f9	0.20648564
157	0x3d3ede28	0.046598583
158	0xbd912ba4	-0.07088402
159	0x3e30a381	0.17249872
160	0x3e030e1f	0.12798356
161	0x3d550b49	0.052012715
162	0xbd4c13e4	-0.049823657
163	0x3d9b0d37	0.0757088
164	0x3dc3c2f3	0.09558668
165	0xbe046c3c	-0.12931913
166	0x3d7953f6	0.060871087
167	0x3de0a47e	0.109688744
168	0xbd59f86c	-0.05321543
169	0x3e142932	0.1446884
170	0x3d20fc61	0.039303187
171	0x3e1c58eb	0.15268295
172	0x3e44656e	0.19179317
173	0x3d03874a	0.032111444
174	0x3d444fa3	0.04792751
175	0xbddd692f	-0.10811078
176	0x3e1e1612	0.15438107
177	0xbcf8e114	-0.030380763
178	0x3df32641	0.11872531
179	0x3e00ada6	0.12566242
180	0x3d82a2f0	0.06378734
181	0x3b93ba72	0.00450831
182	0x3e4a9995	0.1978515
183	0xbc546eeb	-0.012965898
184	0x3d7dc3d5	0.061954338
185	0xbd5f47ea	-0.054511942
186	0xbde367ed	-0.11103807
187	0x3d05d195	0.032670576
188	0x3e02e616	0.12783083
189	0x3e0e0bcc	0.13871688
190	0x3c2175d7	0.009854755
191	0x3df51cdc	0.11968395
192	0x3e05d9f8	0.1307143
193	0x3c8f8a6e	0.017522063
194	0x3e332211	0.17493464
195	0x3cbc5ea3	0.022994345
196	0xbc6f257f	-0.014596342
197	0x3e5cc9eb	0.215614
198	0xbcccbeb1	-0.024993272
199	0xbc6cf897	-0.014463565
200	0xbc19d0ca	-0.009388158
201	0xbd72768d	-0.05919509
202	0x3e54d8a7	0.20785771
203	0xbd778412	-0.060428686
204	0xbdd74f17	-0.10513132
205	0xbd9779af	-0.07396256
206	0x3d1ef922	0.03881181
207	0x3dc21a45	0.09477667
208	0x3e249b47	0.16074859
209	0x3d6b7cab	0.05749194
210	0xbe023e60	-0.12719107
211	0xbb70e540	-0.0036757737
212	0x3d30c1bc	0.04315351
213	0xbdca8de9	-0.098903485
214	0xbc8bf3b0	-0.017083973
215	0xbe13a1b0	-0.14417148
216	0x3dfbe2d0	0.122991204
217	0xbdea97bf	-0.114547245
218	0xbe374f3a	-0.17901316
219	0xbdac3bbc	-0.08409831
220	0xbcff3f20	-0.03115803
221	0xbe0c35f2	-0.13692454
222	0xbda15e75	-0.078793444
223	0xbd9c4276	-0.07629864
224	0xbdb3bab7	-0.087758474
225	0x3e000960	0.12503576
226	0x3c167b70	0.009184703
227	0xbdee5631	-0.116375335
228	0x3e2ee596	0.17079768
229	0xbe071517	-0.13191639
230	0x3d27aed0	0.0409382
231	0x3e0606aa	0.1308848
232	0x3cb1c6b0	0.021701187
233	0x3e065d74	0.13121587
234	0xbe27b8c5	-0.16379078
235	0xbca4a888	-0.020099893
236	0x3d0e2754	0.034705475
237	0x3df4c340	0.119513035
238	0xbcd9aac0	-0.026570678
239	0xbe17d330	-0.14826655
240	0x3d07acc0	0.03312373
241	0x3be39260	0.0069449395
242	0x3da91e90	0.082577825
243	0x3da08c40	0.078392506
244	0xbd518ad4	-0.051157787
245	0x3e1bce62	0.15215448
246	0xbe38113d	-0.17975326
247	0xbdae05b0	-0.084971786
248	0xbca45de0	-0.020064294
249	0x3dc2df48	0.09515244
250	0xbccf14f0	-0.025278538
251	0x3d9fa9bc	0.07796046
252	0xbbceff60	-0.006317064
253	0x3c24dbc1	0.010062159
254	0xbdee7ff5	-0.116454996
255	0x3cd5c8a8	0.026096657

linear2.bias f4 [30]
0	0xbe1f822c	-0.15577
1	0xbdfd6ed6	-0.12374656
2	0xbd11f52b	-0.0356342
3	0x3e544e4c	0.20732993
4	0xbdbab828	-0.09117156
5	0xbdc54b54	-0.09633508
6	0x3e31d64b	0.17366903
7	0xbe2badd9	-0.16765536
8	0xbdd57081	-0.10421849
9	0x3d561801	0.052268986
10	0x3ce08fbc	0.027412288
11	0x3e15da49	0.1463405
12	0x3e1f1332	0.15534666
13	0x3e4068e7	0.18790017
14	0x3e5bdbcd	0.21470566
15	0x3cc460e7	0.023971988
16	0xbe25e7c2	-0.1620169
17	0x3dee2144	0.11627439
18	0x3d8731bd	0.06601284
19	0x3c680a73	0.014162648
20	0x3da82ef8	0.082120836
21	0xbe1f3186	-0.15546235
22	0x3da617a1	0.081099756
23	0x3d11575f	0.035483714
24	0xbd0b8608	-0.03406337
25	0x3e4bc315	0.19898637
26	0xbdd53d74	-0.10412112
27	0xbd9a52b2	-0.07535304
28	0x3e2ea8e0	0.17056608
29	0xbd8425b3	-0.06452503

linear3.weight f4 [30, 30]
0	0x3d01b512	0.031666823
1	0xbcea2835	-0.028583625
2	0x3dc6ad30	0.09701002
3	0x3e15c0b7	0.14624296
4	0x3e2209b4	0.15824014
5	0xbd483b19	-0.048884485
6	0x3e54977d	0.20760913
7	0x3e1facd0	0.15593266
8	0xbe1d5ddc	-0.15367836
9	0x3d893ffa	0.06701656
10	0x3e4df95f	0.20114659
11	0x3e5f3aef	0.21799825
12	0x3c4d2bc0	0.012522638
13	0x3cf7514c	0.030190133
14	0x3cb3d4cb	0.021952054
15	0x3d7d9e50	0.061918557
16	0xbc189600	-0.009313107
17	0xbd3d57ea	-0.04622642
18	0x3d41a60a	0.047277488
19	0x3d285fe6	0.04110708
20	0x3bcabc5f	0.0061870064
21	0x3dfddce4	0.12395647
22	0xbe09b6fd	-0.1344871
23	0xbca47fdf	-0.020080505
24	0x3c039560	0.008031219
25	0x3bf17eb3	0.00736984
26	0xbdd789b8	-0.10524315
27	0xbd4b56b9	-0.049643252
28	0x3d1411b7	0.036149707
29	0x3e529dc9	0.20568003
30	0x3e1dd7bd	0.15414329
31	0x3ce78e70	0.028266162
32	0x3d3170fb	0.043320637
33	0xbd3ba961	-0.04581583
34	0x3e29ae85	0.1657048
35	0x3e32d1f1	0.17462899
36	0xb974ac02	-0.00023333731
37	0x3e305c98	0.17222822
38	0x3dd4af0c	0.1038495
39	0xbe1150df	-0.14191006
40	0x3d025044	0.03181483
41	0x3cdb3092	0.026756559
42	0x3e31dd0e	0.17369482
43	0xbe166aea	-0.14689222
44	0x3e43d5ce	0.19124529
45	0x3dda2ef3	0.10653486
46	0xbe344f20	-0.17608309
47	0x3e534941	0.20633413
48	0x3e353048	0.17694199
49	0xbc53bb64	-0.012923095
50	0xbdd0169c	-0.101605624
51	0xbe329070	-0.17437911
52	0xbd09300c	-0.033493087
53	0x3de6c48d	0.11267958
54	0x3cb9a379	0.022660958
55	0x3dc69053	0.096954964
56	0xbe3957be	-0.18099877
57	0xbbed570b	-0.0072430423
58	0xbdc637dc	-0.09678623
59	0x3e32b471	0.17451645
60	0xbc5a35e9	-0.013318517
61	0x3e5b69bb	0.21427052
62	0x3e143c64	0.14476162
63	0x3e135a57	0.1438993
64	0x3e10f3ba	0.14155474
65	0xbcf7f717	-0.030269189
66	0x3e2080c7	0.15674125
67	0xbdf0008a	-0.11718853
68	0xbd381414	-0.044941023
69	0x3e2aafff	0.166687
70	0x3d3fb8ee	0.046807222
71	0x3cf72afa	0.03017186
72	0xbdcb3ce5	-0.09923724
73	0x3c9f900c	0.019477867
74	0x3e16aa2c	0.14713353
75	0xbd71b318	-0.059008688
76	0xbd317030	-0.04331988
77	0xbcd0cb7d	-0.025487656
78	0x3e254137	0.16138159
79	0xbc933ba9	-0.017972784
80	0x3daa1d41	0.08306361
81	0xbd84b820	-0.064804316
82	0xbd811dce	-0.06304513
83	0x3e180d05	0.14848717
84	0x3e3bc952	0.18338516
85	0x3e5856c2	0.21126845
86	0xbdc74692	-0.09730257
87	0x3d9956db	0.074872695
88	0xbc76093a	-0.015016848
89	0xbcbb59e0	-0.022870004
90	0xbcd38fbd	-0.025825376
91	0x3e0f7502	0.14009479
92	0x3e657100	0.22406387
93	0x3e109940	0.1412096
94	0xbd0d692c	-0.034524128
95	0x3e0f558a	0.13997474
96	0xbd8c76cf	-0.068585984
97	0xbde239a0	-0.11046147
98	0xbdd0c0ef	-0.10193049
99	0xbd7f6ccd	-0.06235962
100	0x3da13b3f	0.078726284
101	0xbdcf7889	-0.10130412
102	0x3d626e8c	0.055281207
103	0x3c9ee087	0.019394172
104	0x3de83b48	0.11339432
105	0x3dac4322	0.08411242
106	0xbd47626f	-0.048677858
107	0x3e22815b	0.15869658
108	0x3d828d77	0.063746385
109	0x3e60aabb	0.21940129
110	0x3e3a56da	0.18197194
111	0x3de7c170	0.11316192
112	0x3dc393e1	0.0954969
113	0x3de5a2ba	0.11212678
114	0xbdb789a5	-0.089618005
115	0x3d687049	0.05674771
116	0x38a8c800	8.048117e-05
117	0xbd58a446	-0.05289104
118	0x3df76b08	0.120809615
119	0x3e286db3	0.16448097
120	0xbc5f0bab	-0.013613622
121	0x3e33a45e	0.1754317
122	0x3c721d2f	0.014777466
123	0x3e042c83	0.12907605
124	0x3dd93e60	0.106076
125	0x3d5cc587	0.053899314
126	0x3d818173	0.063235186
127	0x3d1eb104	0.038743034
128	0x3de8ad30	0.11361158
129	0x3e12fd78	0.14354503
130	0x3e58c3bd	0.21168418
131	0xbcbc2dd9	-0.02297108
132	0x3ddf55f8	0.10905069
133	0xbe10f192	-0.14154652
134	0x3e42f290	0.19037843
135	0x3e3738b9	0.17892732
136	0xbdecf160	-0.11569476
137	0x3df4546f	0.11930167
138	0x3dac6893	0.084183834
139	0xbc0ab717	-0.008466504
140	0xbcc53c1e	-0.024076518
141	0x3c5114d0	0.01276131
142	0xbd246388	-0.040133983
143	0x3e2b06c7	0.16701804
144	0x3e013aca	0.12620082
145	0x3e26e7a0	0.16299295
146	0x3d43be8c	0.04778914
147	0xbdb63814	-0.08897415
148	0xbd064b4e	-0.03278666
149	0xbdd7e3b4	-0.10541478
150	0x3e3ad982	0.18247035
151	0x3dc7c37d	0.09754083
152	0x3b6ce556	0.0036147437
153	0xbda7eb84	-0.08199218
154	0xbb0d5500	-0.0021565557
155	0x3e3b53d4	0.18293697
156	0x3e10b906	0.14133081
157	0xbdb457a6	-0.0880578
158	0x3e376c04	0.17912298
159	0x3d6163c1	0.055026773
160	0xbde3513b	-0.11099478
161	0x3e15247e	0.14564702
162	0x3e134b4a	0.14384189
163	0x3e09aa7b	0.1344394
164	0xbc10e870	-0.00884448
165	0x3d80adc9	0.06283147
166	0x3cbcfbb0	0.023069233
167	0x3c12b131	0.008953379
168	0x3e678a12	0.22611263
169	0x3e2cd16b	0.16876762
170	0x3e0de672	0.13857439
171	0x3d5f8dd7	0.05457863
172	0x3e07fe25	0.13280542
173	0xbc6e1f45	-0.014533822
174	0x3e08e049	0.13366808
175	0xbd76241f	-0.06009304
176	0x3d99a500	0.075021744
177	0xbd5c0e3e	-0.05372452
178	0x3e59cf57	0.212705
179	0x3dc24b7f	0.09487056
180	0x3e1c530f	0.1526606
181	0xbd3104a4	-0.043217316
182	0xbd9c44cc	-0.076303095
183	0x3de4c229	0.111698456
184	0x3dfd4a34	0.12367669
185	0x3e576f64	0.21038586
186	0x3e2c9e87	0.16857348
187	0x3c67fa60	0.014158815
188	0x3dc99c4c	0.098442644
189	0xbe17df96	-0.14831385
190	0x3e3900cf	0.18066715
191	0x3e301bfa	0.17198172
192	0xbde3323f	-0.11093568
193	0x3cfa2384	0.030534513
194	0x3d4b4029	0.049621735
195	0xbcbbcba7	-0.022924257
196	0x3c1e2140	0.009651482
197	0x3e539ab0	0.20664477
198	0x3a564e1c	0.00081750914
199	0x3e1041a7	0.14087544
200	0x3d37b99f	0.044854756
201	0x3e0b3676	0.13594994
202	0xbd3a1533	-0.045430373
203	0x3d46d458	0.04854235
204	0xbc8f5ff9	-0.017501818
205	0xbe1ce6c0	-0.15322399
206	0x3e1183e0	0.14210463
207	0xbd15b571	-0.03654999
208	0xbc19fe2f	-0.009398981
209	0x3de1db15	0.11028115
210	0xbd5d27b3	-0.05399294
211	0x3e5f6497	0.21815716
212	0x3a99f562	0.0011746103
213	0x3babd4c7	0.005243871
214	0xbe04f7be	-0.12985131
215	0x3e12e532	0.14345244
216	0x3e55ebbc	0.20890707
217	0xbcf1b940	-0.02950728
218	0xbc3a1250	-0.011356905
219	0xbd433164	-0.047654524
220	0xbd635591	-0.055501524
221	0x3b0a09d5	0.002106299
222	0xbe14c942	-0.14529899
223	0x3e3b14e8	0.18269694
224	0xbc8bfb27	-0.017087532
225	0x3d2136b3	0.039358806
226	0x3de41f15	0.11138741
227	0xbca875b3	-0.020563936
228	0xbd53b111	-0.051682536
229	0xbdff2983	-0.124590896
230	0x3e1024a9	0.14076485
231	0xbd43c665	-0.047796626
232	0x3e09acd6	0.13444838
233	0x3de67d2d	0.11254344
234	0x3e04c5f8	0.12966144
235	0x3e08ebcf	0.13371204
236	0xbdebc215	-0.115116276
237	0x3db08b24	0.08620289
238	0xbdf4ce2f	-0.11953389
239	0x3d213b8d	0.039363433
240	0xbdc4317f	-0.09579753
241	0xbbf47a28	-0.007460851
242	0xbada7e76	-0.0016669768
243	0x3e00527c	0.12531465
244	0xbbe70c00	-0.007050991
245	0xbd5bf51a	-0.053700544
246	0x3e0a7896	0.13522562
247	0xbe12a500	-0.14320755
248	0xbc98d0b8	-0.018654212
249	0xbdbaec27	-0.09127074
250	0x3da04ddc	0.078273505
251	0x3d2ee9da	0.042703487
252	0x3bf46be0	0.0074591488
253	0xbdc5aa9f	-0.09651684
254	0xbcf87119	-0.030327367
255	0xbd7d5984	-0.061852947

linear3.bias f4 [30]
0	0x3e386d9d	0.18010564
1	0x3e4283d3	0.189956
2	0x3e19b369	0.15009846
3	0xbd206db1	-0.03916711
4	0x3c5590a4	0.013034973
5	0xbd8760dd	-0.06610272
6	0x3dd30658	0.10303944
7	0x3e27601b	0.16345255
8	0x3d8291d1	0.063754685
9	0x3e6fad04	0.23405844
10	0xbe0d10bb	-0.13775913
11	0xbdb8f3b7	-0.0903086
12	0xbd480a6f	-0.048838075
13	0x3db03028	0.08602935
14	0x3dc42c3d	0.0957875
15	0xbc25eae1	-0.0101268
16	0x3e2fa749	0.17153658
17	0x3baa3bc4	0.005195113
18	0x3de8eb23	0.11372974
19	0xbdcafc89	-0.099114485
20	0x3d829576	0.06376164
21	0x3e2128ab	0.1573817
22	0x3ddc5e5a	0.10760184
23	0x3de9e543	0.11420681
24	0xbdbabb15	-0.09117714
25	0xbcfa1e78	-0.030532107
26	0x3e56feb1	0.20995595
27	0xbdca66a6	-0.0988286
28	0x3e2f3762	0.1711097
29	0xbd2f57a7	-0.0428082

linear4.weight f4 [30, 30]
0	0xbb92f280	-0.0044844747
1	0x3e1be580	0.15224266
2	0x3e08369a	0.13302079
3	0x3dfa9d8d	0.12237082
4	0x3aee867f	0.0018198042
5	0x3dce5ca4	0.100762635
6	0x3d3019b2	0.042993255
7	0x3d488620	0.048956037
8	0x3cd26492	0.025682721
9	0x3dca0506	0.098642394
10	0xbdeaea2b	-0.11470445
11	0x3dab0cfc	0.08352086
12	0x3e192f0a	0.1495935
13	0x3e3ea660	0.18618155
14	0x3d920ee5	0.07131747
15	0xbe190fdf	-0.1494746
16	0xbda3e0ad	-0.08001838
17	0x3dc86578	0.09784979
18	0x3d2f9d6d	0.042874742
19	0xbde6c1f5	-0.11267463
20	0x3bd04770	0.0063561723
21	0xbd8eff96	-0.06982343
22	0xbcbd6250	-0.023118168
23	0xbdf737c8	-0.12071186
24	0x3c8bdcc8	0.01707305
25	0x3d19ca4c	0.03754644
26	0x3e4f3cd9	0.20238055
27	0xbc82c441	-0.015962722
28	0xbcdf1246	-0.027230393
29	0xbd9d1268	-0.07669526
30	0xbe1da96f	-0.15396665
31	0xbdfb9a88	-0.12285334
32	0xbe07c8b4	-0.13260156
33	0xbd32b29c	-0.043627366
34	0x3d1f55b8	0.038900107
35	0x3d377004	0.04478456
36	0xbe1cbbdc	-0.15306038
37	0xbd4dbde4	-0.050229922
38	0x3d8356cc	0.064130396
39	0xbc917710	-0.017756969
40	0xbe126f92	-0.14300373
41	0xbe385767	-0.18002091
42	0xbe1bd6ec	-0.15218705
43	0xbce358f0	-0.02775237
44	0xbd9d7486	-0.07688241
45	0xbd6fb80c	-0.05852513
46	0xbd114090	-0.035461962
47	0x3e2283a4	0.1587053
48	0x3d399838	0.045311183
49	0xbe257fd1	-0.1616204
50	0x3d65e9fc	0.056131348
51	0x3e0e254b	0.13881414
52	0x3c182eb0	0.009288475
53	0xbc347980	-0.011015296
54	0xbe1a00ec	-0.15039414
55	0xbda5034c	-0.080572695
56	0x3d016e58	0.031599373
57	0xbe041d49	-0.12901796
58	0xbc4a2990	-0.012339011
59	0xbe069774	-0.13143712
60	0x3e1037a4	0.14083725
61	0x3e1707ae	0.14749023
62	0xbdaad618	-0.083416164
63	0xbe00e622	-0.12587789
64	0xbd7a3ada	-0.06109128
65	0xbca84f30	-0.020545572
66	0xbe1e7341	-0.15473653
67	0xbc9a3890	-0.0188258
68	0xba0f2300	-0.00054602325
69	0xbe2bcf78	-0.16778362
70	0x3d9b1538	0.075724065
71	0xbdc141d4	-0.09436384
72	0xbda6728b	-0.08127316
73	0xbc51a190	-0.012794867
74	0xbe351b5a	-0.17686215
75	0x3dc0d860	0.0941627
76	0x3c72009a	0.014770651
77	0xbd13e3ac	-0.036105797
78	0xbd016804	-0.031593338
79	0xbdcc09de	-0.099628195
80	0xbe1b29d1	-0.1515267
81	0xbe303cf6	-0.17210755
82	0xbde519f6	-0.11186592
83	0xbdeb9cfa	-0.1150455
84	0x3e0f277f	0.1397991
85	0x3dcebc50	0.100945115
86	0x3e21d4b4	0.15803796
87	0x3e0e3dec	0.13890809
88	0x3d189644	0.03725268
89	0xbe27cedc	-0.16387504
90	0x3d507974	0.050897077
91	0xbda88c97	-0.082299404
92	0x3da56c68	0.080773175
93	0x3d3ea40c	0.046543166
94	0xbd8c1177	-0.06839269
95	0x3d865114	0.06558433
96	0x3d965d0c	0.07341966
97	0x3df15eb0	0.11785638
98	0x3e077548	0.13228333
99	0xbe1766f7	-0.14785372
100	0x3c0113a0	0.007878214
101	0x3d333358	0.043750137
102	0xbd3ab4ba	-0.04558251
103	0xbcd2d968	-0.025738433
104	0xbdecda5f	-0.115650885
105	0x3e22b2fa	0.15888587
106	0xbde275e0	-0.11057639
107	0x3ceb6230	0.028733343
108	0x3e002de4	0.12517506
109	0xbd89d2f1	-0.06729687
110	0xbba6c260	-0.0050890893
111	0xbd9f5791	-0.07780374
112	0xbe371d35	-0.17882235
113	0xbddf9f20	-0.109190226
114	0x3e2f2a09	0.17105879
115	0x3e1e3514	0.15449935
116	0xbe244d09	-0.16045012
117	0x3df3280c	0.11872873
118	0x39cd2a00	0.0003913194
119	0x3de42c5d	0.11141274
120	0x3d905a2c	0.07048449
121	0x3cb41cb7	0.021986349
122	0x3e4bd026	0.19903621
123	0x3e392251	0.18079497
124	0x3e538922	0.20657781
125	0x3e004abf	0.12528513
126	0x3e14167e	0.14461705
127	0x3d441fa8	0.047881752
128	0xbcced3ca	-0.025247473
129	0x3d9be7c4	0.07612565
130	0x3e1c63fa	0.15272513
131	0x3e2dd7aa	0.169768
132	0x3e1d61f2	0.15369394
133	0x3db4a6b3	0.08820858
134	0x3d673b65	0.056453127
135	0x3cd5e394	0.026109494
136	0x3d4fb7c9	0.05071238
137	0x3e3aa2e3	0.18226199
138	0xbbb4fddd	-0.005523427
139	0x3d137946	0.036004327
140	0x3e089b69	0.13340534
141	0x3e6966c5	0.2279311
142	0x3dd8b0c9	0.10580594
143	0x3e326cb0	0.17424273
144	0x3dc730f3	0.09726133
145	0x3df3bd86	0.11901383
146	0x3db02a4c	0.086018175
147	0x3e454f81	0.1926861
148	0xbd3198c2	-0.04335857
149	0xbc9ead05	-0.019369612
150	0xbd8693c3	-0.06571152
151	0x3de81f5d	0.11334107
152	0x3e1f98be	0.1558561
153	0x3dd73916	0.10508935
154	0x3d886d8c	0.066615194
155	0x3e20a9f1	0.15689828
156	0x3e08805f	0.1333022
157	0x3e29e262	0.16590264
158	0xbcf6fd1f	-0.030149994
159	0xbd90cce5	-0.070703305
160	0xbe02d32c	-0.12775868
161	0x3a89ce80	0.0010513812
162	0x3e5a36ab	0.21309917
163	0x3e6ead30	0.23308253
164	0xbcb88620	-0.022524893
165	0xbe1fe50d	-0.1561472
166	0x3dff81e6	0.12475948
167	0x3cf9e42d	0.03050431
168	0x3df52984	0.11970809
169	0xbde10af1	-0.10988415
170	0xbda5e1de	-0.08099721
171	0xbd4aaa11	-0.049478594
172	0x3e683027	0.22674619
173	0x3e28a34a	0.1646854
174	0x3cf10825	0.029422829
175	0xbc95bcc8	-0.018278494
176	0xbd3484f8	-0.04407212
177	0xbb97e3cf	-0.004635311
178	0x3d128d79	0.03577945
179	0x3cf93352	0.03041998
180	0x3e0d9c73	0.13829212
181	0x3e1aaccc	0.1510498
182	0xbc79813d	-0.015228567
183	0x3d9cd629	0.07658035
184	0x3e466170	0.19373107
185	0x3e4314ef	0.19050954
186	0x3e3d1094	0.18463355
187	0xbe00dcb1	-0.12584187
188	0xbe08cf81	-0.13360406
189	0xbc3030ab	-0.010753791
190	0xbdc7d890	-0.09758103
191	0xbe075882	-0.13217357
192	0x3e0218ac	0.12704724
193	0x3d79c618	0.060979933
194	0x3df75bb2	0.12078036
195	0x3dd933f0	0.106056094
196	0xbe0ada8e	-0.13559934
197	0x3e265cf7	0.16246401
198	0x3e370e18	0.1787647
199	0x3e115517	0.14192615
200	0x3cf6f781	0.030147316
201	0xbd148741	-0.0362618
202	0x3d91fdd3	0.07128491
203	0x3ce322f9	0.027726637
204	0xbd656bc0	-0.05601096
205	0xbce22665	-0.027606199
206	0xbce3c344	-0.02780307
207	0xbdfac7cd	-0.1224514
208	0x3da966ab	0.082715355
209	0xbd3f7972	-0.04674668
210	0xbd47a3a1	-0.048740033
211	0xbbeb5c72	-0.007182651
212	0x3e4fb757	0.20284782
213	0x3c61b50a	0.013776073
214	0xbbe71bbf	-0.007052868
215	0x3e05754d	0.13033028
216	0xbd0adffc	-0.033905014
217	0x3e0d9b4a	0.1382877
218	0x3ceb0881	0.028690578
219	0x3dd60c14	0.104515225
220	0xbddf3f2c	-0.10900721
221	0x3d81e766	0.06342964
222	0x3da7eb4a	0.08199175
223	0xbdec07f2	-0.11524953
224	0x3def3dda	0.11681719
225	0xbe28870f	-0.16457771
226	0x3e32cf1c	0.17461818
227	0xbdf5c9db	-0.120013915
228	0x3e1967dc	0.14981025
229	0xbd5048d1	-0.050850693
230	0xbdc7377d	-0.097273804
231	0x3d1a6f01	0.037703518
232	0x3dd3ec64	0.10347822
233	0x3d477f78	0.048705548
234	0xbbce646a	-0.0062985914
235	0xbda87270	-0.08224952
236	0xbd909331	-0.070593245
237	0x3d8492c9	0.064733095
238	0x3e800ecb	0.25011286
239	0x3d847bf5	0.064689554
240	0x3e215203	0.15753941
241	0x3dd1b8b7	0.1024031
242	0xbc8539a1	-0.016262831
243	0x3e486ce7	0.19572793
244	0xbd24cd8b	-0.040235084
245	0x3e4bb834	0.19894487
246	0x3e510660	0.20412588
247	0x3dcb233c	0.0991883
248	0xbe06ff16	-0.13183245
249	0xbde21ad7	-0.110402755
250	0x3daeda30	0.0853771
251	0xbd2f3008	-0.042770416
252	0xbc4848dd	-0.012224403
253	0xbd8c8cd2	-0.06862797
254	0x3ce8e360	0.028428733
255	0xbe221f07	-0.15832148

linear4.bias f4 [30]
0	0x3e3da81f	0.18521164
1	0xbda6ad7e	-0.0813856
2	0xbd93b40d	-0.07212076
3	0xbe185804	-0.14877325
4	0xbc31f004	-0.010860447
5	0x3e18db85	0.1492749
6	0x3ddd90ac	0.108186096
7	0x3e2bbaf6	0.16770539
8	0x3e04d9c7	0.129737
9	0xbd9c69b6	-0.0763735
10	0x3e0411a9	0.12897362
11	0xbde79c57	-0.11309116
12	0xbcec9a1b	-0.028882077
13	0x3dd69560	0.1047771
14	0x3e60980b	0.21933
15	0xbd9e8b0a	-0.07741363
16	0xbe026a44	-0.1273585
17	0xbd7c4f6c	-0.06159918
18	0x3d98142e	0.07425724
19	0xbe069d02	-0.13145831
20	0xbd5b48a9	-0.05353609
21	0x3e63347f	0.22187994
22	0x3dd7d0c0	0.10537863
23	0xbd6fa6d6	-0.058508717
24	0xbdc12266	-0.09430389
25	0x3d1fb78c	0.038993403
26	0x3e04f69a	0.12984696
27	0x3e596bf0	0.21232581
28	0x3def2ff5	0.11679069
29	0x3e6e29f4	0.23258191

linear5.weight f4 [6, 30]
0	0xbbe60c95	-0.007020543
1	0x3b2de22c	0.0026532514
2	0x3a9f23d0	0.001214141
3	0xbb0c1026	-0.002137193
4	0xbc348d4c	-0.011020016
5	0xbbf707be	-0.0075387647
6	0xbc34babd	-0.01103085
7	0x3cc7a993	0.024372851
8	0xbc3449f7	-0.011003963
9	0x3c1ee550	0.009698227
10	0xbc143483	-0.009045723
11	0xbc519749	-0.012792417
12	0xbc056d0a	-0.008143673
13	0xbc5298b6	-0.012853792
14	0x3c56e5ff	0.013116359
15	0xba86989c	-0.001026887
16	0xbcc9a65b	-0.024615457
17	0x3af8cb01	0.0018981398
18	0xbc666364	-0.0140617825
19	0xbcc406bd	-0.023928994
20	0xbc783211	-0.0151486555
21	0xbbf7a442	-0.007557423
22	0xbc0340b9	-0.008011037
23	0xbcedc1a9	-0.029023008
24	0xbc95f11b	-0.018303445
25	0xbc3c62aa	-0.011498133
26	0xbbced051	-0.0063114543
27	0xbbc37dd7	-0.005965929
28	0xbc9097be	-0.017650481
29	0x3c69f3ed	0.014279348
30	0xbcdacb39	-0.026708232
31	0x3b202180	0.002443403
32	0xbb0e61a4	-0.0021725679
33	0x3ad1c3e0	0.001600381
34	0xbce5b2a0	-0.028039277
35	0xbcc0c54b	-0.023531577
36	0xbcc0dcdf	-0.02354282
37	0x3a4fcf38	0.00079273013
38	0xbcb13217	-0.02163033
39	0xbc1a056b	-0.009400706
40	0xbce6bce9	-0.028166251
41	0xbcdf2733	-0.027240371
42	0xbcdd47ce	-0.027011778
43	0xbcc9d120	-0.024635851
44	0x3b1f8988	0.002434345
45	0xba96ad63	-0.0011495765
46	0xbd20d0eb	-0.03926174
47	0x3af2fad6	0.001853789
48	0xbcd078f1	-0.025448294
49	0xbc47dab9	-0.012198144
50	0xbce95ea3	-0.02848751
51	0xbc1ac262	-0.009445759
52	0xbcc24674	-0.023715235
53	0xbcd9caf7	-0.026586039
54	0xbce54d71	-0.027991029
55	0xbcda00f5	-0.026611784
56	0xbcd61543	-0.026133185
57	0xbcb55a28	-0.022137716
58	0xbcc3d09e	-0.023903187
59	0xbb9f3467	-0.004858542
60	0xbd4bf632	-0.049795337
61	0x3971cad0	0.00023059105
62	0x3a5b0614	0.0008355093
63	0x3b0f0f58	0.0021829214
64	0xbd325ab3	-0.04354353
65	0xbd424fcc	-0.04743938
66	0xbd368b43	-0.044566404
67	0xbda61e93	-0.081113
68	0xbd4d9de3	-0.0501994
69	0xbd2a1e18	-0.041532606
70	0xbd5336c2	-0.051565893
71	0xbd42bab2	-0.047541328
72	0xbd43fe4f	-0.04784995
73	0xbd3c1cba	-0.045925833
74	0xbdca0a01	-0.09865189
75	0x3adafac0	0.0016706809
76	0xbd0a8f6f	-0.033828195
77	0xb9ceee4f	-0.00039468936
78	0xbd30f8a6	-0.04320588
79	0xb92a02a2	-0.00016213444
80	0xbd375fe7	-0.044769194
81	0xbd5838c9	-0.05278853
82	0xbd2f96a1	-0.04286826
83	0xbcf8edc2	-0.03038681
84	0xbd2e7e66	-0.04260101
85	0xbd2cf96f	-0.042230066
86	0xbd4eafcf	-0.050460633
87	0xbd39dc70	-0.04537624
88	0xbd394cc9	-0.045239244
89	0xbdcfce64	-0.10146788
90	0x3ab310f8	0.0013661673
91	0xbb40c98d	-0.0029417009
92	0xbb124338	-0.0022317898
93	0xbae125c1	-0.0017177389
94	0xbb741f1d	-0.003724999
95	0x3a12ac04	0.00055950903
96	0xbb6b41b4	-0.0035897316
97	0x3c3ccc67	0.011523343
98	0x3b053928	0.0020328257
99	0x3cd3c360	0.025849998
100	0x3cba990a	0.022778053
101	0xbc3cc6de	-0.011522023
102	0xbbef9333	-0.0073112487
103	0xbb9ac261	-0.004722879
104	0x3c2c71f0	0.010525212
105	0xbb1fcedd	-0.0024384775
106	0xbcbefddf	-0.023314415
107	0x3b602be0	0.003420584
108	0xbab14e8e	-0.001352744
109	0xbcaaa98a	-0.020832796
110	0xbbadbd67	-0.0053021195
111	0x3b921f4a	0.0044592964
112	0xbaa9446f	-0.0012914072
113	0xbcc82baf	-0.024434892
114	0xbcb43173	-0.021996235
115	0xbb863ac0	-0.004096359
116	0xbb5f6eb9	-0.0034093095
117	0xbb54ea9b	-0.0032488469
118	0xba912742	-0.0011074322
119	0x3c45d431	0.012074516
120	0xbd89e081	-0.06732274
121	0x3b16d438	0.0023014676
122	0xbaf7e235	-0.001891202
123	0x3af7bf10	0.0018901546
124	0xbd7feda5	-0.062482495
125	0xbda6efba	-0.08151193
126	0xbd835e42	-0.064144626
127	0xbdb17512	-0.086649075
128	0xbd832a1f	-0.06404518
129	0xbd35d6b5	-0.044394214
130	0xbd7b75f9	-0.061391804
131	0xbd7be976	-0.061501943
132	0xbd8217d6	-0.063522026
133	0xbd83a98a	-0.064288214
134	0xbdb03bb0	-0.086051345
135	0x3b1d66de	0.0024017612
136	0xbd0f457d	-0.03497838
137	0x3a1bbe58	0.0005941144
138	0xbd81e2f6	-0.063421175
139	0x3bbe2b47	0.005803499
140	0xbd81af90	-0.06332314
141	0xbd89c92b	-0.06727823
142	0xbd89f51d	-0.06736205
143	0xbce89225	-0.02839
144	0xbd2b6a1f	-0.04184925
145	0xbd7abbc0	-0.06121421
146	0xbd85e170	-0.065371394
147	0xbd8a41f6	-0.06750862
148	0xbd827630	-0.06370199
149	0xbdb87660	-0.09006953
150	0xbc9c5397	-0.019082827
151	0x3a431c1c	0.00074428483
152	0xba12d1b0	-0.0005600704
153	0x38facda0	0.000119592296
154	0xbc9e4bb9	-0.019323217
155	0xbd561c3e	-0.052273028
156	0xbc9082fc	-0.017640583
157	0xbd68d367	-0.056842234
158	0xbcadbc34	-0.021207906
159	0xbd06c9d8	-0.032907337
160	0xbca46977	-0.02006982
161	0xbc8e5621	-0.017375054
162	0xbc71fb2e	-0.014769359
163	0xbc9f7fef	-0.019470183
164	0xbd6d93c2	-0.05800224
165	0xbb1dfd9f	-0.0024107469
166	0xbbf6ed61	-0.007535622
167	0xba92cdbc	-0.001120023
168	0xbc9aea61	-0.018910589
169	0x3bd6948e	0.006548471
170	0xbc96b1da	-0.018395353
171	0xbd3067f6	-0.043067895
172	0xbcae1755	-0.02125136
173	0xbbb4da69	-0.0055192006
174	0xbc49939c	-0.012303259
175	0xbc80e4c2	-0.01573408
176	0xbca7149f	-0.020395575
177	0xbcba1967	-0.02271719
178	0xbcc86cb4	-0.024465896
179	0xbd613763	-0.05498446

linear5.bias f4 [6]
0	0x3cbf082a	0.023319323
1	0xbb2f5b45	-0.0026757282
2	0xbda10793	-0.07862773
3	0x3ccfa40b	0.025346776
4	0xbd9a359b	-0.07529756
5	0xbcd2ca26	-0.025731158
