基于ABM的智能化经济模拟平台/ambs/company_buffer/target_critic_checkpoint.pth (torch, 16959 bytes, 9 tensors)

linear1.weight f4 [30, 18]
0	0xbf30357b	-0.68831605
1	0xbeeac519	-0.458535
2	0xbf59a6ca	-0.85020125
3	0xbdf2ac20	-0.118492365
4	0x3f24284e	0.64124
5	0x3f315196	0.69265115
6	0x3efa71cc	0.48914945
7	0xbf402252	-0.7505237
8	0xbe2dbf02	-0.16967395
9	0xbec80d58	-0.3907268
10	0xbe63a75d	-0.22231813
11	0x3f48283a	0.7818638
12	0xbe2b07f1	-0.16702248
13	0xbe239843	-0.15976052
14	0x3dbed29b	0.093175136
15	0x3e868059	0.26269796
16	0xbe44ac46	-0.19206342
17	0xbe5b1472	-0.21394518
18	0x3f876cea	1.0580113
19	0x3e84a6d5	0.25908533
20	0x3f7aec10	0.9801645
21	0xbddb4dd3	-0.10708203
22	0xbf92ee7a	-1.1479027
23	0xbee46664	-0.44609368
24	0xbee44129	-0.44580963
25	0x3f69b9a3	0.91298884
26	0x3e3f3d79	0.18675794
27	0x3eec3844	0.46136677
28	0x3ec72529	0.38895538
29	0xbf7c0aec	-0.98454165
30	0xbe36ff9a	-0.17870942
31	0xbe2f5ab0	-0.17124438
32	0x3d88ba1b	0.06676122
33	0xbe99427a	-0.2993353
34	0x3d2b649e	0.041844003
35	0x3e2fe837	0.17178427
36	0x3eb9e4d3	0.36307392
37	0x3d8dc4e2	0.06922318
38	0x3ecebb9d	0.40377513
39	0xbe510312	-0.20411327
40	0xbebd2b8f	-0.36947295
41	0xbf164584	-0.5869982
42	0xbe243ca8	-0.16038764
43	0x3f36d1ca	0.7141386
44	0xbdea6012	-0.11444105
45	0x3f10e63e	0.5660132
46	0x3eab6803	0.33477792
47	0xbf04bc3b	-0.51849717
48	0xbdb9670c	-0.09052858
49	0x3e64fc95	0.22361977
50	0x3d9c2c8d	0.07625685
51	0xbe6192cd	-0.22028656
52	0xbd133016	-0.03593453
53	0xbdd52acb	-0.10408553
54	0xbf6e690e	-0.9312905
55	0xbcd074ab	-0.025446257
56	0xbf55e89f	-0.83558077
57	0xbe54a669	-0.20766605
58	0x3f289ca0	0.6586399
59	0x3ee09f4c	0.43871534
60	0x3eba1d9d	0.36350718
61	0xbf096056	-0.5366262
62	0xbe847dab	-0.25877127
63	0xbf434793	-0.7628109
64	0xbe8d812c	-0.27637613
65	0x3f21e003	0.6323244
66	0xbc05e35e	-0.008171884
67	0xbe4b8591	-0.1987517
68	0x3e5ad579	0.21370496
69	0x3e8983d3	0.26858386
70	0xbdab11ff	-0.08353042
71	0xbdbb5d22	-0.09148623
72	0xbebd7700	-0.37004852
73	0x3e5b62d0	0.21424413
74	0xbe48499e	-0.19559333
75	0x3dd8c274	0.10583964
76	0x3f95e309	1.1709911
77	0x3eaca125	0.33716694
78	0x3eb902df	0.36135003
79	0xbef63c58	-0.48092914
80	0xbc5d1f13	-0.013496178
81	0xbefa843b	-0.4892901
82	0x3d8b2848	0.067947924
83	0x3f8f0a68	1.1175051
84	0x3e8946d1	0.2681184
85	0x3e994bf1	0.2994075
86	0xbd95bdbb	-0.07311579
87	0x3eba50cc	0.36389768
88	0xbd1c9d3f	-0.0382359
89	0xbc3ffb03	-0.011717561
90	0xbe6ada40	-0.22934818
91	0x3ced9606	0.0290022
92	0xbe94ea9f	-0.29085252
93	0xbdace454	-0.08441988
94	0x3f88cf21	1.0688211
95	0x3e9caf36	0.30602425
96	0x3e525af1	0.20542504
97	0xbecad275	-0.3961369
98	0x3e09c6d4	0.13454753
99	0xbef7a109	-0.48365048
100	0x3ec60610	0.386765
101	0x3f6aea6c	0.9176395
102	0x3e7f96c3	0.24959855
103	0x3e9ab00c	0.30212438
104	0xbe7c2921	-0.24625064
105	0x3da4131b	0.080114566
106	0x3c086edd	0.008327213
107	0xbde61f0b	-0.1123639
108	0x3f5d0437	0.86334556
109	0x3e4e3614	0.20137817
110	0x3f86e960	1.053997
111	0x3dba8ed7	0.09109276
112	0xbf340a38	-0.7032809
113	0xbf3caba4	-0.736994
114	0xbe65fcb7	-0.22459684
115	0x3f8076ac	1.0036216
116	0x3d5edb33	0.054408263
117	0x3f3ededb	0.745588
118	0x3e615873	0.22006397
119	0xbf74708d	-0.9548424
120	0x3e423f70	0.18969512
121	0x3e378130	0.17920375
122	0xbd3e3aaa	-0.046442665
123	0xbe4f2f7e	-0.2023296
124	0xbd3828b1	-0.04496068
125	0xbe43d8a8	-0.19125617
126	0x3e3d2e9a	0.18474808
127	0x3d2423de	0.040073268
128	0x3eaf3a14	0.34223998
129	0x3e83496e	0.2564196
130	0xbf1d4c1b	-0.6144425
131	0xbe963df4	-0.2934414
132	0xbea4fefe	-0.32225794
133	0x3d33ffec	0.043945238
134	0xbd5d1884	-0.053978458
135	0x3d4fbad2	0.050715275
136	0x3ea049ea	0.31306392
137	0xbec82020	-0.3908701
138	0x3d88469f	0.06654095
139	0x3dd3720f	0.10324489
140	0x3e2e936e	0.17048427
141	0x3dc253c7	0.094886355
142	0xbe4cecf9	-0.20012273
143	0xbe5ef435	-0.21772845
144	0x3f363b02	0.7118379
145	0x3dfcdf12	0.12347235
146	0x3f1d1410	0.6135874
147	0x3e2fa02e	0.17150947
148	0xbf444c1c	-0.76678634
149	0xbebb9c50	-0.36642694
150	0xbed13b7d	-0.40865698
151	0x3e572259	0.21009196
152	0x3e166b90	0.1468947
153	0x3eaf976e	0.3429522
154	0xbe07230a	-0.1319696
155	0xbf757191	-0.95876414
156	0x3df4bf59	0.11950559
157	0x3c8647a5	0.016391585
158	0x3e5b01bd	0.21387382
159	0xbe0ce075	-0.13757499
160	0xbd81b167	-0.06332665
161	0xbd8b1a96	-0.0679218
162	0x3c30c3db	0.010788883
163	0xbc98cdf3	-0.018652892
164	0x3da35005	0.07974247
165	0xbe7c6c52	-0.24650696
166	0x3ce086a3	0.02740795
167	0x3dc796fb	0.09745594
168	0x3da2bf53	0.079466484
169	0xbc22247c	-0.009896394
170	0xbe5c03f0	-0.21485877
171	0xbb98619f	-0.004650309
172	0x3e3f9e5e	0.18712756
173	0x3d46316d	0.04838698
174	0xbd522978	-0.05130908
175	0xbe8589a3	-0.2608157
176	0xbb8a153c	-0.004213957
177	0x3e322af6	0.17399201
178	0xbe1c78a3	-0.15280394
179	0xbe257253	-0.16156892
180	0x3de0a929	0.10969765
181	0x3dd4b370	0.103857875
182	0x3dd52f10	0.10409367
183	0xbea1c386	-0.31594485
184	0xbd137fca	-0.03601054
185	0xbe3bcb44	-0.18339258
186	0xbf01b3e2	-0.50665104
187	0xbe2f3a3e	-0.17112061
188	0xbe97e9b4	-0.2967049
189	0x3e40c8db	0.1882662
190	0xbd453935	-0.04815026
191	0x3e1fd6fd	0.15609355
192	0xbe8fd5fc	-0.28092945
193	0xbec58b35	-0.3858277
194	0x3e1c0124	0.1523481
195	0xbdc1a6bb	-0.094556294
196	0x3d99acb5	0.075036444
197	0x3b4cb9b0	0.0031238608
198	0x3f7e45a6	0.99325025
199	0x3e544526	0.20729503
200	0x3f6bcc64	0.9210875
201	0x3ebb1dd8	0.36546206
202	0xbf8f00e8	-1.1172152
203	0xbf390999	-0.7228027
204	0xbea4e8f0	-0.32208967
205	0x3f89c8e3	1.0764431
206	0x3e59580f	0.21224998
207	0x3f77da23	0.96817225
208	0x3ef7a1e1	0.4836569
209	0xbf8bd6b8	-1.0924902
210	0xbc0279de	-0.007963626
211	0x3e59ffd8	0.21289003
212	0xbddaca50	-0.10683119
213	0xbc78840a	-0.015168199
214	0x3e541d14	0.20714217
215	0x3e3c3793	0.18380575
216	0x3f84929f	1.0357245
217	0x3f1a0305	0.6016086
218	0x3f96d698	1.1784239
219	0x3eb00075	0.3437535
220	0xbf6bd945	-0.921284
221	0xbf3afc2e	-0.73041046
222	0xbf1d079c	-0.61339736
223	0x3f501dd4	0.81295514
224	0x3de1394e	0.10997258
225	0x3f48d638	0.7845187
226	0x3e950eb7	0.2911279
227	0xbf84f489	-1.0387126
228	0x3da8f646	0.08250098
229	0x3ddd09d7	0.107928924
230	0x3e006e50	0.12542081
231	0xbd8abe32	-0.06774558
232	0x3e436c53	0.19084291
233	0xbd796715	-0.060889322
234	0x3f96194e	1.1726472
235	0x3e384aff	0.17997359
236	0x3f712e97	0.94211715
237	0xbdaa30c4	-0.083100826
238	0xbf52f728	-0.8240838
239	0xbf4dcd44	-0.80391335
240	0xbf0526a5	-0.5201209
241	0x3f788ff4	0.97094655
242	0x3d8ad18d	0.0677825
243	0x3f6bab9c	0.9205873
244	0x3eed174b	0.46306834
245	0xbf9c30f5	-1.220244
246	0x3de06fbd	0.109588124
247	0xbe62d2e9	-0.22150768
248	0x3df12a7f	0.117756836
249	0xbe7b8f8d	-0.24566479
250	0x3e56fc38	0.20994651
251	0x3e6b8343	0.22999291
252	0x3f23ac48	0.63934755
253	0x3e4eb7fd	0.20187373
254	0x3f3dc5b9	0.74129826
255	0x3e7bf84e	0.2460644

linear1.bias f4 [30]
0	0xbed649f7	-0.41853306
1	0x3e21cf23	0.15801673
2	0x3ed27ec6	0.41112345
3	0xbe819ea8	-0.25316358
4	0x3e2874e0	0.16450834
5	0x3da2db73	0.07952013
6	0x3e9378d6	0.28803128
7	0x3e566f7a	0.20940962
8	0x3ed33e66	0.41258544
9	0xbdebc73a	-0.11512609
10	0x3ca1bf0e	0.019744422
11	0x3e2af33c	0.16694349
12	0x3e8b7487	0.2723734
13	0x3eed99fb	0.4640654
14	0x3e9b4b65	0.3033096
15	0x3f09962a	0.5374476
16	0xbd1c3f11	-0.038146082
17	0x3ead5c04	0.33859265
18	0xbce87b25	-0.028379032
19	0xbd3ab593	-0.04558332
20	0xbc163388	-0.009167559
21	0xbe1ef326	-0.15522441
22	0x3e747e48	0.23876297
23	0x3d8a377c	0.06748864
24	0xbdeab537	-0.11460345
25	0x3e91811a	0.2841881
26	0x3ec2f8df	0.380805
27	0xbd2f6ab2	-0.042826362
28	0x3d780d04	0.060559288
29	0xbe6d4eb9	-0.23174562

linear2.weight f4 [30, 30]
0	0x3ca36c5c	0.01994913
1	0xbc471b9e	-0.012152581
2	0xbdaa9490	-0.08329117
3	0xbc883e47	-0.016631259
4	0xbdb13ebd	-0.086545445
5	0xbdbe03d2	-0.092780724
6	0x3e1560ff	0.14587782
7	0x3cad6c6c	0.021169864
8	0x3d1e448b	0.038639586
9	0x3d8dbb30	0.06920469
10	0x3e16b97d	0.14719196
11	0xbe1366e2	-0.14394715
12	0xbe0c4edc	-0.13701957
13	0xbe3882f1	-0.180187
14	0xbdadc1ca	-0.08484228
15	0xbc88f318	-0.016717479
16	0x3deb65e4	0.114940435
17	0xbe06eb1f	-0.13175629
18	0x3c53dc94	0.012931008
19	0xbe3c35d7	-0.18379913
20	0x3e23f6bc	0.1601209
21	0xbe2db334	-0.16962892
22	0xbdd169f2	-0.102252856
23	0x3e1efb40	0.15525532
24	0xbb644a0d	-0.0034834177
25	0x3dda0339	0.10645146
26	0xbd32ede0	-0.043683887
27	0xbcd54e38	-0.026038274
28	0xbca159d8	-0.019696161
29	0x3e03a373	0.1285532
30	0xbe586bfb	-0.21134941
31	0xbe197bfd	-0.14988704
32	0xbd8404c7	-0.06446224
33	0xbe915c09	-0.2839053
34	0xbe2b6a95	-0.16739877
35	0xbdf70d05	-0.1206303
36	0xbd6d1e88	-0.057890445
37	0xbe0a8283	-0.13526349
38	0xbe72be37	-0.23705374
39	0xbdf59c33	-0.11992683
40	0x3d9830f2	0.074312106
41	0xbd846b6b	-0.06465801
42	0x3cde5951	0.027142199
43	0x3c805dea	0.015669782
44	0xbe6d3e13	-0.2316821
45	0x3d70ecec	0.058819696
46	0x3cfbee9b	0.030753424
47	0x3d73d99e	0.059533708
48	0xbeb62e4a	-0.3558219
49	0xbe4708b7	-0.19436918
50	0x3c6463c8	0.013939805
51	0xbdd54c9c	-0.10415003
52	0xbd1f587b	-0.03890274
53	0xbca2cc19	-0.019872712
54	0xbe747939	-0.23874368
55	0xbdc22fe3	-0.0948179
56	0x3c495f7e	0.0122908335
57	0x3c54eecf	0.0129963895
58	0xbe85ae54	-0.26109564
59	0xbe7093a4	-0.2349382
60	0x3e02c63e	0.12770936
61	0xbd5d75f4	-0.054067567
62	0xbdf349f5	-0.118793406
63	0x3cd8c0da	0.026459146
64	0xbe12a06d	-0.1431901
65	0x3da065a0	0.078318834
66	0xbe404c1a	-0.1877903
67	0xbdcf26c8	-0.10114819
68	0x3cf2673c	0.029590242
69	0x3d5edbd0	0.05440885
70	0xbe284bf1	-0.1643522
71	0xbe11a320	-0.14222383
72	0xbc9c86a6	-0.019107174
73	0xbc258efb	-0.01010489
74	0x3def2b2b	0.116781555
75	0xbe1ed9ec	-0.15512818
76	0xbd1aae7c	-0.037764058
77	0xbdff13f3	-0.12454977
78	0x3dbc1c68	0.091851056
79	0xbe05aa7d	-0.13053317
80	0xbd8398ee	-0.064256534
81	0x3d91b5cc	0.07114753
82	0x3c085d9a	0.008323098
83	0x3d7030b8	0.05864021
84	0x3de7f69e	0.11326335
85	0xbc863040	-0.01638043
86	0x3d3d3436	0.04619237
87	0x3c877c38	0.016538724
88	0x3cd7ec78	0.026357874
89	0xbd14d450	-0.03633529
90	0x3e1bd7f0	0.15219092
91	0xbcd02eb8	-0.025412902
92	0xbc163ed0	-0.009170249
93	0xbd6ac7d4	-0.057319477
94	0xbd4381ac	-0.047731087
95	0xbd6851c4	-0.056718603
96	0xbe162a7c	-0.14664644
97	0x3c177950	0.009245232
98	0x3c945098	0.018104836
99	0x3db3d514	0.08780876
100	0xbca49ea0	-0.02009517
101	0xbb662dc0	-0.0035122484
102	0xbd6e61a5	-0.05819859
103	0xbd103424	-0.035205975
104	0xbdfefce6	-0.1245058
105	0x3cdbab04	0.026814945
106	0x3e11b534	0.1422928
107	0x3d680eb0	0.056654632
108	0xbc54cc08	-0.012988098
109	0xbd3d9766	-0.046286963
110	0x3d9ef95c	0.07762405
111	0xbc945808	-0.018108383
112	0xbe1ebf83	-0.15502743
113	0x3d1ab304	0.03776838
114	0xbd7eb01e	-0.062179677
115	0xbc879060	-0.016548336
116	0xbdd66ca1	-0.10469938
117	0xbd4de280	-0.050264835
118	0x3d9ec0e8	0.07751638
119	0x3e23bea0	0.15990686
120	0xbd371ea8	-0.04470697
121	0xbcc0a843	-0.023517733
122	0x3deea318	0.116522014
123	0xbe235b7e	-0.1595287
124	0xbed471d5	-0.41493097
125	0xbe0e260e	-0.13881704
126	0x3da64f1f	0.0812056
127	0xbdf100d8	-0.11767739
128	0x3dcc326c	0.09970555
129	0xbd9533a8	-0.07285243
130	0xbe2380e8	-0.15967143
131	0xbd2c2657	-0.04202875
132	0xbe50c1d4	-0.2038644
133	0x3d3f3976	0.04668566
134	0x3c9c61b3	0.019089555
135	0x3da6b63b	0.081402265
136	0x3d498a48	0.04920414
137	0x3dd152b7	0.10220855
138	0xbe980c58	-0.29696918
139	0xbe0f25a4	-0.13979203
140	0xbd0d74f5	-0.034535367
141	0xbe95d94d	-0.2926735
142	0x3d83160a	0.06400688
143	0x3d6671f3	0.056261014
144	0xbc858f08	-0.016303554
145	0x3d734ebe	0.059401266
146	0xbda6c29d	-0.08142588
147	0xbdec20fa	-0.11529727
148	0xbd0ae1ce	-0.03390675
149	0xbe485ad1	-0.19565894
150	0xbd7f8944	-0.062386766
151	0xbcb3e48f	-0.021959571
152	0xbdb7b5ce	-0.08970223
153	0xbde3538f	-0.11099922
154	0xbcf1e4c5	-0.029528031
155	0xbe823de8	-0.25437856
156	0x3da9b47a	0.08286376
157	0xbc9ebcff	-0.01937723
158	0xbe1ce022	-0.15319875
159	0xbdf7c249	-0.12097604
160	0x3dcb3fbb	0.09924265
161	0x3d94517a	0.07242103
162	0xbc5f7344	-0.013638321
163	0x3e413c14	0.18870574
164	0xbc987f72	-0.018615458
165	0x3e5efd6c	0.2177636
166	0xbcf330e1	-0.029686393
167	0x3e38d75e	0.18050906
168	0xbec6ecf8	-0.38852668
169	0xbe6fe453	-0.23426943
170	0xbe68dd40	-0.2274065
171	0xbecf0f14	-0.4044119
172	0x3e12205d	0.14270158
173	0xbd6f76ed	-0.058463026
174	0xbe7fb923	-0.24972968
175	0xbe98a8c9	-0.29816273
176	0x3e7aad63	0.24480204
177	0xbe874f49	-0.26427677
178	0xbe6b3738	-0.22970283
179	0xbe9b5684	-0.30339444
180	0x3d8cedee	0.06881319
181	0x3e06023e	0.13086793
182	0xbe3a5f27	-0.1820036
183	0xbd87161d	-0.06596015
184	0x3ea44a21	0.32087806
185	0x3e82cc7d	0.25546637
186	0xbd79bfd0	-0.060973942
187	0x3e33ee92	0.17571476
188	0xbdbc5a02	-0.09196855
189	0xbd95dd9a	-0.07317658
190	0x3e1482f0	0.14503074
191	0xbb3577c3	-0.0027689792
192	0xbe12bc30	-0.143296
193	0xbcd39c0f	-0.02583125
194	0xbd8facdb	-0.070153914
195	0xbd18bb5e	-0.037288062
196	0x3dade6e2	0.08491303
197	0x3d4d2e29	0.05009285
198	0x3e9a4b57	0.30135605
199	0x3e2c94d0	0.16853642
200	0xbe0f6844	-0.14004618
201	0x3ea62696	0.32451314
202	0xbe4ac0a9	-0.19800057
203	0x3d835bc4	0.06413987
204	0x3d6ccf3b	0.057814818
205	0x3e1fec77	0.15617548
206	0xbc3154bb	-0.010823424
207	0xbc3cf86d	-0.011533839
208	0x3e4fbaf6	0.20286164
209	0x3dcb8aa7	0.09938555
210	0xbcad3413	-0.021142995
211	0x3e0f6adb	0.14005606
212	0xbdf64110	-0.120241284
213	0x3d6aa184	0.05728294
214	0xbe7c2665	-0.24624021
215	0xbe91d381	-0.28481677
216	0x3df58563	0.11988332
217	0x3d1f3095	0.03886469
218	0x3de42688	0.11140162
219	0xbe02e14d	-0.12781258
220	0x3df74b8c	0.12074956
221	0x3b827238	0.003980901
222	0x3e291636	0.16512379
223	0x3d5122c6	0.051058553
224	0x3da9c824	0.08290127
225	0x3e0b2993	0.13590078
226	0xbe041d6e	-0.12901852
227	0xbe1a2f5c	-0.15057129
228	0xbeecf14d	-0.46277848
229	0xbe4f1f13	-0.20226698
230	0xbc321566	-0.01086936
231	0xbe11d6c2	-0.1424208
232	0x3e4e2660	0.20131826
233	0x3bf7463d	0.007546215
234	0xbe51a334	-0.20472413
235	0x3e365e60	0.17809439
236	0x3e403746	0.18771085
237	0x3e1bbf37	0.15209661
238	0xbe00ad60	-0.12566137
239	0xbea68601	-0.32524112
240	0xbd024d24	-0.03181185
241	0xbe23467e	-0.1594486
242	0x3cd7f787	0.026363147
243	0x3d571179	0.052506898
244	0xbd5896c1	-0.052878145
245	0xbaf5d874	-0.0018756525
246	0xbdf9221e	-0.121647105
247	0x3cfd28d6	0.030903261
248	0x3dc6badc	0.09703609
249	0x3de529ca	0.11189611
250	0xbe7b585b	-0.24545424
251	0x3cf6befa	0.030120362
252	0xbdf3fa2f	-0.11912953
253	0x3cb91dba	0.022597183
254	0xbe6eae54	-0.23308688
255	0xbc8654da	-0.016397882

linear2.bias f4 [30]
0	0xbe1bdf05	-0.15221794
1	0x3dbbcc14	0.09169784
2	0xbd817f80	-0.06323147
3	0xbe0ab3f0	-0.13545203
4	0x3e3a6f94	0.18206626
5	0x3e75ab8a	0.23991218
6	0xbea1991a	-0.3156212
7	0x3ecb99d5	0.39765802
8	0xbd73c74f	-0.059516247
9	0xbd804a67	-0.06264191
10	0x3ee3c3f9	0.44485453
11	0x3ed4bb2e	0.41549057
12	0x3e9b2431	0.3030105
13	0x3d8e8a7b	0.06960007
14	0x3de8af62	0.113615766
15	0xbd5068b6	-0.05088111
16	0x3f012a03	0.5045473
17	0x3da44e4f	0.08022749
18	0x3e607169	0.21918263
19	0x3d736de4	0.05943097
20	0xbe04926e	-0.12946483
21	0xbe27f0ea	-0.16400495
22	0x3ea0eb38	0.31429458
23	0xbdd3a7a0	-0.10334706
24	0x3e02a266	0.12757263
25	0xbdc58bd2	-0.09645809
26	0x3bd495e2	0.006487594
27	0x3f06f7d9	0.52721936
28	0xbc9ce24c	-0.019150876
29	0x3cf64762	0.030063335

linear3.weight f4 [30, 30]
0	0x3e2a7d2a	0.16649309
1	0xbe0f68cd	-0.14004822
2	0x3bc57e40	0.006027013
3	0x3e08622e	0.13318703
4	0xbdb2db60	-0.08733249
5	0xbe3d5960	-0.18491125
6	0xbd558633	-0.052129935
7	0xbe07d060	-0.13263083
8	0x3e24578c	0.16049021
9	0xbc8d3796	-0.01723842
10	0x3ca62ce8	0.020285085
11	0x3da829d2	0.082111016
12	0x3d2db6d4	0.042410687
13	0xbdb09fd1	-0.086242326
14	0x3ca8bd60	0.020598114
15	0x3dd155b9	0.102214284
16	0xbde5d4f9	-0.11222262
17	0x3bcfcd53	0.006341615
18	0xbd8f0a4b	-0.06984385
19	0xbdf40b78	-0.1191625
20	0x3d795471	0.060871545
21	0xbbf6c7a6	-0.007531124
22	0xbb79d796	-0.0038122884
23	0x3de6b352	0.112646714
24	0x3e38613e	0.18005845
25	0xbe3f8176	-0.18701729
26	0x3db4da85	0.08830742
27	0x3d5d42e8	0.054018885
28	0x3dd3efb3	0.103484534
29	0xbd4d7df6	-0.050168954
30	0x3cda3274	0.026635386
31	0xbdeba8c9	-0.115068026
32	0x3d4b1340	0.049578905
33	0xbdcc7f07	-0.09985166
34	0xbd8f9e99	-0.07012672
35	0xbdb1ac80	-0.0867548
36	0x3ddd64a2	0.1081021
37	0xbd6bde8a	-0.057585277
38	0xbe10d0b7	-0.14142118
39	0x3d8062f8	0.06268877
40	0xbd4ac9d0	-0.04950887
41	0x3dbb4c9d	0.09145472
42	0xbde5ecc1	-0.11226798
43	0x3dd00b6c	0.101584285
44	0xbe204b6d	-0.15653773
45	0x3e238f74	0.15972692
46	0xbe3d03df	-0.18458508
47	0xbc7337f0	-0.0148448795
48	0xbd812a1d	-0.063068606
49	0xbdd6a009	-0.10479743
50	0xbdaa0613	-0.0830194
51	0xbdb072ce	-0.08615647
52	0x3e0884f7	0.13331972
53	0xbe0f9aa5	-0.14023836
54	0x3dac14c0	0.08402395
55	0x3de55178	0.111971796
56	0xbe1d282e	-0.15347359
57	0xbcb29cbf	-0.021803258
58	0xbe16b95a	-0.14719144
59	0x3e3c4dc0	0.18389034
60	0xbdfaf6be	-0.122540936
61	0x3e27b38d	0.16377087
62	0x3e0405b8	0.12892807
63	0x3ded74c8	0.1159454
64	0xbd9d159c	-0.07670137
65	0xbd529c52	-0.05141861
66	0x3d9b3613	0.07578673
67	0x3d929f02	0.071592346
68	0x3d65d31f	0.056109544
69	0x3d35ff08	0.04443267
70	0x3c1c8e00	0.00955534
71	0xbccdb225	-0.02510936
72	0x3de0eed0	0.1098305
73	0x3e1b35c0	0.15157223
74	0xbdcd46ab	-0.100232445
75	0xbdc3591e	-0.09538482
76	0xbe70fc13	-0.23533659
77	0x3d663b3f	0.056208845
78	0xbe3e57bc	-0.18588156
79	0x3cc76308	0.024339214
80	0x3ca794e0	0.020456731
81	0x3d85cc60	0.06533122
82	0xbe39d620	-0.18148088
83	0xbd90ab7a	-0.070639566
84	0xbe273737	-0.16329657
85	0x3d7af49a	0.061268426
86	0xbb01917e	-0.0019770558
87	0x3de8b188	0.113619864
88	0x3df38cbc	0.11892077
89	0x3b6206a9	0.0034488833
90	0x3d12baa0	0.03582251
91	0xbd8c6d70	-0.06856811
92	0xbe0bde18	-0.13658941
93	0xbe2feed3	-0.17180948
94	0xbcb0e3b3	-0.02159295
95	0xbdc7bd1a	-0.09752865
96	0x3ddb2845	0.1070104
97	0x3ddfed52	0.10933937
98	0xbd7a8ff8	-0.061172456
99	0xbd7ab2c1	-0.06120563
100	0x3e021058	0.12701547
101	0xbe3e822f	-0.18604349
102	0xbe796060	-0.2435317
103	0x3d1ac174	0.037782148
104	0xbe31d3f0	-0.17366004
105	0x3d859760	0.06523013
106	0xbe81075c	-0.25200927
107	0x3e2dff1b	0.16991846
108	0xbd948554	-0.07251993
109	0x3e20b15c	0.15692657
110	0xbdcc8d55	-0.099878944
111	0xba426200	-0.0007415116
112	0xbd5682f5	-0.052370984
113	0xbe333d61	-0.17503883
114	0x3c440c40	0.011965811
115	0xbd98c208	-0.074588835
116	0xbdafddc8	-0.08587223
117	0xbe1d8ad5	-0.15384991
118	0x3e28ed85	0.16496857
119	0x3e1d8e22	0.1538625
120	0xbd4b9d50	-0.04971057
121	0x3dffa658	0.124828994
122	0xbbcbb3c0	-0.006216496
123	0xbe390bd8	-0.18070924
124	0x3d3a917e	0.04554891
125	0xbdf45ff7	-0.11932366
126	0xbe2acc3f	-0.16679476
127	0xbdfd4870	-0.12367332
128	0x3cbb498e	0.022862222
129	0xbd502dac	-0.050824806
130	0x3d41b6ca	0.04729346
131	0x3dcad679	0.09904189
132	0x3c060df0	0.008182034
133	0x3d83b8bc	0.0643172
134	0x3cd47744	0.025935777
135	0x3e38769c	0.18013996
136	0xbe528419	-0.20558204
137	0xbdd5049f	-0.10401272
138	0xbd505fc0	-0.050872564
139	0x3e2abf4c	0.16674536
140	0xbdaf0767	-0.08546334
141	0xbe0ca3f3	-0.13734417
142	0xbe480a13	-0.19535093
143	0xbe0614f1	-0.13093926
144	0x3dcd33e8	0.10019666
145	0xbe0d0133	-0.13769989
146	0x3b8a55f5	0.0042216727
147	0xbd8a3186	-0.06747727
148	0x3de65038	0.11245769
149	0xbcf13e30	-0.029448599
150	0x3d28d8fc	0.041222557
151	0x3e123e3e	0.14281556
152	0xbe273c22	-0.16331533
153	0xbe31d308	-0.17365658
154	0x3da4e791	0.0805198
155	0xbe1d9ab2	-0.15391043
156	0xbd853664	-0.06504515
157	0xbe5de15b	-0.21667998
158	0x3dcffe57	0.10155933
159	0xbe2298a1	-0.15878536
160	0x3d348b8b	0.04407839
161	0xbe1badb5	-0.15202983
162	0xbdd3f6f7	-0.10349839
163	0x3e164821	0.14675952
164	0xbd852b4a	-0.06502397
165	0x3c969c29	0.01838501
166	0xbb1cb5da	-0.0023912103
167	0x3bcb4846	0.006203684
168	0x3ad90df6	0.0016559947
169	0xbd896066	-0.0670784
170	0xbdb5e1ad	-0.08880935
171	0xbe10dca2	-0.14146665
172	0xbda1e112	-0.07904257
173	0x3d8b579d	0.0680382
174	0x3e377be4	0.17918354
175	0xbe31afe5	-0.17352255
176	0x3da4532f	0.080236785
177	0x3dc64d49	0.0968271
178	0xbc519a43	-0.0127931265
179	0x3d6f9888	0.058495075
180	0xbe0a5296	-0.13508067
181	0xbd30fd47	-0.043210294
182	0x3e458d6b	0.19292228
183	0xbd60e318	-0.054904073
184	0xbc49038f	-0.012268915
185	0x3d5bc690	0.05365616
186	0xbe0cd4a2	-0.13752988
187	0xbd58c04e	-0.05291777
188	0xbe20df89	-0.15710272
189	0xbd7c0cd6	-0.06153568
190	0xbc8b48d2	-0.017002497
191	0x3d0d3b66	0.034480475
192	0xbdf22c30	-0.11824834
193	0xbd89942a	-0.06717713
194	0x3e18655e	0.14882419
195	0xbe1869a4	-0.14884049
196	0x3d758951	0.05994541
197	0x3dababc7	0.08382373
198	0xbe523f02	-0.20531848
199	0x3daa8854	0.08326784
200	0x3c966a37	0.018361194
201	0x3dc69068	0.09695512
202	0x3e3307d0	0.17483449
203	0xb9900474	-0.00027469138
204	0x3d3ba391	0.045810286
205	0xbd413381	-0.04716826
206	0x3cd930a9	0.02651246
207	0x3e20a3f8	0.15687549
208	0x3de0d40b	0.10977944
209	0xbd5441bd	-0.051820505
210	0x3c849302	0.01618338
211	0xbcd031a5	-0.025414297
212	0x3c20ac42	0.009806694
213	0xbdfc95e3	-0.12333276
214	0x3d9955bd	0.074870564
215	0xbda04049	-0.078247614
216	0xbd50d677	-0.05098578
217	0x3dd91e39	0.10601468
218	0x3d9bf8dc	0.076158255
219	0x3e0d1118	0.13776052
220	0x3dd448a3	0.10365417
221	0xbe4f3dc1	-0.20238401
222	0xbd0e26ac	-0.03470485
223	0x3df4a275	0.11945049
224	0x3ca1e308	0.019761577
225	0xbe0950b3	-0.1340969
226	0x3e3d7f73	0.1850565
227	0xbd0c7c6e	-0.034298353
228	0x3e10c6bd	0.14138313
229	0x39231000	0.00015550852
230	0xbda98b37	-0.08278506
231	0x3dc9b932	0.09849776
232	0x3db9a8a0	0.09065366
233	0x3ce0a5d2	0.02742282
234	0xbd13ef7c	-0.036117062
235	0xbd2ea3cf	-0.04263669
236	0x3cbfc02e	0.023407068
237	0x3d9a6821	0.07539392
238	0xbddb3fd8	-0.107055366
239	0xbc659fd9	-0.014015161
240	0xbddeabf9	-0.10872645
241	0x3e057fa2	0.1303697
242	0x3e2440fa	0.16040412
243	0x3e2f903e	0.17144868
244	0xbd7fb1ea	-0.06242553
245	0xbe1bd15b	-0.15216582
246	0x3d7e4180	0.062074184
247	0x3cae8128	0.02130182
248	0xbdc4652a	-0.09589608
249	0xbd99d035	-0.075104155
250	0xbe3ac63c	-0.18239683
251	0x3d02f048	0.03196743
252	0x3e384bbc	0.1799764
253	0xbd990c1f	-0.07473015
254	0xbe1dd1c0	-0.15412045
255	0x3e2885a1	0.16457225

linear3.bias f4 [30]
0	0xbe2e2cd0	-0.17009282
1	0xbddf4bf3	-0.10903158
2	0x3c355db1	0.011069701
3	0x3d8e9c9c	0.069634646
4	0xbe052c78	-0.13005245
5	0xbdb2f15b	-0.08737441
6	0x3e5baca9	0.21452583
7	0x3ee72f30	0.4515319
8	0xbd597850	-0.053093255
9	0x3e0fbd23	0.14036994
10	0x3d245d0d	0.040127803
11	0x3ea07454	0.3133875
12	0xbe09004e	-0.13379022
13	0xbd752153	-0.059846234
14	0xbe635309	-0.22199644
15	0x3eb4c478	0.35306144
16	0x3e137efe	0.14403912
17	0x3d81280f	0.06306469
18	0xbe49513b	-0.19659893
19	0x3eddf656	0.43352002
20	0x3dbb3517	0.091409855
21	0x3d0da0c1	0.034577135
22	0xbdd32b11	-0.10310949
23	0xbdda76f5	-0.106672205
24	0xbce7cddc	-0.028296404
25	0x3e9eb392	0.30996376
26	0xbdbe69ee	-0.09297548
27	0xbe18585d	-0.14877458
28	0x3d277512	0.04088313
29	0xbd76e0d6	-0.060273014

linear4.weight f4 [30, 30]
0	0xbd0ad2a7	-0.0338923
1	0x3cbf05f3	0.023318266
2	0x3c98a92b	0.018635353
3	0xbde336e3	-0.11094453
4	0xbca3bdc6	-0.019987952
5	0x3c83ed4b	0.016104361
6	0xb9e0970f	-0.00042837157
7	0x3df0b463	0.11753156
8	0x3e1a831e	0.1508908
9	0x3d0edef5	0.034880597
10	0x3e081c35	0.1329201
11	0x3e1abbbf	0.15110682
12	0x3d84c363	0.064825796
13	0xbe642c09	-0.22282423
14	0xbda1ee30	-0.07906759
15	0x3c3f5cc3	0.011679831
16	0xbdeb825e	-0.11499475
17	0x3de419fd	0.11137769
18	0x3ca44279	0.020051228
19	0x3e1824f7	0.14857851
20	0x3dd0c496	0.10193746
21	0xbdcfad26	-0.10140447
22	0x3dd9c825	0.10633878
23	0x3d91480c	0.0709382
24	0xbdafd108	-0.085847914
25	0x3cd53f3f	0.026031135
26	0xbe1589d3	-0.14603357
27	0x3e4c1381	0.19929315
28	0x3cb336f4	0.02187679
29	0xbca7e352	-0.020494137
30	0x3dbf0ff8	0.09329218
31	0xbcdb1e55	-0.026747862
32	0xbe27dadb	-0.1639208
33	0x3d14049d	0.036137212
34	0xbe0126d8	-0.12612474
35	0xbe1d95dd	-0.153892
36	0xbd45dd6e	-0.048306875
37	0x3d60a4a0	0.0548445
38	0xbdc24ca1	-0.09487272
39	0x3d8559be	0.065112576
40	0xbd30cbe3	-0.04316319
41	0xbccfb928	-0.025356844
42	0x3e29c29e	0.16578147
43	0x3c2e95eb	0.01065586
44	0xbe11b6ea	-0.14229932
45	0xbe4183db	-0.18897955
46	0xbe005c18	-0.12535131
47	0xbe5f5502	-0.21809772
48	0xbeb9c8dd	-0.3628606
49	0x3cf2b8a2	0.029629055
50	0xbd6905b8	-0.05689022
51	0x3e087a56	0.13327917
52	0x3e1639c9	0.14670481
53	0xbddb7f1b	-0.10717603
54	0x3c509dda	0.012732947
55	0xbe33fea8	-0.17577612
56	0x3d62b6da	0.055350162
57	0x3e12b685	0.14327438
58	0x3dd5bd3d	0.10436485
59	0x3db2e0fe	0.0873432
60	0xbe3894e6	-0.1802555
61	0xbe035a61	-0.12827446
62	0xbd947f2a	-0.07250817
63	0xbda38d2a	-0.07985909
64	0xbdc251d1	-0.094882615
65	0xbe148a5e	-0.14505908
66	0x3de3c868	0.11122209
67	0xbc3a161f	-0.011357813
68	0x3dcffdd4	0.10155836
69	0x3df74e29	0.12075455
70	0xbd5e5567	-0.054280665
71	0xbd0535d3	-0.032522034
72	0xbe603025	-0.21893366
73	0x3d020315	0.03174122
74	0x3d96f3ce	0.07370721
75	0x3e0c79c7	0.1371833
76	0xbe36ced3	-0.17852335
77	0x3c74f11d	0.014950064
78	0x3dd0205c	0.10162422
79	0xbe550c59	-0.20805492
80	0x3dec4ffc	0.11538693
81	0xbd2935c0	-0.041311026
82	0x3cebc14d	0.028778696
83	0x3d5310ab	0.051529568
84	0x3e082b9c	0.13297886
85	0xbe452edd	-0.19256158
86	0xbd7ce2cb	-0.061739724
87	0x3c505f40	0.012718022
88	0xbdd5652b	-0.10419687
89	0xbd98f2f0	-0.07468212
90	0xbdb3501b	-0.08755513
91	0xbe4d0770	-0.20022368
92	0xbe338daf	-0.17534517
93	0x3db42a20	0.08797097
94	0xbba22985	-0.004948797
95	0xbc456979	-0.012049072
96	0xbd34cb22	-0.044139035
97	0x3d8736f0	0.06602275
98	0x3e0665fa	0.13124838
99	0xbd54c5d7	-0.051946487
100	0xbc727070	-0.014797315
101	0xbe86fce8	-0.26364827
102	0x3d3aaba2	0.045573838
103	0xbe825d8b	-0.25461993
104	0x3db7f02c	0.08981356
105	0xbe7d951c	-0.24763912
106	0xbdda342e	-0.10654484
107	0xbe9256d9	-0.28581885
108	0xbd025aa9	-0.03182474
109	0xbda3b4da	-0.07993479
110	0x3d38ac70	0.045086324
111	0x3d965aae	0.073415145
112	0xbe84d35a	-0.25942498
113	0xbd37f51f	-0.0449115
114	0xbd80f305	-0.06296352
115	0xbe20d621	-0.15706684
116	0xbec8a63b	-0.39189324
117	0xbd313cfd	-0.043271054
118	0xbcb2f498	-0.021845147
119	0x3dd3dd0e	0.10344897
120	0xbd4ca98e	-0.049966387
121	0x3de68de7	0.112575345
122	0xbdf29c35	-0.118462004
123	0x3d7a7037	0.061142173
124	0xbe2eebc4	-0.17082125
125	0x3d30ad5f	0.04313409
126	0xbe194df6	-0.14971146
127	0xbcf8a4e4	-0.030352063
128	0x3e0ae647	0.13564406
129	0xbd811f15	-0.063047566
130	0x3dcb3f74	0.09924212
131	0xbd87bcf2	-0.06627835
132	0x3e06ee14	0.13176757
133	0xbdd580b8	-0.10424942
134	0xbd801ebf	-0.06255864
135	0xbe8cbe80	-0.2748909
136	0xbe2987ca	-0.16555706
137	0x3c37a5c1	0.011208952
138	0xbde95a05	-0.11394123
139	0x3cb93752	0.022609387
140	0x3d129eac	0.035795853
141	0x3a6c425a	0.00090125727
142	0x3db3d396	0.08780591
143	0xbdab0ad2	-0.08351673
144	0xbe2ecc7d	-0.17070194
145	0xbd8e526e	-0.06949316
146	0x3e1a1846	0.15048322
147	0x3d030140	0.031983614
148	0xbe0c8f50	-0.13726544
149	0xbe272d86	-0.1632596
150	0xbdb84487	-0.089974456
151	0x3d8ebdc4	0.06969789
152	0xbe9000b4	-0.28125536
153	0x3e0ce990	0.13760972
154	0xbe0f8290	-0.1401465
155	0xbb6c11ba	-0.0036021308
156	0xbdb27304	-0.08713344
157	0xbd9e0bae	-0.077170715
158	0x3df9d004	0.12197879
159	0x3d5a8e89	0.05335859
160	0xbd3e95e6	-0.046529673
161	0x3e30e550	0.17274976
162	0xbdbe578d	-0.09294043
163	0xbcb94fcc	-0.022621058
164	0x3d6250fb	0.05525301
165	0x3e0ee828	0.13955748
166	0x3db4f4fc	0.088357896
167	0x3d3d5d3d	0.046231497
168	0xbca7322e	-0.02040967
169	0x3de15faf	0.11004578
170	0x3d59e3a0	0.053195596
171	0xbe477207	-0.19477092
172	0xbe3e3d58	-0.18578088
173	0x3dd9efb8	0.10641426
174	0xbd4beddb	-0.049787384
175	0x3e33a2b8	0.17542541
176	0x3d92a4c9	0.071603365
177	0xbe0b8bd1	-0.13627554
178	0xbd9b5cdd	-0.07586072
179	0xbe1a6914	-0.15079147
180	0x3d8c7066	0.06857376
181	0xbe629ace	-0.22129366
182	0xbd7d4669	-0.061834726
183	0xbc4901aa	-0.012268463
184	0x3df9a743	0.12190106
185	0xbe121b06	-0.14268121
186	0x3d26c3d9	0.04071412
187	0x3e35f209	0.1776811
188	0x3dbaba32	0.09117545
189	0x3d7456af	0.05965298
190	0x3dbba37d	0.09162042
191	0x3e33d93e	0.1756334
192	0xbdfa2990	-0.12214959
193	0xbe3179d2	-0.17331627
194	0xbe10e7a8	-0.1415087
195	0xbb840aa8	-0.0040295906
196	0xbdb559f2	-0.08855046
197	0xbe13e506	-0.14442834
198	0xbb51aa84	-0.0031992504
199	0x3e0bdba5	0.13658006
200	0x3d6d7a92	0.05797822
201	0xbe31e7b0	-0.17373538
202	0x3d9edfcb	0.07757529
203	0xbda86345	-0.08222059
204	0xbdab73ba	-0.083716825
205	0x3d9abf50	0.07556021
206	0xbe8aa044	-0.27075398
207	0xbdf0e1e7	-0.117618375
208	0xbe6f78a3	-0.23385863
209	0xbe1ca892	-0.1529868
210	0xbe455bdc	-0.19273323
211	0x3db69287	0.089146666
212	0xbd35a56a	-0.044347204
213	0x3df9e857	0.122025184
214	0xbd2396b0	-0.03993863
215	0xbd8ddcd1	-0.06926883
216	0x3ce7ae95	0.02828149
217	0xbd091cb9	-0.033474658
218	0x3dcb4798	0.09925765
219	0xbe1e2f91	-0.15447833
220	0x3d6b390e	0.05742746
221	0x3db938ea	0.090440586
222	0xbd92c1f8	-0.07165903
223	0x3c452296	0.012032172
224	0xbdcdfa25	-0.10057477
225	0xbe8643a6	-0.26223487
226	0x3dbd6228	0.092472374
227	0x3e10faf0	0.14158225
228	0xbe50d512	-0.2039378
229	0xbe535210	-0.20636773
230	0xbe0dbfa7	-0.13842641
231	0x3c9c0734	0.019046403
232	0xbd508a68	-0.050913244
233	0x3e169304	0.1470452
234	0xbda380d2	-0.07983555
235	0xbd742187	-0.059602287
236	0xbcf4a4d3	-0.02986375
237	0x3d7b52c9	0.061358247
238	0xbe141cf7	-0.14464174
239	0x3df9dfac	0.12200865
240	0x3d79af79	0.06095836
241	0x3d22fb3b	0.039790373
242	0xbe67494b	-0.22586553
243	0xbd4f4d3a	-0.05061076
244	0xbe16ff27	-0.1474577
245	0x3e28c494	0.16481239
246	0xbe1b7761	-0.15182258
247	0xbe4871c8	-0.19574654
248	0x3e1a95c4	0.15096194
249	0xbde1205b	-0.109924994
250	0xbc27a6ae	-0.010232611
251	0xbe37da37	-0.17954336
252	0x3cde0251	0.027100714
253	0x3da593ce	0.08084832
254	0xbd3f33e1	-0.046680335
255	0x3db4b4f1	0.08823574

linear4.bias f4 [30]
0	0x3ef85274	0.48500407
1	0x3f14e2a0	0.581583
2	0x3e1446ae	0.14480087
3	0x3e9367dd	0.2879018
4	0xbdf29561	-0.11844898
5	0x3ee20b54	0.44149268
6	0x3f36d3f9	0.71417195
7	0x3cade8cb	0.021229168
8	0xbe28c8dd	-0.16482873
9	0x3eb60ba8	0.35555768
10	0x3eb17ede	0.34667104
11	0xbcdadbec	-0.026716195
12	0xbe4d9f94	-0.20080405
13	0x3ecb5f6c	0.3972124
14	0x3e88be83	0.2670785
15	0x3e088b9e	0.1333451
16	0xbe013b45	-0.12620266
17	0x3c5c33ec	0.0134401135
18	0xbdab2f07	-0.08358579
19	0x3e5bef28	0.2147795
20	0xbe9412f9	-0.28920725
21	0x3ed4a5f0	0.4153285
22	0x3f0afa10	0.54287815
23	0xbdd70885	-0.10499672
24	0x3f184378	0.5947795
25	0x3ed72dd4	0.42027152
26	0xbd2a6575	-0.041600663
27	0xbdae314f	-0.085054986
28	0xbdad67fd	-0.084671
29	0x3d8bee2c	0.06832537

linear5.weight f4 [1, 30]
0	0xbd1bebf5	-0.038066823
1	0xbc3cb93f	-0.0115187755
2	0xbd1c772b	-0.038199585
3	0xbd1919d1	-0.037378136
4	0xbcb1289d	-0.021625811
5	0xbd0be55b	-0.034154277
6	0xbd222e34	-0.039594844
7	0xbb8da083	-0.004322113
8	0xbc073846	-0.008253163
9	0xbceabde8	-0.028655007
10	0xbc139a3c	-0.00900894
11	0x3c17eaad	0.00927226
12	0xbac0e1b4	-0.0014715702
13	0x3c7dee65	0.015498732
14	0x3abb4ac6	0.0014289252
15	0x3ce2de37	0.02769385
16	0x3a73c6e6	0.00092993525
17	0x3b20a16e	0.0024510282
18	0x3d41fe97	0.047361936
19	0xbc34c395	-0.0110329585
20	0x3b241a55	0.002504011
21	0xbd56b9a0	-0.05242312
22	0xbccd5326	-0.025064062
23	0x3aa658bc	0.001269124
24	0xbbc52570	-0.006016426
25	0xbd7861b2	-0.060640045
26	0x3c1de107	0.00963617
27	0x3c99a405	0.018754968
28	0x3ca22deb	0.019797286
29	0xbbb9d627	-0.005671281
