基于ABM的智能化经济模拟平台/code/worker_buffer/actor_checkpoint.pth (torch, 15743 bytes, 10 tensors)

linear1.weight f4 [30, 6]
-0.33661205 0.24441653 0.03121012 0.24619883 -0.035470687 0.1716845 -0.12979083 0.2592397
-0.2894917 0.14121129 0.4105937 -0.03999311 -0.084234454 0.062675916 -0.12317337 0.46888638
-0.057864632 0.0195971 0.34262314 0.17780116 0.3404001 -0.10793553 0.07313546 -0.1813986
-0.005161135 0.411538 -0.28475666 -0.23536345 0.38799974 -0.13536604 -0.1964762 -0.037286393
0.30990973 0.23551702 0.4155286 0.008604885 0.34986985 0.42382133 0.16514686 0.4349539
-0.12276761 0.31619847 0.06460404 -0.11141048 0.36896646 -0.14775103 0.43081242 -0.06746424
-0.06427361 0.1746703 -0.113220856 0.08323914 0.3014972 0.012362274 0.12622978 0.45333293
0.32023475 -0.18923263 -0.17398636 -0.22364086 0.10483418 -0.2720836 0.32035813 0.40603793
0.3428151 0.11378042 -0.044084683 -0.007909881 -0.07647566 0.46304443 0.14177865 0.045772776
0.1874645 -0.3487078 -0.3535716 -0.1384189 0.11483954 0.37139383 0.038715657 0.15714994
0.3108525 0.30971897 -0.20512368 0.32341623 0.16993532 -0.110371254 0.3296513 -0.24869996
0.43047804 -0.08699623 -0.11131995 -0.33572543 0.1261578 0.19699618 0.2722752 0.17113909
-0.1445566 -0.28285113 0.10293192 -0.24681188 -0.08611505 0.2822736 -0.28286728 0.037110575
0.47606903 0.3402489 0.39343175 0.08618136 -0.32934397 0.03130083 0.035102952 -0.3755407
0.46428204 0.015060662 0.24613395 -0.2922721 0.044045545 -0.2515859 0.31073162 0.23462133
0.15686575 -0.39355215 -0.113187544 -0.22643481 0.13695121 -0.012771802 0.08540531 -0.25854683
0.14413977 0.4150278 0.15273435 0.2770241 -0.08445272 -0.10989103 0.03861925 -0.3757304
-0.19230182 -0.045132905 -0.018777966 0.44848675 0.46611837 0.24768393 0.416579 -0.09233242
0.2644689 0.27279204 -0.030147102 0.020777548 -0.25489733 0.40487292 -0.34970662 0.32092935
0.1255655 0.12504151 0.2360365 -0.0061398637 0.43141565 -0.18248165 -0.2133959 -0.09440047
0.47125614 -0.10244602 -0.3370792 0.020115567 -0.021843066 0.2969476 -0.28306377 0.048336055
0.026800344 -0.04043978 -0.37405846 -0.36517787 -0.3264337 0.23532625 0.25850472 0.09706343
0.4321403 -0.22637643 0.35228044 -0.22704068
00000000: 6a58 acbe 5448 7a3e 5eac ff3c 8c1b 7c3e
00000010: b649 11bd 10ce 2f3e e3e7 04be 11bb 843e
00000020: 4238 94be b199 103e 5639 d23e d1cf 23bd
00000030: 1d83 acbd 3b5c 803d 5242 fcbd e011 f03e
00000040: 7703 6dbd 198a a03c 4d6c af3e 8211 363e
00000050: ec48 ae3e 4e0d ddbd 0bc8 953d 8ec0 39be
00000060: bd1e a9bb 1cb5 d23e a0cb 91be 1e03 71be
00000070: e7a7 c63e 659d 0abe 0f31 49be 9eb9 18bd
00000080: 7dac 9e3e 602b 713e 2ac0 d43e 81fb 0c3c
00000090: 2422 b33e 1cff d83e 421c 293e 47b2 de3e
000000a0: 966d fbbd c4e4 a13e 1f4f 843d 2e2b e4bd
000000b0: 2ce9 bc3e 0c4c 17be 7293 dc3e b12a 8abd
000000c0: e2a1 83bd c5dc 323e 56e0 e7bd 4879 aa3d
000000d0: d75d 9a3e 238b 4a3c 6142 013e 411b e83e
000000e0: cff5 a33e 33c6 41be 7b29 32be 1c02 65be
000000f0: 4db3 d63d 8b4e 8bbe fb05 a43e 34e4 cf3e
00000100: 7685 af3e b505 e93d 2492 34bd 7298 01bc
00000110: 459f 9cbd 2914 ed3e 6c2e 113e 3c7c 3b3d
00000120: b2f6 3f3e d489 b2be 5607 b5be afbd 0dbe
00000130: fe30 eb3d 5527 be3e 4f94 1e3d eaeb 203e
00000140: 0f28 9f3e 7c93 9e3e f10b 52be d096 a53e
00000150: 8603 2e3e 530a e2bd 0ec8 a83e 34ab 7ebe
00000160: 9e67 dc3e 142b b2bd b7fb e3bd 34e4 abbe
00000170: 832f 013e 5eb9 493e a867 8b3e 163f 2f3e
00000180: a506 14be ddd1 90be f8cd d23d 41bc 7cbe
00000190: 165d b0bd 2a86 903e fbd3 90be 4201 183d
000001a0: 52bf f33e 1b35 ae3e e36f c93e da7f b03d
000001b0: c69f a8be 4d35 003d 1dc8 0f3d df46 c0be
000001c0: 60b6 ed3e ffc0 763c 8a0a 7c3e b0a4 95be
000001d0: 1a69 343d decf 80be 3718 9f3e 9340 703e
000001e0: 6aa1 203e ab7f c9be dfce e7bd 87de 67be
000001f0: f03c 0c3e d240 51bc fbe8 ae3d 4060 84be
00000200: 6099 133e 867e d43e 6566 1c3e 1ad6 8d3e
00000210: 8cf5 acbd 8c0e e1bd 382f 1e3d bc5f c0be
00000220: c5ea 44be 48dd 38bd 40d4 99bc 0ea0 e53e
00000230: 11a7 ee3e dba0 7d3e d849 d53e c818 bdbd
00000240: 7868 873e 66ab 8b3e 0ef7 f6bc ad35 aa3c
00000250: e781 82be 814b cf3e bf0c b3be da50 a43e
00000260: 3e94 003e e20a 003e 8db3 713e e930 c9bb
00000270: 83e2 dc3e 78dc 3abe 7484 5abe 0955 c1bd
00000280: 7c48 f13e 38cf d1bd a595 acbe 67c9 a43c
00000290: 3bf0 b2bc 8409 983e bced 90be 07fc 453d
000002a0: 658c db3c 2fa4 25bd 9784 bfbe 98f8 babe
000002b0: 5122 a7be 5df9 703e bb5a 843e 31c9 c63d
000002c0: 7e41 dd3e 39cf 67be 1a5e b43e 5a7d 68be

linear1.bias f4 [30]
-0.22974405 0.07666448 0.103555664 0.04702248 0.07332263 0.12903951 -0.07385275 0.06775465
0.09616955 0.23199737 -0.17386557 -0.17291464 -0.3623485 0.20635419 0.08656726 0.016820973
0.41502032 0.1792821 -0.077615984 0.21210791 0.089205064 -0.22917002 -0.22414823 0.2722734
-0.028164642 -0.2685352 0.5020898 -0.22917357 -0.09409922 -0.1777138
00000000: 0642 6bbe 4402 9d3d fe14 d43d a59a 403d
00000010: 2d2a 963d ef22 043e 1c40 97bd f3c2 8a3d
00000020: 8bf4 c43d b890 6d3e d109 32be 8910 31be
00000030: be85 b9be 834e 533e 2d4a b13d 23cc 893c
00000040: 8b7d d43e ba95 373e 21f5 9ebd d132 593e
00000050: 25b1 b63d 8cab 6abe 1d87 65be 6b67 8b3e
00000060: 89b9 e6bc 727d 89be f588 003f 7aac 6abe
00000070: 18b7 c0bd 9bfa 35be

linear2.weight f4 [30, 30]
-0.10223044 -0.04111755 -0.14262825 0.17029314 0.1131343 0.15487847 0.15056278 -0.09441482
0.16179226 0.23747222 0.121106856 -0.0408809 -0.09692439 0.112379596 0.2279817 0.008660165
0.0116000455 -0.10117046 -0.075364806 0.04388494 -0.1474417 -0.07710317 0.1558809 0.13033393
-0.09263375 0.18745472 -0.01801188 0.024411125 0.07245441 -0.028804118 0.10788496 0.08005257
-0.11551762 -0.03934766 0.14895311 0.10489756 0.16105236 -0.1816837 -0.09017298 -0.16043828
0.018324675 -0.10950508 -0.12050352 0.052111868 -0.0021344938 0.12683333 0.076157555 -0.1804748
0.13543926 0.06609995 -0.1123444 -0.13452682 -0.043171138 0.14987692 -0.013946053 0.10563962
0.066574246 -0.1730836 -0.10618561 0.09619976 -0.028692 0.24353088 0.06930291 -0.078468665
0.11923123 0.0037913139 0.04329144 0.107261114 -0.025286293 -0.14658985 -0.030296482 0.13688713
0.06639992 0.080715775 0.14385864 0.04892089 0.073841915 0.19223432 0.14165474 0.11106678
-0.021433001 0.20103073 0.0312635 0.15773354 0.023530591 0.20116352 -0.032335754 0.17778759
-0.10996739 -0.037765983 -0.093990244 0.047060043 -0.16955295 -0.093627825 0.15871736 -0.064963125
-0.10012867 0.16459006 -0.13732946 0.03764221 -0.16161987 -0.14434327 0.0015065819 -0.08251851
-0.13941634 -0.004045248 0.14642468 -0.16249803 0.052100018 -0.08928284 0.11368209 0.016639397
-0.0093625635 -0.10300573 -0.16929679 0.015818924 -0.026458621 0.1047197 -0.03568627 0.09395346
-0.1048177 0.027156426 0.00096759107 0.06742348 0.1706756 -0.061223507 0.035636503 0.27803323
-0.056211844 0.18766567 -0.035254758 -0.022053754 -0.067983374 -0.021219723 -0.07709775 0.123161525
0.0825353 0.21731423 -0.06632061 0.16532858 0.06754428 0.023455318 0.14807957 0.20668112
-0.038954932 0.03455168 0.01724504 0.21941191 0.016259793 0.026636636 0.14709392 -0.019682303
-0.18096252 -0.0104898065 -0.027381405 -0.09602924 -0.048203453 -0.111192025 -0.07255649 -0.10727839
-0.10783478 0.08361608 0.09565076 -0.08737091 0.018940955 -0.06728509 0.013574958 0.0672653
0.09251991 0.054183304 -0.084190354 0.13845512 -0.03022492 -0.12979059 -0.1254015 -0.112700894
-0.15290809 -0.04307832 -0.16679287 -0.020758867 0.08978994 -0.06489269 0.0612531 0.124399565
0.12486445 0.22732551 -0.037407093 0.26442954 0.16796987 0.2488466 0.14193092 -0.09391391
-0.052146852 0.056865033 0.09532298 0.15419851 -0.05540805 0.27761593 0.22461978 0.10913969
-0.059556752 -0.0142028015 0.17442039 0.1528261 0.21767978 -0.0994717 0.22393253 0.081121586
0.12721099 -0.03591024 -0.17223047 -0.10155794 0.009690651 0.0560705 -0.077771455 0.10044163
-0.03808221 0.17364469 -0.093112625 0.114828944 -0.12609914 0.049455073 -0.13598569 0.052885797
0.24190502 0.20114256 0.19628944 -0.032729805 0.16820197 0.21657345 -0.09560664 0.025811085
0.02072817 0.11285391 -0.12171947 0.20551696 0.08009059 -0.08778951 0.16626675 -0.037447635
-0.018130034 -0.012134641 -0.111370996 -0.15915236 0.10739735 -0.16521083 0.0439011 -0.0032541454
-0.09475153 0.1289874 0.046774402 -0.0040832013 -0.060602464 -0.1738827 0.0143894255 0.17278951
00000000: 315e d1bd e06a 28bd 240d 12be 5361 2e3e
00000010: f5b2 e73d 7698 1e3e 212d 1a3e 8f5c c1bd
00000020: dfac 253e eb2b 733e df06 f83d bb72 27bd
00000030: 4b80 c6bd 4627 e63d 0974 693e 5de3 0d3c
00000040: 1e0e 3e3c 7532 cfbd dd58 9abd b2c0 333d
00000050: f5fa 16be 44e8 9dbd 3e9f 1f3e 4276 053e
00000060: c3b6 bdbd 21f4 3f3e a68d 93bc d7f9 c73c
00000070: fa62 943d 9df6 ebbc caf2 dc3d 9af2 a33d
00000080: 8194 ecbd 032b 21bd 2a87 183e 88d4 d63d
00000090: e9ea 243e 4b0b 3abe 9dac b8bd ef49 24be
000000a0: a11d 963c 3344 e0bd 8dca f6bd 4173 553d
000000b0: dde2 0bbb 99e0 013e 7ef8 9b3d 63ce 38be
000000c0: 97b0 0a3e 695f 873d d214 e6bd 66c1 09be
000000d0: 38d4 30bd 5679 193e fc7d 64bc 9659 d83d
000000e0: 1458 883d d43c 31be d777 d9bd 6104 c53d
000000f0: 7c0b ebbc 2960 793e afee 8d3d 2eb4 a0bd
00000100: 812f f43d b177 783b 5d52 313d b7ab db3d
00000110: 3325 cfbc a61b 16be 5430 f8bc 242c 0c3e
00000120: aefc 873d 504e a53d ae4f 133e 4561 483d
00000130: 6e3a 973d 13d9 443e f10d 113e fb76 e33d
00000140: 4394 afbc 00db 4d3e 280e 003d e784 213e
00000150: 3ac3 c03c cffd 4d3e 7f72 04bd f30d 363e
00000160: 9536 e1bd 81b0 1abd f57d c0bd 08c2 403d
00000170: 4a9f 2dbe f2bf bfbd ce86 223e 630b 85bd
00000180: 4310 cdbd 4c8a 283e 18a0 0cbe b82e 1a3d
00000190: ae7f 25be b9ce 13be 8078 c53a 77ff a8bd
000001a0: 28c3 0ebe 008e 84bb 5af0 153e e265 26be
000001b0: d466 553d ecd9 b6bd 28d2 e83d 584f 883c
000001c0: 7065 19bc abf4 d2bd 235c 2dbe b096 813c
000001d0: c0bf d8bc 4877 d63d c42b 12bd ac6a c03d
000001e0: aaaa d6bd 2777 de3c f0a5 7d3a 5215 8a3d
000001f0: 96c5 2e3e 80c5 7abd 95f7 113d 5f5a 8e3e
00000200: 643e 66bd 6e2b 403e 4b67 10bd 13aa b4bc
00000210: de3a 8bbd fcd4 adbc 6de5 9dbd 1c3c fc3d
00000220: 4408 a93d 9f87 5e3e 1ad3 87bd e54b 293e
00000230: a854 8a3d 5e25 c03c 2ca2 173e 37a4 533e
00000240: 358f 1fbd 1086 0d3d 7845 8d3c 84ad 603e
00000250: 4233 853c 1335 da3c ca9f 163e c83c a1bc
00000260: 3d4e 39be 70dd 2bbc f84e e0bc faaa c4bd
00000270: fc70 45bd a5b8 e3bd 7f98 94bd c6b4 dbbd
00000280: 7bd8 dcbd e83e ab3d 8ce4 c33d 85ef b2bd
00000290: 102a 9b3c c4cc 89bd 8069 5e3c 64c2 893d
000002a0: 147b bd3d 50ef 5d3d fe6b acbd 2ec7 0d3e
000002b0: 409a f7bc d3e7 04be 4069 00be bacf e6bd
000002c0: f093 1cbe e472 30bd c0cb 2abe 800e aabc
000002d0: cae3 b73d 75e6 84bd 88e4 7a3d 33c5 fe3d
000002e0: efb8 ff3d 05c8 683e 2e38 19bd 4f63 873e
000002f0: 4b00 2c3e a5d1 7e3e 5756 113e f055 c0bd
00000300: f097 55bd 4feb 683d b238 c33d 37e6 1d3e
00000310: 8df3 62bd ad23 8e3e ba02 663e a184 df3d
00000320: c8f1 73bd deb2 68bc 429b 323e 727e 1c3e
00000330: 73e7 5e3e d2b7 cbbd 924e 653e 1323 a63d
00000340: 9943 023e 9e16 13bd 2f5d 30be 9cfd cfbd
00000350: 89c5 1e3c 2eaa 653d a446 9fbd 57b4 cd3d
00000360: 17fc 1bbd eacf 313e d5b1 bebd 702b eb3d
00000370: 2220 01be 6791 4a3d d53f 0bbe c79e 583d
00000380: f3b5 773e 51f8 4d3e 1900 493e b00f 06bd
00000390: 233d 2c3e 6ec5 5d3e 6acd c3bd c571 d33c
000003a0: 20ce a93c f31f e73d 0f48 f9bd 0a73 523e
000003b0: 8906 a43d fdca b3bd d541 2a3e b162 19bd
000003c0: 7085 94bc 60d0 46bc 7a16 e4bd d6f8 22be
000003d0: 24f3 db3d 072d 29be a4d1 333d 8043 55bb
000003e0: 170d c2bd 4615 043e 8496 3f3d 60cc 85bb
000003f0: 4a3a 78bd 4e0e 32be a0c1 6b3c bcef 303e

linear2.bias f4 [30]
0.028165555 0.04326989 -0.07451004 0.11294606 0.061411608 -0.047077715 0.23217602 0.20299883
-0.026847348 -0.13112693 0.20386885 0.21460086 0.17521861 0.12747328 -0.0110951215 -0.1442528
0.14425193 -0.033432994 0.16144694 -0.011868243 -0.18344368 -0.056722183 -0.00042225159 -0.13286607
0.11555425 0.15565518 0.15950248 0.04076747 0.29389903 0.040180504
00000000: 73bb e63c c53b 313d b898 98bd 4450 e73d
00000010: bd8a 7b3d 90d4 40bd 8dbf 6d3e edde 4f3e
00000020: f8ee dbbc 2346 06be ffc2 503e 54c0 5b3e
00000030: 826c 333e 5b88 023e 50c8 35bc 02b7 13be
00000040: c7b6 133e 09f1 08bd 5952 253e 0573 42bc
00000050: a9d8 3bbe 8555 68bd a661 ddb9 0b0e 08be
00000060: b5a7 ec3d 1264 1f3e 9e54 233e cafb 263d
00000070: ef79 963e 5094 243d

linear3.weight f4 [30, 30]
-0.0010507554 -0.109628044 -0.12257087 0.022449702 0.049456388 0.000766024 -0.18121266 -0.06551342
-0.015712336 -0.1430646 -0.039016202 -0.09947546 0.16585484 -0.17325781 0.13501349 -0.14970256
0.0034262985 0.037282392 -0.15818952 -0.05048722 -0.1550487 -0.10387559 0.052559793 -0.104463845
-0.06941824 0.16058779 0.09041533 0.01260744 -0.030178338 -0.06472887 0.09050955 0.112336576
0.0519123 0.108926564 0.1379299 -0.03847517 0.07039046 0.043348856 0.059380844 0.08429175
-0.014406456 0.052649215 0.11252241 -0.03715597 0.13645351 0.067438334 0.0046893107 0.034891322
-0.011275297 0.17856415 -0.117394775 0.068050586 0.11900778 0.10791156 0.13000242 0.08509633
0.11782232 0.1426405 0.21539661 0.24458799 0.06977714 0.06346606 -0.11251513 -0.10986301
0.12404669 -0.0042571723 0.06947169 0.059037752 -0.045124933 -0.012563471 0.11216835 0.2804782
0.23482956 0.09007617 -0.008418165 -0.06848889 0.20713462 0.21288048 -0.07105128 0.005503056
-0.05705894 0.08872126 0.09902489 -0.13031718 0.021461645 0.16274238 -0.122272015 -0.09905277
0.1768426 0.18285552 0.19697526 0.013590866 0.12114603 -0.0038516223 0.20547378 0.06601611
0.118537225 -0.04126354 -0.12875405 0.07649773 0.16078533 0.14406207 0.13828853 0.19240384
-0.011490132 0.15097857 0.04218188 0.18106396 -0.085053995 -0.08667538 -0.13215911 0.10833205
0.2659906 -0.046828628 0.0070140273 0.056140292 -0.13273436 0.14088401 0.08222617 -0.019909613
0.21606061 0.055757936 0.055840317 -0.14195476 -0.013736486 0.09819719 0.15736476 0.013635373
0.011571482 0.052936394 0.16935395 0.003683515 -0.0046830177 0.28906858 0.012860163 -0.014258236
0.13529657 0.21832243 0.20998962 0.27918947 0.14336511 0.08676983 0.2518285 -0.04030122
0.23699379 0.029413927 0.053138383 0.06843603 0.016901728 0.018083284 0.13886984 -0.05181543
0.023519086 -0.10755138 0.13221173 0.02715166 -0.1428583 -0.15293118 0.055059537 -0.09203829
-0.039287053 -0.17302124 0.032025058 -0.07095429 0.11181956 -0.07000238 -0.13056326 0.045755368
-0.045174476 0.049803227 -0.072974645 -0.012523916 0.07017332 0.021337882 0.11412159 -0.052013814
-0.07251467 0.08023995 -0.11146434 -0.008798001 0.11958123 -0.1652639 -0.016765049 0.10427958
-0.06668458 -0.1399666 0.11235342 -0.11096702 0.102041245 -0.08917882 -0.05407545 0.039174266
0.084947325 0.06739595 -0.17276365 -0.120436594 -0.021460311 -0.15696986 0.03002851 0.02391207
0.036700413 0.035958435 -0.17304161 -0.096717015 -0.19156109 -0.17629339 0.16828449 0.120018095
-0.14767565 0.02877629 -0.07328097 0.07468753 0.11010364 0.16515085 0.23627989 -0.097404756
0.17008351 0.14591305 0.066177696 0.087879695 0.036041744 0.122879 0.092913985 0.031048654
-0.05327252 0.0778099 0.16941419 0.1956091 0.17576568 0.09539769 0.1614289 0.17691334
0.26210043 0.05228117 -0.059990525 -0.09221125 -0.17269422 0.20575748 -0.059238117 0.072464734
0.227906 -0.0719433 -0.13785684 -0.15475914 -0.09705584 0.057757035 0.18081233 0.20389456
-0.022586346 -0.14941365 0.021663316 -0.0752781 -0.06590111 -0.07847425 -0.055292632 0.03167519
00000000: 80b9 89ba ab84 e0bd 7006 fbbd 70e8 b73c
00000010: c892 4a3d 00cf 483a d08f 39be e62b 86bd
00000020: 28b7 80bc 877f 12be 74cf 1fbd cab9 cbbd
00000030: dad5 293e 7f6a 31be fa40 0a3e a14b 19be
00000040: c08b 603b 6cb5 183d 6ffc 21be b0cb 4ebd
00000050: 16c5 1ebe babc d4bd f048 573d 24f1 d5bd
00000060: 262b 8ebd 2071 243e ac2b b93d 708f 4e3c
00000070: 9038 f7bc 9290 84bd 125d b93d b810 e63d
00000080: fea1 543d e414 df3d 7f3d 0d3e 2498 1dbd
00000090: e028 903d 928e 313d 5439 733d 27a1 ac3d
000000a0: 0e09 6cbc b4a6 573d 2672 e63d dc30 18bd
000000b0: 78ba 0b3e 1c1d 8a3d caa8 993b 34ea 0e3d
000000c0: 06bc 38bc 85d9 363e ac6c f0bd 1b5e 8b3d
000000d0: 5aba f33d bc00 dd3d 5b1f 053e fc46 ae3d
000000e0: d44c f13d 5a10 123e ee90 5c3e 4675 7a3e
000000f0: 51e7 8e3d 7efa 813d 556e e6bd dcff e0bd
00000100: 310c fe3d c07f 8bbb 2c47 8e3d 92d1 713d
00000110: ecd4 38bd 04d7 4dbc 85b8 e53d d79a 8f3e
00000120: 2977 703e db79 b83d 58ec 09bc e743 8cbd
00000130: 191b 543e 57fd 593e 5583 91bd fb52 b43b
00000140: a3b6 69bd 7eb3 b53d 90cd ca3d de71 05be
00000150: 55d0 af3c f0a5 263e c069 fabd 2edc cabd
00000160: 3a16 353e 7a3e 3b3e e2b3 493e 39ac 5e3c
00000170: 691b f83d 806b 7cbb b867 523e 7433 873d
00000180: a5c3 f23d f503 29bd 1ad8 03be d8aa 9c3d
00000190: e9a4 243e 0285 133e 829b 0d3e 8305 453e
000001a0: 1b41 3cbc 209a 1a3e e8c6 2c3d d568 393e
000001b0: ca30 aebd dd82 b1bd b854 07be 32dd dd3d
000001c0: ec2f 883e 60cf 3fbd edd5 e53b 5df3 653d
000001d0: 84eb 07be e643 103e 3266 a83d 7c19 a3bc
000001e0: fe3e 5d3e 6f62 643d d1b8 643d 975c 11be
000001f0: 000f 61bc 9c1b c93d 3a24 213e e666 5f3c
00000200: 5096 3d3c d5d3 583d 1f6b 2d3e 2067 713b
00000210: 0074 99bb cc00 943e 6fb3 523c 609b 69bc
00000220: 2f8b 0a3e ea8f 5f3e 8507 573e ecf1 8e3e
00000230: 4ece 123e 61b4 b13d aaef 803e e412 25bd
00000240: 80ae 723e 7af5 f03c a2a7 593d 3028 8c3d
00000250: 7e75 8a3c 6523 943c e533 0e3e 6b3c 54bd
00000260: 19ab c03c e643 dcbd 8362 073e 286d de3c
00000270: 7249 12be fe99 1cbe 1c86 613d 927e bcbd
00000280: 76eb 20bd 7b2c 31be b52c 033d 7c50 91bd
00000290: a701 e53d 685d 8fbd 60b2 05be fb69 3b3d
000002a0: df08 39bd 78fe 4b3d bb73 95bd 1c31 4dbc
000002b0: 08b7 8f3d c8cc ae3c 95b8 e93d 700c 55bd
000002c0: 9282 94bd d854 a43d 6a47 e4bd 7e25 10bc
000002d0: 01e7 f43d f13a 29be db56 89bc 8890 d53d
000002e0: ed91 88bd 6853 0fbe 8d19 e63d ad42 e3bd
000002f0: 00fb d03d 63a3 b6bd 387e 5dbd 3275 203d
00000300: ddf8 ad3d e306 8a3d f4e8 30be 76a7 f6bd
00000310: 89cd afbc b5bc 20be 5afe f53c 3fe3 c33c
00000320: 2c53 163d 2749 133d d231 31be 9213 c6bd
00000330: 9728 44be 4186 34be c552 2c3e 0ccc f53d
00000340: 4938 17be 41bc eb3c 5514 96bd c7f5 983d
00000350: 047e e13d 4e1d 293e 5bf3 713e 257c c7bd
00000360: 5f2a 2e3e 3b6a 153e 2c88 873d 45fa b33d
00000370: 82a0 133d fca7 fb3d b049 be3d bf59 fe3c
00000380: 4934 5abd cc5a 9f3d ea7a 2d3e c04d 483e
00000390: ebfb 333e dd5f c33d 9e4d 253e c528 353e
000003a0: 0732 863e c824 563d a0b8 75bd 40d9 bcbd
000003b0: c1d6 30be 17b2 523e aba3 72bd 6468 943d
000003c0: 3160 693e 0257 93bd 582a 0dbe 2e79 1ebe
000003d0: 36c5 c6bd a492 6c3d de26 393e bcc9 503e
000003e0: 0007 b9bc e4ff 18be 4477 b13c 682b 9abd
000003f0: 29f7 86bd 1cb7 a0bd 877a 62bd d8bd 013d

linear3.bias f4 [30]
-0.13164984 0.21495543 0.24354176 0.016305763 0.2820669 0.108996645 -0.033054274 0.04652903
0.071247235 -0.14970556 0.049043056 0.27158666 -0.043184515 0.28418225 0.19786562 0.14568721
0.007460463 -0.13097747 0.081519715 0.038601656 -0.14074236 -0.009407247 0.19402155 0.20822324
-0.070069015 0.2363309 0.10113152 0.017521184 0.08440569 0.11339148
00000000: 37cf 06be 471d 5c3e 0363 793e aa93 853c
00000010: 136b 903e a239 df3d eb63 07bd 3995 3e3d
00000020: 12ea 913d 6a4c 19be 5fe1 483d 680d 8b3e
00000030: 3fe2 30bd 5680 913e 499d 4a3e 072f 153e
00000040: e676 f43b f51e 06be cff3 a63d c51c 1e3d
00000050: c41e 10be db20 1abc 96ad 463e 7938 553e
00000060: 5880 8fbd ba00 723e 0b1e cf3d 9688 8f3c
00000070: e4dc ac3d cb39 e83d

linear4.weight f4 [30, 30]
0.007370785 0.12508303 -0.1233093 -0.15566257 -0.08382229 -0.13634273 0.074088305 0.13462067
-0.02667731 -0.024350062 0.16014308 -0.15131645 0.15722361 0.10477367 0.05295621 -0.17491622
-0.038579077 0.056513563 -0.011375129 -0.056269348 0.17165628 0.13504604 0.056867972 -0.068321586
0.16729558 0.10990432 -0.16682419 -0.15667032 -0.0326124 0.08784336 -0.08540283 0.18038821
-0.0846834 -0.021740628 0.03242375 -0.032013368 -0.0058256537 -0.13567446 -0.08631381 0.13588348
0.22548456 0.11312968 -0.021837972 0.027419964 -0.08006535 0.25835735 0.015205835 -0.035672575
0.035779126 -0.06021002 0.094364025 0.045732636 0.18785094 -0.0046419594 -0.173295 0.2184365
0.069459945 0.00077996636 -0.009152919 0.26262903 -0.14630865 -0.046720803 0.076613404 0.16610627
0.089197576 -0.09992741 0.11043298 0.10748977 -0.05304958 -0.1066018 0.22279912 -0.12769747
0.198241 0.16040961 0.11172943 0.004962492 0.16544046 -0.13507074 -0.07807157 -0.08495295
0.0020974567 -0.094592966 -0.10953534 0.14820449 0.0059807003 0.16712783 0.040972777 -0.07370783
0.043555647 0.19835232 0.021924332 -0.10772934 0.17893046 -0.060906507 0.15854971 -0.09834586
0.11748704 0.15287578 0.1144389 0.15101117 -0.0032198522 0.00012692998 0.17276336 0.23573841
-0.059073705 0.24049596 -0.18798372 -0.11749224 -0.0014989887 0.17019555 -0.101928145 -0.17104244
-0.024157021 -0.04149376 -0.09867343 -0.086355194 0.1837941 -0.14343286 0.07641029 -0.0058294265
-0.095490284 0.06745574 -0.06961375 -0.099771015 0.12256655 0.121599644 0.06011328 0.120589346
0.016139448 0.0038698167 -0.13479523 -0.13649972 -0.08029879 -0.10468038 -0.15222384 0.17313972
-0.14479879 -0.12665015 -0.011726886 -0.07074633 -0.100401774 0.10974124 -0.06252281 -0.05905126
0.07135266 -0.1315808 -0.15186326 -0.115611576 -0.0757459 0.089149624 0.16178486 0.21059252
0.068442635 0.21750052 0.282429 0.16104029 -0.14010125 0.20524095 0.15676895 0.1427097
0.17349002 0.21067354 0.20739849 0.028971924 -0.12092089 0.17832364 0.13188836 -0.18099648
0.043456703 -0.102449924 0.020203706 0.115236714 0.082232706 0.06576052 0.14675677 0.26882425
0.22526559 0.06420492 -0.14320163 0.2846059 0.15481925 0.06454994 -0.11940904 0.005919083
0.07453158 -0.1439759 0.11047755 0.12346985 0.07277841 0.15701321 -0.034106098 0.019298878
0.06885188 0.026266014 -0.07309277 0.078968644 -0.120282575 0.12651591 -0.064701825 -0.051832467
0.104331136 -0.02168641 0.0891253 -0.10590482 -0.16252467 0.018116778 0.04611983 -0.17541566
2.8535724e-05 -0.15975705 0.13039511 0.17283612 0.061575204 0.111915335 -0.06029419 -0.13264044
-0.118359 -0.00024363863 0.080960356 0.0026776046 0.12954402 -0.009775576 -0.0077377893 0.12062808
-0.21154249 -0.026190706 -0.118894406 0.13474163 -0.06866762 -0.10409857 0.17555925 -0.074304484
-0.04401526 0.21165834 -0.04737036 -0.15549365 -0.08216203 0.00658867 0.08704302 0.09953734
0.0490485 0.12715803 0.13803564 0.03773864 0.15123007 -0.08900772 -0.08207094 0.15115033
0.13260368 -0.108886525 0.12858097 -0.061380997 -0.06709283 0.047575567 0.17457913 0.037659228
00000000: a086 f13b c415 003e 9689 fcbd 0266 1fbe
00000010: 05ab abbd 6e9d 0bbe 9cbb 973d 00da 093e
00000020: 608a dabc c879 c7bc 8cfc 233e b3f2 1abe
00000030: 3aff 203e 9493 d63d 9ce8 583d 3d1d 33be
00000040: 1805 1ebd c47a 673d c05e 3abc b07a 66bd
00000050: aac6 2f3e 8249 0a3e 64ee 683d 30ec 8bbd
00000060: 884f 2b3e 8415 e13d f6d3 2abe 2f6e 20be
00000070: 9494 05bd 38e7 b33d aee7 aebd b0b7 383e
00000080: 7e6e adbd 6719 b2bc c4ce 043d 7320 03bd
00000090: 20e5 bebb 3fee 0abe 4bc5 b0bd 0a25 0b3e
000000a0: 6de5 663e 89b0 e73d 8ce5 b2bc d59f e03c
000000b0: 4df9 a3bd 6a47 843e e521 793c 681d 12bd
000000c0: 228d 123d c89e 76bd ed41 c13d 2552 3b3d
000000d0: ff5b 403e 941b 98bb 3f74 31be d1ad 5f3e
000000e0: 0441 8e3d a876 4c3a 20f6 15bc 5077 863e
000000f0: efd1 15be 505e 3fbd 7de7 9c3d c317 2a3e
00000100: 38ad b63d bea6 ccbd b02a e23d 9923 dc3d
00000110: 844a 59bd 0b52 dabd 7425 643e 20c3 02be
00000120: b0ff 4a3e 6b42 243e 66d2 e43d 669c a23b
00000130: 3969 293e fc4f 0abe fde3 9fbd d0fb adbd
00000140: 7c75 093b f5b9 c1bd 1054 e0bd ebc2 173e
00000150: c0f9 c33b 8f23 2b3e 12d3 273d 21f4 96bd
00000160: 6867 323d df1c 4b3e a89a b33c 33a1 dcbd
00000170: 8c39 373e 1a79 79bd db5a 223e 8e69 c9bd
00000180: 0c9d f03d 788b 1c3e f15e ea3d aca2 1a3e
00000190: 2804 53bb 8218 0539 e1e8 303e 6965 713e
000001a0: 45f7 71bd 9344 763e ce7e 40be c69f f0bd
000001b0: b779 c4ba be47 2e3e b4bf d0bd c025 2fbe
000001c0: f2e4 c5bc 5cf5 29bd 4c15 cabd feda b0bd
000001d0: 8534 3c3e 10e0 12be 007d 9c3d c604 bfbb
000001e0: 6990 c3bd 3c26 8a3d a791 8ebd bf54 ccbd
000001f0: 2c04 fb3d 3c09 f93d 5839 763d 8cf7 f63d
00000200: e036 843c c09c 7d3b c307 0abe 95c6 0bbe
00000210: b173 a4bd ab62 d6bd 91e0 1bbe 8a4b 313e
00000220: 2246 14be 94b0 01be 2022 40bc 74e3 90bd
00000230: 729f cdbd 04c0 e03d f60b 80bd bcdf 71bd
00000240: 5821 923d 1ebd 06be 0b82 1bbe c3c5 ecbd
00000250: ab20 9bbd 1494 b63d eeaa 253e 91a5 573e
00000260: a72b 8c3d 75b8 5e3e 899a 903e bfe7 243e
00000270: b476 0fbe af2a 523e 0a88 203e 7e22 123e
00000280: 5ea7 313e ceba 573e 4560 543e 8756 ed3c
00000290: 5fa5 f7bd 799a 363e be0d 073e 2457 39be
000002a0: a8ff 313d 44d1 d1bd 3e82 a53c 3a01 ec3d
000002b0: 9f69 a83d 74ad 863d 6847 163e 55a3 893e
000002c0: 06ac 663e de7d 833d 73a3 12be ddb7 913e
000002d0: f088 1e3e c232 843d ba8c f4bd def4 c13b
000002e0: 03a4 983d 6b6e 13be 0e42 e23d c3dd fc3d
000002f0: d90c 953d 12c8 203e d6b2 0bbd ae18 9e3c
00000300: 3702 8d3d d32b d73c aab1 95bd 50ba a13d
00000310: b656 f6bd 638d 013e 6482 84bd 484e 54bd
00000320: 90ab d53d b3a7 b1bc 5387 b63d a0e4 d8bd
00000330: de6c 26be a369 943c 26e8 3c3d 2aa0 33be
00000340: 0060 ef37 5a97 23be 4c86 053e f4fb 303e
00000350: 4836 7c3d de33 e53d 0af7 76bd e5d2 07be
00000360: 3466 f2bd 3f79 7fb9 8bce a53d c07a 2f3b
00000370: 30a7 043e bd29 20bc 488d fdbb db0b f73d
00000380: 989e 58be e48d d6bc e97e f3bd b6f9 093e
00000390: 9ca1 8cbd a231 d5bd cec5 333e f32c 98bd
000003a0: 5849 34bd f7bc 583e 6c07 42bd ba39 1fbe
000003b0: 9144 a8bd c5e5 d73b 9c43 b23d 3cda cb3d
000003c0: 14e7 483d b735 023e 3759 0d3e d593 1a3d
000003d0: 0edc 1a3e ae49 b6bd cf14 a8bd 27c7 1a3e
000003e0: 42c9 073e e6ff debd bbaa 033e a46a 7bbd
000003f0: f767 89bd 99de 423d dfc4 323e 9040 1a3d

linear4.bias f4 [30]
-0.10313216 0.23019737 -0.11764852 0.17834078 -0.1341114 0.15726668 -0.18104447 0.16054235
-0.07847104 -0.0403666 -0.07778797 0.01201825 0.17198627 -0.042208806 0.20146124 -0.025306476
0.04225827 0.090383485 0.18424825 -0.021868248 -0.024324898 -0.021330962 0.018035866 0.15656121
0.09407654 -0.14487083 -0.10038892 -0.09945713 0.15148422 0.048814192
00000000: f436 d3bd dcb8 6b3e b5f1 f0bd f79e 363e
00000010: 8054 09be 840a 213e b963 39be 3765 243e
00000020: 6db5 a0bd 7357 25bd 4d4f 9fbd 32e8 443c
00000030: 2b1d 303e 24e3 2cbd db4b 4e3e 874f cfbc
00000040: 0217 2d3d fa1a b93d 93ab 3c3e 0a25 b3bc
00000050: 0245 c7bc 45be aebc f4bf 933c 9551 203e
00000060: 33ab c03d 0559 14be b598 cdbd 2eb0 cbbd
00000070: ae1e 1b3e 64f1 473d

linear5.weight f4 [3, 30]
-0.0015094711 0.07065222 0.07106654 0.0654626 -0.0021008058 0.07919899 0.002653522 0.0619869
0.10125944 0.06073475 0.06381012 0.08577054 0.07476353 0.090163015 0.08034871 0.08845477
0.06839737 0.12914816 0.073364 0.1221332 0.07686535 0.087026775 0.08907171 0.07537308
0.07929111 0.0044297916 0.07495666 -0.0008424176 0.07652646 0.062158927 -0.002042563 -0.08170376
-0.077579774 -0.080782324 -0.00033422466 -0.08452796 0.00078236574 -0.08409034 -0.09677478 -0.06352796
-0.09628142 -0.08147872 -0.08095261 -0.07029585 -0.083922155 -0.08140056 -0.079525195 -0.051937856
-0.08406207 -0.05857765 -0.08497876 -0.072583124 -0.07410899 -0.08215309 -0.08047538 -0.020263596
-0.10198654 -0.0026905832 -0.08047454 -0.08210746 -0.0029259503 -0.012702257 -0.055872697 -0.011187478
0.000359955 -0.024237895 -0.00555519 -0.0016633964 -0.11027674 -0.030747898 -0.08413637 -0.05191917
-0.009417864 -0.10077803 -0.0075200796 -0.048100106 -0.016945446 -0.098152176 -0.017736094 -0.11291647
-0.08334625 -0.046871353 -0.054942317 -0.012009339 -0.028406782 0.0014313523 -0.095518835 0.0013602171
-0.016047906 -0.005643193
00000000: 72d9 c5ba 1cb2 903d 568b 913d 4111 863d
00000010: acad 09bb 1433 a23d b6e6 2d3b fae5 7d3d
00000020: 1c61 cf3d 00c5 783d e1ae 823d 77a8 af3d
00000030: 9f1d 993d 63a7 b83d dd8d a43d c627 b53d
00000040: ec13 8c3d 6a3f 043e dd3f 963d f920 fa3d
00000050: 956b 9d3d 183b b23d 3b6b b63d 345d 9a3d
00000060: 6163 a23d c927 913b e182 993d b0d5 5cba
00000070: e8b9 9c3d 5c9a 7e3d 85dc 05bb 4d54 a7bd
00000080: 25e2 9ebd 3471 a5bd e03a afb9 ff1c adbd
00000090: ad17 4d3a 8e37 acbd db31 c6bd f21a 82bd
000000a0: 312f c5bd 51de a6bd 7bca a5bd 45f7 8fbd
000000b0: 61df abbd 56b5 a6bd 1bde a2bd cabc 54bd
000000c0: bc28 acbd 1eef 6fbd 5809 aebd 76a6 94bd
000000d0: 74c6 97bd e13f a8bd 47d0 a4bd d7ff a5bc
000000e0: 52de d0bd 7f54 30bb d6cf a4bd f527 a8bd
000000f0: 4dc1 3fbb 211d 50bc c5da 64bd af4b 37bc
00000100: 58b8 bc39 8d8e c6bc 5008 b6bb 5206 daba
00000110: c5d8 e1bd 04e3 fbbc b04f acbd 32a9 54bd
00000120: 624d 1abc b664 cebd 006b f6bb 9e04 45bd
00000130: 2dd1 8abc 0204 c9bd 494b 91bc c040 e7bd
00000140: 70b1 aabd 2dfc 3fbd 320b 61bd d2c2 44bc
00000150: 57b5 e8bc 379c bb3a 619f c3bd 5049 b23a
00000160: e676 83bc 89ea b8bb

linear5.bias f4 [3]
0.10083216 -0.08202757 -0.012993618
00000000: 1781 ce3d 12fe a7bd 2fe3 54bc
