基于ABM的智能化经济模拟平台/code/worker_buffer/critic_checkpoint.pth (torch, 15935 bytes, 9 tensors)

linear1.weight f4 [30, 9]
000000 77 c9 b9 bd 7e 69 47 be 77 ac 05 3d 68 bc 4d 3e
       -0.090716295 -0.19473836 0.03263518 0.20091403
000010 dd 24 dc be de e3 1d 3f 7b b1 b6 3d 99 c6 a9 be
       -0.42996874 0.6167582 0.089205705 -0.3315933
000020 c0 86 1a 3d 60 72 24 3d 22 55 a4 be ef 6b 8e be
       0.037726164 0.04014814 -0.320962 -0.27816722
000030 f8 73 10 3e 75 0b a1 be 9a dd b4 3e 2c d7 11 3e
       0.14106739 -0.31454054 0.3532532 0.14242238
000040 cc b9 47 bd 05 73 0d be 80 b4 82 be 20 db 5c be
       -0.048761174 -0.13813408 -0.25528336 -0.21567965
000050 2e 75 40 3e ac 1d 91 3d 42 d7 47 3e da 07 30 3e
       0.187947 0.070857376 0.19515708 0.17190495
000060 dc ba d1 bd 9e a0 51 be a0 35 2c 3d f4 20 b5 3d
       -0.10240719 -0.20471427 0.04204333 0.08844176
000070 88 10 b7 be 5a 4c 26 3e 86 06 86 be b8 e0 02 be
       -0.357548 0.16240063 -0.26176852 -0.12781036
000080 05 29 9c be 5b e1 84 bc e2 80 af 3d b3 d1 de bc
       -0.30500045 -0.01622074 0.08569504 -0.027199602
000090 8c 8e e3 3e 7a bd 6b 3e fa 76 67 3e fa 3e fb be
       0.44444692 0.23021498 0.2260398 -0.49071485
0000a0 10 29 ae 3e 60 7f 76 be 32 bb 95 3d 9e 51 bd 3e
       0.34015703 -0.24072027 0.07311095 0.3697633
0000b0 f4 0e f5 3e ac 8c 03 bf 0e 60 22 3d 83 88 aa be
       0.4786297 -0.51386523 0.039642386 -0.33307275
0000c0 f8 f2 13 3d 06 74 e1 be 38 8e 1c 3f bd ab 33 3e
       0.036120385 -0.4403383 0.6115451 0.17545982
0000d0 70 ba f3 be aa 37 0c bf 4a 62 ce 3d 07 f7 14 bf
       -0.47603178 -0.54772437 0.10077341 -0.58189434
0000e0 05 c1 34 3e 9f 39 e9 be 57 94 ff 3e 81 c9 2e be
       0.17651756 -0.45551774 0.49917862 -0.17069055
0000f0 ee f1 30 bc 6e 8c 40 3e c6 3b a8 3e e4 2a ce be
       -0.010799868 0.1880357 0.32858104 -0.40267098
000100 09 c4 42 3d ee b7 ae be d1 7e b8 3e f3 9b f4 be
       0.047550235 -0.34124702 0.36034253 -0.4777523
000110 2d 7d e3 3e 4a 16 56 3e 25 c7 16 bc 7c 64 05 bf
       0.4443144 0.2090694 -0.009202753 -0.5210645
000120 d6 12 29 3e 76 72 31 be 91 81 8b 3e 05 68 91 3e
       0.16511092 -0.1732882 0.2724729 0.28399673
000130 d3 55 54 be 40 ec 1f 3e d0 54 96 bd 16 70 4e be
       -0.20735864 0.15617466 -0.073403955 -0.20159945
000140 ca ae 00 3e b8 9a 2f be 30 34 d5 bd ec 1b f6 bd
       0.12566677 -0.17148864 -0.104103446 -0.120170444
000150 cb df 93 3e 74 0a f5 3d 5b 26 4c be d6 27 e0 bd
       0.28881678 0.119648844 -0.19936506 -0.10945098
000160 be a8 02 be f1 59 96 3e d5 b8 29 bd 7d 0b 92 be
       -0.12759683 0.29365495 -0.041436035 -0.2852439
000170 4f 84 74 be 6c 92 9c 3e 3c 34 ed be 90 f7 10 3b
       -0.23878597 0.3058046 -0.46328914 0.0022120215
000180 3a 09 a8 3c 6e bc 09 3e 6d c3 af be 8b de 65 be
       0.020512212 0.13450786 -0.34328786 -0.22448175
000190 96 fb c9 bd c0 1f cf 3c 2b f4 14 be d0 3d d1 3d
       -0.09862439 0.025283694 -0.14546268 0.10216868
0001a0 5e 2f 4e be 63 f4 91 be 80 2a 9a bc 3c 36 8c be
       -0.20135257 -0.28506765 -0.018819094 -0.27385128
0001b0 d9 bc 71 3e 31 4c 32 bd a2 fd 85 3e c4 52 0f bd
       0.23607196 -0.043529693 0.2617007 -0.03499104
0001c0 e7 55 d8 bd d6 3e 8f be f5 36 9a 3d 20 5c bd 3e
       -0.105632596 -0.27977628 0.075300135 0.36984348
0001d0 55 36 a8 bd 4e 72 e9 be ad 37 ac 3b c8 2b 0b be
       -0.08213488 -0.4559502 0.0052556605 -0.1359092
0001e0 9d 0d 5e be 0d b9 f8 be 57 4d f0 3e 4b 45 01 3e
       -0.2168488 -0.48578683 0.46934006 0.1262409
0001f0 23 4f ad be 11 6f 30 be da bc ea 3d 0c 4a 87 bd
       -0.3384944 -0.17229868 0.11461802 -0.0660592
000200 f9 54 2d bd ea 87 b2 bd f5 6b 45 be 91 94 aa 3e
       -0.042317364 -0.0871733 -0.19279464 0.33316472
000210 b5 31 2a 3d 75 90 c4 3c 16 16 08 be 40 6c c6 bd
       0.04155131 0.023994664 -0.13289675 -0.09688616
000220 9a cc 03 bc 7e c2 77 3e 28 9a 4b 3d 8d cb 3c be
       -0.008044386 0.24195287 0.04970756 -0.18437023
000230 8b 0d 4e be b6 41 c4 be 18 e1 d4 bc a0 e2 4a be
       -0.20122354 -0.38331383 -0.02598624 -0.19813013
000240 b7 73 8a 3d 16 ac c1 be ff 21 0f bf 2c bb f5 3c
       0.06760352 -0.37826604 -0.5591125 0.029996477
000250 f0 d4 55 be 4b 6e 2c 3e d1 8e cd bd c0 a7 c3 bc
       -0.2088201 0.16838948 -0.10037006 -0.0238837
000260 6f f6 87 be 85 dd 8e 3e 65 54 65 3e 3b 32 67 3e
       -0.265552 0.2790338 0.22395475 0.22577755
000270 a6 ae a3 3e 3c 36 8a be 4b 63 49 be 9c d4 a5 bd
       0.31969184 -0.26994503 -0.19666784 -0.08097193
000280 9b 8b 71 bb 36 b7 2f bb ed 11 33 3c 8d af a4 3e
       -0.0036856893 -0.0026812083 0.010929567 0.32165185
000290 3b 3d 4c 3c c2 f9 cc 3d 59 65 04 3e e6 23 c0 be
       0.01246577 0.10008575 0.12929286 -0.37527388
0002a0 01 96 81 3e 5b 0c 36 3d cf 60 a9 3e db c9 7d be
       0.25309756 0.044445377 0.33081672 -0.24784033
0002b0 70 f2 e1 bd b4 65 a8 be ee 8c 15 be 1a 55 98 be
       -0.110325694 -0.32890093 -0.14604542 -0.29752427
0002c0 ae 01 2d 3e 26 c6 8f be 93 b2 43 be 3f 21 85 3e
       0.16895172 -0.28080863 -0.1911109 0.26001927
0002d0 62 f1 24 be 87 8c 37 3e e7 eb ad 3e a3 58 aa bc
       -0.16107705 0.179247 0.33969042 -0.020794218
0002e0 18 b9 9e 3d 34 3d df bd 95 c1 91 3d 35 f8 c6 3e
       0.077501476 -0.109003454 0.07117001 0.38861242
0002f0 c1 21 ae 3e d3 cf 04 bf 3f ae 0a bf 72 0b 4c be
       0.34010127 -0.51879615 -0.5417213 -0.19926241
000300 0b 77 68 bf ea de e4 3d cd 1a 86 be da 52 3a be
       -0.90806645 0.1117533 -0.26192322 -0.18195668
000310 06 25 3c 3e 0d bb 1c 3e a7 ba 07 3e 41 a3 52 3c
       0.18373498 0.15305729 0.13254796 0.012856306
000320 27 ba 5d 3d 26 56 bf 3d fe 2c 3e 3e 2f 86 e3 be
       0.054132607 0.093426034 0.1857185 -0.4443831
000330 89 18 2f 3e fa 3d 5e 3e 8e 99 0e be 02 ac c2 3e
       0.17099203 0.2170333 -0.13925764 0.38021857
000340 35 92 01 3d 19 ea d7 bd 97 15 43 3f b3 e0 96 3c
       0.031633575 -0.105426975 0.7620482 0.018417692
000350 ec 81 bc 3e 49 d8 3d be 60 84 f3 3d c0 b5 ad 3e
       0.36817873 -0.18539537 0.11890483 0.33927727
000360 35 11 08 bf bc ad b1 be 8c 74 dc be 6f 1e 87 3e
       -0.53151256 -0.3470286 -0.43057668 0.26390406
000370 a5 46 41 bd 24 44 37 3e e8 c1 8d 3e c3 3b 0b bf
       -0.047186513 0.17897087 0.27687 -0.54388064
000380 d4 1f 43 bd e6 1c bc be c6 b7 b2 be 78 a6 6a bd
       -0.047637776 -0.36740798 -0.34905833 -0.057287663
000390 75 b6 f6 bc 4f f1 ed be ab 02 01 bf 0a 17 9c 3d
       -0.0301163 -0.46473166 -0.50394696 0.07621582
0003a0 09 f3 92 bd 97 fd 5e bb 4b 84 b3 3d 38 47 2c be
       -0.071752615 -0.0034025663 0.08765467 -0.16824043
0003b0 94 33 99 3e 2e f0 43 bf 76 20 0e bd 99 3d b6 be
       0.29922163 -0.7653836 -0.034698926 -0.3559387
0003c0 f3 57 0d be 85 5f 22 3e 9e f9 27 be 71 d6 89 3e
       -0.13803081 0.1585675 -0.16403815 0.26921418
0003d0 c2 c3 1e 3e 8e e1 04 3e 08 2c 57 be 80 87 37 be
       0.15504363 0.12976667 -0.2101289 -0.17922783
0003e0 78 02 78 3d e8 f1 50 bd de ff 0b be 69 33 86 3e
       0.06054923 -0.05101195 -0.13671824 0.26211098
0003f0 53 f0 81 bc 93 fe 5d 3e 88 2c 27 bd 05 fa ad be
       -0.015861666 0.21679144 -0.040813953 -0.33979812

linear1.bias f4 [30]
000000 8d 7b be be f4 39 cf bd 5e cc 8f be 0c 70 30 be
       -0.37203637 -0.101184756 -0.28085607 -0.17230242
000010 d3 e7 9e 3e 70 aa 65 bc 47 8f d3 3e b0 e1 21 be
       0.31036243 -0.014017686 0.4132025 -0.15808749
000020 fa 29 15 3e 00 fa 60 3d 9b 58 e8 3d a0 3d 5b 3c
       0.14566794 0.05492592 0.11345025 0.013381392
000030 7f aa d5 3e 1a fd f2 bc 3c 08 a0 bd 2a a0 b9 be
       0.4173164 -0.029661704 -0.078140706 -0.36255008
000040 57 11 65 bc 74 70 93 bd 22 9f d6 bc 12 37 a0 be
       -0.013981185 -0.07199183 -0.026198927 -0.31292015
000050 60 30 9b 3e ad 5f 02 be 6c 05 9f 3e 1b b5 a4 bd
       0.30310345 -0.1273181 0.31058824 -0.080423556
000060 f4 a8 93 be 91 d9 00 bf 86 29 c6 3e 6c d2 9c bd
       -0.28839839 -0.5033198 0.38703555 -0.07657322
000070 15 f9 b4 bd 28 03 8f 3d
       -0.08836571 0.06983024

linear2.weight f4 [30, 30]
000000 a6 7b 97 bd d8 32 d4 bd c0 51 18 be fa b9 81 3c
       -0.07396631 -0.1036126 -0.14874935 0.01583575
000010 69 ea 0d be 07 93 6a 3d c8 06 87 3d 98 01 d8 3d
       -0.13858952 0.057269122 0.0659309 0.10547179
000020 48 ef ec 3d a2 ed e9 bd 2f 3e 70 be 7c 79 00 3e
       0.11569077 -0.11422278 -0.23461221 0.12546343
000030 3c ad 57 be 01 af 6e 3d ad c7 7c be 64 a0 ba 3d
       -0.21062177 0.058272365 -0.24685545 0.09112623
000040 17 3b 9f be a0 27 09 be 90 fc a7 3d e4 d1 9d 3d
       -0.3109977 -0.13394022 0.08202469 0.07706049
000050 58 99 3e bd 6e 58 ce bd bd 4d 3e 3c 7c 98 2a be
       -0.04653296 -0.100754604 0.011615214 -0.1665973
000060 54 ab 6f 3c 7b 7d 2a 3d 9c 1b 8b 3d b0 6c 02 3d
       0.01462825 0.041623574 0.067923754 0.031841934
000070 c6 a9 90 3d 64 80 6a be 6c da 88 bd c1 d0 b3 bc
       0.07063632 -0.2290054 -0.06682286 -0.021950128
000080 02 c1 b9 bd ec ca 04 bc ad bc 1a 3e 7d 8f c4 bb
       -0.090700164 -0.008105021 0.15111037 -0.0059985504
000090 c9 d5 47 be 9e 79 1d 3e b4 ed 4a bd 5d 1c 26 be
       -0.19515146 0.15378425 -0.049543098 -0.16221757
0000a0 9c 4d 80 3c fc af 18 bd 4a 93 07 be 6e 4f c0 bd
       0.015662007 -0.037277207 -0.1323978 -0.0939015
0000b0 31 a7 11 bd 09 9f 22 bd 1f 88 d9 bd 18 8a e0 3d
       -0.035559837 -0.03970245 -0.10621666 0.10963839
0000c0 13 06 b6 bd 9c 50 c8 3d 9a 3e d9 bd 23 9f 68 bd
       -0.08887877 0.09781 -0.106076434 -0.05679239
0000d0 10 b0 3b bd 51 c0 07 be 72 a2 90 3d e3 7f 24 be
       -0.045822203 -0.13256957 0.07062234 -0.1606441
0000e0 04 bf ba bd 60 0f 4f 3c 93 14 c9 bd bd 83 04 bd
       -0.091184646 0.012637943 -0.09818377 -0.032352198
0000f0 74 bd 9f 3d ba 03 d1 3c 60 cb d3 3c 36 bf 4c bd
       0.07799807 0.025514472 0.025853813 -0.04998704
000100 43 7f 91 3d a8 fa 50 3d 7e 98 12 be e5 fe 0e be
       0.07104351 0.051020294 -0.14315984 -0.13964422
000110 4a a5 87 bd 84 09 26 be 92 9f 40 bd e8 85 29 3e
       -0.06623323 -0.16214567 -0.047027178 0.16554987
000120 69 34 1b 3e c2 31 f3 3c a3 f7 35 be 57 7c 04 3e
       0.15156712 0.029686812 -0.17770247 0.12938057
000130 6d f9 08 be f8 fc ae 3a df 30 fe 3d fc f2 39 3d
       -0.13376398 0.0013350537 0.12411665 0.045397744
000140 2f c0 dd 3d f2 da 43 be 05 ce e3 bd 6b 76 e4 3d
       0.10827672 -0.1912649 -0.111232795 0.11155399
000150 de c3 cb bd b5 31 05 3d 28 3b cd bc a4 b7 01 bd
       -0.09949468 0.032518107 -0.025052622 -0.031669274
000160 ba b6 a3 3c aa 49 20 be cc 71 de 3d e6 8b bc 3c
       0.019984592 -0.156531 0.10861549 0.023015928
000170 10 1f 83 3d cd 52 a0 bd 39 83 4d 3d 33 c0 55 bc
       0.06402409 -0.07828293 0.05017397 -0.013046312
000180 37 d1 2b bd 59 a5 24 bd 8c 53 d7 3d b8 ed 04 3e
       -0.04194757 -0.04019675 0.10513982 0.12981308
000190 ec ec 7e 3d 42 b2 2b 3e eb a8 af 3d 88 47 0b be
       0.062237665 0.16767219 0.085771404 -0.13601506
0001a0 4c 6e aa ba 27 fd 81 bd cf 42 f6 3c 94 1f 6b be
       -0.0013002842 -0.06347113 0.030061154 -0.22961265
0001b0 29 4d 74 be 6c 0c 19 3e 9d bd 03 be 33 cb f3 3d
       -0.2385756 0.14946145 -0.128653 0.119039916
0001c0 50 74 bd bd ef e3 a3 3d fe a1 10 be 4d e0 a7 3c
       -0.092507005 0.08002459 -0.14124295 0.020492697
0001d0 5f 58 1a be c0 e9 dd 3d 9e ba 9f bc 69 23 00 3d
       -0.15072773 0.108356 -0.019498166 0.03128377
0001e0 a8 89 22 be 5d d1 d7 bd d0 a0 90 3c 4a 34 c9 3d
       -0.15872824 -0.1053798 0.017654806 0.098244265
0001f0 08 63 d1 3d 54 e8 3a 3d 09 2c 2c be c5 b4 25 be
       0.10223967 0.04563172 -0.16813673 -0.1618224
000200 94 3d d9 bd fc 95 b3 3d a9 58 38 be 2a f3 7e bd
       -0.10607448 0.087688416 -0.18002571 -0.062243618
000210 70 55 a6 3d f0 4a 0a bc 7c 8a f5 3d 0a b0 88 bd
       0.08121765 -0.008440718 0.119893044 -0.06674202
000220 78 59 5f 3d b2 a3 4f 3d df 07 4a 3d c4 b1 f0 3d
       0.054528683 0.05069322 0.049323913 0.11752656
000230 f6 c9 08 be a8 04 9b 3c c7 c5 1e 3d a5 f9 49 3d
       -0.13358292 0.018923119 0.038762834 0.049310345
000240 91 b4 8d bd da 97 db 3c d7 a1 02 3d c9 d0 f7 bd
       -0.06919206 0.026805807 0.031892624 -0.121003695
000250 c6 80 bb bd 95 cd 00 bd 5f d9 1a be f9 6a bf bc
       -0.09155421 -0.03144606 -0.15121983 -0.023366438
000260 18 b8 80 bc d0 79 57 be db 82 98 3d f9 07 f1 bd
       -0.015712783 -0.21042562 0.07446834 -0.11769099
000270 da dc 3a b9 57 04 6a 3b fc a0 ec bd c0 3e c1 3d
       -0.00017820616 0.0035708153 -0.11554143 0.09435797
000280 4f eb b0 3c 6a 14 33 3e b7 bd 6e be 61 6b 2f be
       0.021596579 0.17488256 -0.23314558 -0.17130806
000290 d9 3d e3 3d e5 3f 1b 3d c9 2f b4 bd 5e 2c 20 3d
       0.11095781 0.03790273 -0.08798177 0.03910481
0002a0 5f 98 01 3e e8 76 cf 3c c3 0d ae bd fa e8 0a 3e
       0.12655781 0.025325254 -0.084987186 0.13565436
0002b0 2c 90 5d 3b 1b 1b 36 3d 81 7b 9a 3d d6 34 53 be
       0.0033807857 0.044459444 0.07543088 -0.20625624
0002c0 d9 58 d9 3d f8 d7 d2 3c fe 66 92 3d b1 80 c8 bd
       0.106126495 0.025737748 0.071485505 -0.09790171
0002d0 76 4d 2d 3e 58 f0 9e bd 7c f3 1f 3d 58 22 31 3e
       0.1692408 -0.07760686 0.039050564 0.17298257
0002e0 60 cd 66 3c 14 82 92 3d c9 43 96 bd 60 f7 7a bd
       0.014087051 0.07153717 -0.07337148 -0.06127107
0002f0 ac 3d ad 3d c2 51 82 3d c8 81 f3 3d db bf f8 bd
       0.084590286 0.0636325 0.11889988 -0.121459685
000300 da 9a ab bd ec 2e ea 3d b6 20 2e 3e 80 5e b7 bb
       -0.08379145 0.11434731 0.17004666 -0.005595982
000310 20 11 b6 bc 8a a6 12 be a0 ff c5 bd 30 33 37 3e
       -0.022224963 -0.14321342 -0.09667897 0.1789062
000320 21 75 96 bd d6 b9 25 be f9 a4 1b be c8 f5 a4 3c
       -0.07346559 -0.16184172 -0.15199651 0.020136729
000330 70 29 3a bd c0 ec 78 3c ac 04 08 3e 22 be d2 bd
       -0.045449674 0.015193164 0.13283032 -0.10290171
000340 4e 1d 89 3d 76 4a 81 bd bb c1 90 3c 4d b4 c0 bd
       0.066950426 -0.063130304 0.017670503 -0.0940939
000350 70 c1 9b bc 17 16 0d bc 38 8f 1e 3d ea 28 ad 3d
       -0.019013137 -0.008611224 0.038710803 0.08455069
000360 28 12 52 3c 80 a9 a6 3d ea d2 84 bd f8 3f 35 be
       0.012821712 0.08137798 -0.06485541 -0.17700183
000370 4d 85 07 3e f1 ee 93 bd 7a 21 03 be 91 54 07 be
       0.13234444 -0.07223309 -0.12805739 -0.13215853
000380 dc df f4 3c bb 9f 21 be 17 68 a8 bd e0 bd 0c bd
       0.0298919 -0.15783589 -0.082229786 -0.034360766
000390 bd 24 a0 bd fb 7a 1e be 60 d5 53 be 78 1a 2f be
       -0.07819507 -0.15476601 -0.20686865 -0.17099941
0003a0 85 a4 91 3d 38 e0 1d 3d 39 d9 95 3d d7 80 43 be
       0.07111458 0.03854391 0.073168226 -0.19092117
0003b0 49 bd 01 3e dc 92 0b 3e 74 c8 28 be ce 27 05 bd
       0.12669863 0.13630241 -0.16482717 -0.032508664
0003c0 76 eb 9d 3d 41 e1 b1 3d 4c b6 26 3d be a9 01 be
       0.07710926 0.08685542 0.040701196 -0.12662408
0003d0 21 3c 3b be 82 de 1c bd b7 d2 ab 3d 1a 5d 2f be
       -0.18284656 -0.038298137 0.083898 -0.17125359
0003e0 10 c2 fd 3d cf 7e 30 be 4f 3e 8d bd 78 b4 b1 bc
       0.1239053 -0.17235874 -0.0689665 -0.0216925
0003f0 6b 48 f0 3d 6a 0f fc 3d 75 af 3c bd c1 72 f4 3c
       0.11732563 0.123076275 -0.046065766 0.029839875

linear2.bias f4 [30]
000000 c9 64 a8 3c 74 1b 3f bc 63 ba 21 be 10 e2 64 be
       0.02055587 -0.01166426 -0.15793757 -0.22351861
000010 a6 81 e0 3d 24 06 83 3d 90 3a d7 3d d9 32 1e be
       0.109622285 0.063976556 0.10509217 -0.15449084
000020 c5 43 5b 3d 61 8e 93 3e 18 9b 39 3d 32 5a 53 bc
       0.053531427 0.28819564 0.045313925 -0.012899922
000030 57 73 9f 3d a4 d9 05 bd 86 59 4e bd d4 9e 27 3e
       0.07785671 -0.03267826 -0.050378345 0.16369182
000040 33 28 08 bd 08 9e 8d bd 18 2f 7c be 4b 9c c5 bd
       -0.033241462 -0.06914908 -0.2462734 -0.09648951
000050 64 fe 85 3e 1c 6e fb 3d 9e c1 93 3b 7a 63 63 3d
       0.26170647 0.12276861 0.004509165 0.05551479
000060 12 f7 19 3e 7d d0 b0 3d 96 b3 44 be a4 72 17 3e
       0.15035656 0.08633516 -0.19209132 0.14789826
000070 29 9c ba 3d d6 03 b0 3c
       0.091118164 0.021486204

linear3.weight f4 [30, 30]
000000 54 12 f9 3d e0 f7 5c 3d 21 7e e0 3d c1 cd 07 3c
       0.12161699 0.05394733 0.10961557 0.008288802
000010 ac c3 bd 3d 14 d6 0b 3c 84 e8 3a 3e e6 17 a1 3d
       0.09265837 0.008534927 0.1825276 0.078658864
000020 5c 17 9c bd ec 66 4c be 10 93 8a bc 3f 52 f6 bc
       -0.07621643 -0.19961137 -0.016915828 -0.030068515
000030 88 c2 e9 3c 8e 3d 9c bd 38 ec 99 3d bc ce 77 3d
       0.028535143 -0.07628928 0.07515758 0.06049989
000040 41 35 88 3d 9f 8a 83 bd 54 bd 3d be 3f 3f 9f bd
       0.066507824 -0.06422924 -0.18529254 -0.07775735
000050 62 38 4d be f8 d6 e5 bc de 69 05 3e d6 3f cb 3d
       -0.2004104 -0.028056607 0.13028666 0.09924285
000060 9e d3 25 3e 96 62 96 3d 96 e7 2e 3e e2 08 79 bd
       0.16194007 0.073430225 0.1708053 -0.060799487
000070 e8 58 01 be d1 62 16 be 97 ae 2f 3e 8d 3b c7 bd
       -0.12631571 -0.14686133 0.17156444 -0.09728155
000080 71 c8 34 bc 7b 40 30 3d 89 66 ef bd 46 33 bb bd
       -0.011034117 0.043030243 -0.11689479 -0.09140639
000090 1c 54 13 3d b4 c9 90 bd 32 90 1e 3e 48 c5 aa 3d
       0.035968885 -0.07069722 0.15484694 0.0833841
0000a0 64 79 25 3e 60 ed 36 3d 97 dd 9a 3d 03 fd 2b be
       0.16159588 0.044659972 0.07561796 -0.16795735
0000b0 18 43 f3 bd c8 62 0c be 96 09 46 3d c4 d6 f8 3d
       -0.118780315 -0.13709557 0.048348986 0.12150338
0000c0 25 52 be 3d 46 8c 8a be 5a a3 3b 3c 36 d1 01 3e
       0.092930116 -0.27060145 0.01145252 0.12677464
0000d0 10 7f c7 be bd 32 8d bd 0a d8 24 3e 20 db 80 bd
       -0.38964128 -0.06894443 0.16098037 -0.06291795
0000e0 66 37 3b bd 09 4f 3f 3d eb ff 34 3e fe 5f 56 3c
       -0.04570713 0.046706233 0.1767575 0.01308441
0000f0 b2 58 dc bd 9f d8 99 3c e3 76 3a 3d cc 01 7a 3d
       -0.10759105 0.01878005 0.045523535 0.06103687
000100 40 a1 9e 3d 0c dc c0 bd 1b 9f 8a bd a2 32 54 bd
       0.077456 -0.094169706 -0.06768628 -0.0518061
000110 dc 03 cd bc cb 39 34 be 48 d5 99 3d a7 81 9a bd
       -0.025026254 -0.17600171 0.07511383 -0.075442605
000120 28 19 85 bd a6 0f a7 bd 7f d2 b3 3d 16 f7 39 3e
       -0.06498939 -0.081572816 0.08780383 0.18160662
000130 1f 05 09 be e0 33 35 3d 6a 40 ab 3d af 1c b8 3d
       -0.1338086 0.044238925 0.083618954 0.08989846
000140 fa 5f 81 be bb 83 f1 bd 92 dc 17 3d 27 b0 58 be
       -0.25268537 -0.11792704 0.037075587 -0.21160947
000150 e5 ab 1b be aa 27 f9 3c 08 e1 24 3d 1b a9 1a bd
       -0.15202291 0.030414421 0.04025367 -0.037758928
000160 92 89 e2 bd 9e b9 28 be 02 71 2d 3d f0 6e 8e 3c
       -0.11061396 -0.16477057 0.0423441 0.017386883
000170 b4 e0 eb bd 4b af 1c be 90 cc 05 3d 95 b7 5a bb
       -0.11517468 -0.15301244 0.03266579 -0.0033373584
000180 4a fc 0e 3e 93 47 ab bd 53 2d 06 3e b2 cc b5 bd
       0.13963428 -0.08363261 0.13103227 -0.08876933
000190 e0 59 1d 3c 45 f4 55 3d 78 5e 08 3d 4c 0e d7 bd
       0.009603947 0.052234907 0.033293217 -0.10500774
0001a0 52 ea 0d be cf 3f a2 bd 90 9e 23 3c 41 eb a4 bd
       -0.13858917 -0.07922327 0.009986535 -0.080526836
0001b0 b4 1d 2c 3c 51 59 a5 bd ba db 8b bd fc c9 04 3d
       0.010505129 -0.080736764 -0.06829019 0.03241919
0001c0 52 67 28 3d e3 3a e6 bd d8 23 28 be c9 35 eb bd
       0.04111416 -0.112417005 -0.16419923 -0.11484868
0001d0 b0 86 a7 3d 01 db f5 bd 65 29 80 be df 85 24 be
       0.081799865 -0.12004662 -0.25031582 -0.16066693
0001e0 04 12 1f 3c d0 05 32 3e 4e 9c 1e bd e2 c4 f8 3d
       0.009708885 0.1738503 -0.038723283 0.121469274
0001f0 d4 ee 0e 3e b3 b2 85 bd 60 6c db bb ac 9e 02 be
       0.13958293 -0.06528225 -0.006696269 -0.12755841
000200 a9 fe 36 be 4d 80 ba 3d 9c 93 28 3e c4 d4 4c bd
       -0.17870583 0.09106503 0.16462559 -0.050007597
000210 88 d0 48 bd a4 86 d2 bd e0 95 b9 bd f8 99 8b bc
       -0.049026996 -0.10279587 -0.090617895 -0.017041191
000220 6f f8 a3 bb 80 a0 d4 ba 7d ee 03 3d b6 a3 06 3d
       -0.005003981 -0.0016222149 0.032209862 0.03287097
000230 39 42 07 be 60 f2 49 bc 96 97 25 be ce 93 8b bc
       -0.13208856 -0.012325853 -0.16171107 -0.017038252
000240 d8 0e 81 bc 61 09 84 3c 74 28 2f 3d 4a 79 29 be
       -0.015754148 0.016117753 0.04276319 -0.16550174
000250 71 38 c3 3c a8 11 ed 3d ef 44 9b bc 99 c8 8e 3d
       0.023830624 0.11575633 -0.018953769 0.06971855
000260 b0 ee 31 bd 4b 3f a3 3d 08 5b 9c 3d b6 4e 61 be
       -0.04344052 0.079710566 0.0763455 -0.22002682
000270 10 3b 8a 3c 08 5b f5 3d 52 a6 ce bd c3 a5 47 3d
       0.016873866 0.119802535 -0.10090317 0.048742067
000280 dc 6e 55 3d b4 cc 14 bd 00 f0 69 bd 61 35 49 bb
       0.052107677 -0.036328033 -0.057113647 -0.0030701982
000290 b9 a0 1f 3e 9a 48 85 3d 35 62 66 3d 3c 71 37 bd
       0.15588655 0.06507988 0.056246 -0.044785723
0002a0 4b 77 ab 3c 88 f3 96 3d c7 5e 8b bd e4 06 cb 3d
       0.020930907 0.07370669 -0.06805187 0.09913424
0002b0 42 af 86 bc 96 5c 33 be 78 ce 68 bd 12 00 d5 3d
       -0.016440991 -0.17515787 -0.05683753 0.10400404
0002c0 22 13 7d bd 26 6e 7b be 17 b8 07 3d cd be fe bc
       -0.061785825 -0.24553737 0.033134546 -0.03109684
0002d0 d0 af ed 3c d7 d9 ea bd a4 03 c3 3d 21 6f 30 bd
       0.029014498 -0.11467331 0.09522179 -0.04307473
0002e0 48 73 25 be d5 90 f6 bd 24 f1 e8 3d 03 1c 1c bd
       -0.16157258 -0.12039343 0.11374119 -0.03811265
0002f0 4f 17 a2 3d 02 28 a1 3d 91 00 93 bd c4 f0 38 bd
       0.07914602 0.07868959 -0.071778424 -0.045151487
000300 34 a0 fc bd 0b 21 a2 bd 45 a7 22 3e dc 19 56 bd
       -0.12335244 -0.07916459 0.15884121 -0.052270755
000310 73 f3 dc 3d bd 23 10 be 57 76 c6 bd 15 ea 9c 3d
       0.10788622 -0.14076133 -0.0969054 0.07661835
000320 d5 45 50 bd 38 a0 72 bd 8a c0 98 bd 13 66 00 3d
       -0.050847847 -0.059234828 -0.07458599 0.031347346
000330 d6 13 23 3e b6 56 11 be b6 db 21 3e 55 21 16 be
       0.15925536 -0.14193234 0.1580647 -0.14661153
000340 c7 8a 3d be 88 77 9e bd d5 c5 8e 3c 7c b2 28 be
       -0.1850997 -0.077376425 0.017428318 -0.16474336
000350 81 a1 af 3d 82 6c 1c 3b 40 38 4a bc 22 37 35 bd
       0.08575726 0.0023868387 -0.012342513 -0.044242032
000360 64 bf a5 bd f4 5c 04 bc 05 c2 53 3d 9e 65 88 3d
       -0.080931455 -0.008078802 0.051698703 0.06660007
000370 f6 51 21 3e 5f 54 19 be 9a 13 86 3d 7c 47 9d bd
       0.15753922 -0.14973591 0.065467075 -0.0767965
000380 39 80 54 be d0 6d 2d bd 44 7a df 3d 9c df 46 3d
       -0.20752038 -0.042341053 0.10911992 0.048553094
000390 92 0c f0 bc 29 2b 08 bd 00 66 13 be 48 b3 10 3e
       -0.029302869 -0.033244286 -0.14394379 0.1413089
0003a0 39 87 ed bd 37 38 02 3e c0 7b 24 3d d6 22 23 bd
       -0.11598057 0.12716757 0.04015708 -0.039828144
0003b0 90 11 ab bc ff 3b dc 3c 89 dd f3 bd b2 14 8a bd
       -0.020882398 0.026884077 -0.11907489 -0.067422286
0003c0 24 fc 22 3d 7f ec 16 be bc 26 03 3e d8 a8 85 bd
       0.03979124 -0.14738654 0.12807745 -0.06526345
0003d0 68 79 cd 3c 59 0f a0 3c 90 2c ad 3c b0 d2 fc 3c
       0.025082305 0.019538568 0.021139413 0.030862182
0003e0 1c 02 04 bc 1b 6c 92 3d c8 03 a4 3d 7b da 1c bd
       -0.008057144 0.07149526 0.08008534 -0.038294297
0003f0 80 6e d5 3a 10 0d af 3d 60 66 2f be 50 ed bc bc
       0.0016283542 0.08547413 -0.17128897 -0.023062378

linear3.bias f4 [30]
000000 cd 68 30 bd 2e aa 7d 3b f2 b6 f1 bd 27 80 d1 bd
       -0.043068696 0.0038706171 -0.11802472 -0.10229521
000010 4e fe b2 bd ac 5a 80 be c8 c9 3a be c0 3c 21 be
       -0.08739911 -0.25069177 -0.18241036 -0.1574583
000020 2b 6e bd bd 87 49 91 bd 67 f5 be 3c d5 ec 16 bd
       -0.092495285 -0.07094102 0.023310376 -0.036846954
000030 f9 b0 54 bd e2 fd 01 3b b5 03 0e be 95 23 66 3d
       -0.051926587 0.0019835164 -0.13868602 0.056186277
000040 f7 b0 22 3d 9e 9f 84 3c f8 1c 6c be 28 c1 71 be
       0.039719548 0.016189393 -0.23057926 -0.2360884
000050 2d 62 95 3c fe 2c e0 bc 1d ea cc bc 55 49 2e 3e
       0.01823529 -0.027365204 -0.025013978 0.17020161
000060 59 02 b1 bd 8d c6 7d be b5 ac 7d be e5 33 aa bc
       -0.08643026 -0.24782772 -0.24772914 -0.020776698
000070 4f 02 2d be 30 ff bf be
       -0.16895412 -0.3749938

linear4.weight f4 [30, 30]
000000 24 f9 13 3e be 7e 02 be 95 e2 9e 3d 66 5d 87 3d
       0.14450508 -0.12743661 0.07758061 0.06609611
000010 8f 8e 59 bc ae bd cf bd bd 7c ee bd 5c 7c 0d be
       -0.0132786175 -0.101436004 -0.11644886 -0.1381697
000020 21 73 d9 bd f2 59 94 3d fc 1d d7 3d 7a 09 f2 bc
       -0.10617662 0.07243718 0.10503766 -0.029545534
000030 6d 93 6c bd 28 b4 2c 3e b8 ef 04 3e 95 c4 03 be
       -0.057757784 0.16865599 0.1298207 -0.12867959
000040 76 12 a3 bd 94 de 9e bc a9 7e b9 bd 08 4d ae 3d
       -0.079625055 -0.019393243 -0.09057362 0.08510786
000050 40 69 1a 3c 7c 1a 37 be 45 11 23 be e4 1a b2 bd
       0.009424508 -0.17881197 -0.15924557 -0.08696535
000060 ae 44 f8 bd 20 42 7c 3c 28 d8 27 3d ab 31 bd bd
       -0.121224746 0.015396625 0.040977627 -0.09237989
000070 a0 bd b4 3b 7b 78 23 be 80 26 d1 bd fe dc 53 bc
       0.005515769 -0.15963928 -0.102124214 -0.012931107
000080 3e b7 ba bb 0d 9b b1 3d 40 cf ea 3d 57 08 a0 3d
       -0.0056981137 0.08672152 0.11465311 0.07814091
000090 30 8c cc bd 8e 7f 4f 3d f2 9a b3 bd 02 e8 51 be
       -0.09987676 0.050658755 -0.08769788 -0.2049866
0000a0 28 a5 22 bd 2b ba f4 3d 68 5d ff 3d f7 bd 2b 3d
       -0.039708287 0.11949571 0.12468988 0.04192921
0000b0 a9 49 a5 3a 87 df 5f 3d 3b ed 63 bd bc e3 62 3c
       0.0012610453 0.05465653 -0.055646162 0.013848241
0000c0 86 29 3a bd 67 c9 37 3e 4f 64 b0 bd f1 e4 12 3e
       -0.045449756 0.17947923 -0.08612882 0.14345147
0000d0 d8 2d 09 bd 2c 9f 81 bd 3a 15 09 3e e7 16 4d 3e
       -0.033490986 -0.06329188 0.13387004 0.20028268
0000e0 bc e7 bd bd d0 ad ad 3d f8 f3 06 3e 03 e4 b2 3d
       -0.092727154 0.08480418 0.13179004 0.08734896
0000f0 24 3c 99 3d 2b f7 47 3d a2 5d 40 3d ed 16 23 3d
       0.07482174 0.048819702 0.046964295 0.039816786
000100 35 1f bf bd 48 b4 1e 3e 36 ab f8 3d d2 f4 1c 3d
       -0.09332124 0.1549846 0.12142031 0.038319416
000110 ce 40 c8 3d 0b dd 02 3e b6 e1 f6 3d 1e 09 01 be
       0.097779855 0.12779634 0.1205477 -0.12601134
000120 d4 1a 30 3e 87 01 8e 3d 4d 1e f9 3d 2c eb 7f 3e
       0.17197734 0.06933885 0.121639825 0.24992055
000130 32 03 cd bd 30 f9 d8 3c d8 0d 48 bd fe 81 2e 3e
       -0.10010375 0.02648601 -0.048841327 0.17041776
000140 7f db b0 3d 45 65 50 3e b7 3a 78 bd 62 1f 47 be
       0.086356156 0.20351131 -0.06060287 -0.19445565
000150 84 87 32 bb 13 d4 52 3d b9 96 38 3e 43 6e 08 3e
       -0.0027241418 0.05147178 0.18026246 0.13323312
000160 ab f3 11 be a0 34 24 bc 0d bb ee bd bf 63 71 3d
       -0.14253108 -0.010022312 -0.11656771 0.058933016
000170 d8 d5 78 bd 73 9a 81 bc 64 88 01 3e 46 4d 44 3a
       -0.060750812 -0.015820717 0.12649685 0.0007488321
000180 0a 24 01 be ea 90 bd 3d 98 4a 36 be 54 8e 12 be
       -0.12611404 0.09256156 -0.17801893 -0.14312106
000190 51 a4 91 3d 96 68 93 3d db 6a a7 3d d0 79 28 3d
       0.07111419 0.071976826 0.08174678 0.041131794
0001a0 64 46 4c be 8e 2a b7 3c 1e 88 63 be 0a ca 76 3d
       -0.19948727 0.022359159 -0.22219893 0.060251273
0001b0 a2 54 8a 3d 0e e8 04 3d ab dd 1c 3d b2 53 62 bc
       0.06754424 0.032447867 0.038297337 -0.0138139
0001c0 01 b6 8a be c1 f2 3c bd ef 59 26 be 3a c8 f6 3c
       -0.27091983 -0.046129946 -0.16245244 0.030124772
0001d0 ea 16 c2 bd a4 9f 03 3e ea 09 33 be ab 78 a0 3c
       -0.09477027 0.12853867 -0.1748425 0.019588789
0001e0 fd b6 ca bd 22 ba 08 be 6b 01 42 3d 68 15 a5 3d
       -0.098981835 -0.13352254 0.047364634 0.080607235
0001f0 ec 96 7e bd 65 98 3d bb 18 fe ba 3c ba da 1a 3e
       -0.06215565 -0.0028929946 0.02282624 0.151225
000200 6b 04 18 be 03 32 27 be 20 c5 45 3d f6 19 b3 3d
       -0.14845435 -0.16327672 0.048283696 0.08745186
000210 36 09 7f bd 6a 00 27 bd 74 85 c7 3d 5d 82 88 bd
       -0.062264644 -0.04077188 0.09742251 -0.0666549
000220 0e 0c 43 bc 4b 1d a5 bc 0e 67 83 bd 83 a8 e1 3d
       -0.0119047295 -0.02015557 -0.064161405 0.11018469
000230 8c 37 7e 3d a0 e2 ff 3d 50 6a 0d bd 07 18 c2 bd
       0.062064692 0.12494397 -0.034525216 -0.09477239
000240 37 bb 33 be cd e1 18 be 89 ac e8 3d 55 6f 0c 3e
       -0.17551886 -0.14929886 0.113610335 0.13714345
000250 6f 6e ab bb 8c 21 83 3e 6c 5e 15 3e c5 6d 37 bd
       -0.0052316706 0.25611532 0.145868 -0.04478242
000260 85 1c dc 3c 00 59 b9 bd 1b 71 e7 3d 98 9c 5a bd
       0.026869068 -0.090501785 0.1130087 -0.053371996
000270 41 33 20 be 25 f5 ca bd 04 34 9d 3d fc d7 57 3d
       -0.15644552 -0.09910039 0.07675937 0.052696213
000280 ac cd 3a bd 59 11 b4 3c c3 22 6b 3d e2 c1 42 be
       -0.0456063 0.021980928 0.0574062 -0.19019273
000290 a6 62 19 3e 1e fa 1f bd d8 58 4e bc a2 db ac 3c
       0.14979038 -0.03905689 -0.012594424 0.021100823
0002a0 b5 61 e3 3d 4e 03 c4 bd 96 73 ac bc 83 ca 7d 3d
       0.111026205 -0.09570943 -0.02105121 0.06196071
0002b0 4d e9 9a 3b 9d 90 18 be 32 a5 9d 3d 32 14 ad 3b
       0.0047275187 -0.14898916 0.07697524 0.0052819485
0002c0 59 c1 e4 3b 75 5a 51 3e b9 58 0c bd 64 cd 24 3c
       0.0069810566 0.20444663 -0.0342643 0.010058735
0002d0 60 7c cc 3d 89 60 37 be cb 0d 1c 3e 60 90 b5 3d
       0.0998466 -0.17907919 0.15239637 0.08865428
0002e0 c4 b2 7b 3d ae 7d 2f be 52 e9 89 3c f9 8e 1a bd
       0.06144978 -0.17137787 0.016834889 -0.037734006
0002f0 00 58 ce 3a c9 03 d7 bd 8d e1 98 3d af 1d 9a bd
       0.0015742779 -0.10498769 0.074648954 -0.07525193
000300 7f 78 1e 3e 20 a3 bd 3c 33 b4 2c 3d 5b c5 57 be
       0.15475653 0.023149073 0.04216404 -0.21071379
000310 1d f2 9a 3b 9a 51 7b bc f1 7e da bd 52 c3 ee bd
       0.004728569 -0.01533928 -0.106687434 -0.11658348
000320 86 55 20 be 17 18 5c 3d cb 5f 23 be 99 97 f3 3c
       -0.15657625 0.05373391 -0.15954511 0.029735373
000330 f6 58 b2 bd 99 5e fa bd 84 0b 6a bd 32 c0 6f bc
       -0.08708374 -0.12225074 -0.05713989 -0.014633225
000340 c7 15 ed 3d 38 a5 6f 3c f5 c8 1a bd 4a 13 e8 3d
       0.11576419 0.014626794 -0.037789304 0.11331804
000350 6a 47 dc 3d 17 94 bd bd ee 28 55 bd 57 6b fc 3d
       0.10755809 -0.092567615 -0.052040987 0.12325161
000360 d8 e2 e7 bd ec 13 d1 3c c8 44 c7 3d 0a 58 55 bd
       -0.11322564 0.025522195 0.09729916 -0.052085914
000370 41 44 aa bd 00 c0 23 be d3 3e b0 bd 02 0b ec bc
       -0.083138 -0.15991211 -0.08605733 -0.028813843
000380 7b 88 00 bd b4 89 ab 3d 1d 35 22 3d 82 b4 33 be
       -0.031380158 0.08375874 0.039601434 -0.17549327
000390 3d 52 49 be bb f1 2e 3e 1a a7 eb bd fe da 07 3d
       -0.19660278 0.170844 -0.115064815 0.03316783
0003a0 48 c2 10 be e5 ba e3 3d 76 49 b3 bd 72 39 e4 bd
       -0.14136612 0.11119632 -0.08754246 -0.11143769
0003b0 89 da 8b bd ff ba b7 3d 29 df 29 be 52 ea 59 be
       -0.06828792 0.089712135 -0.16589035 -0.21280792
0003c0 80 7c de 3d df be ed bd 5c 6d 5b bd b9 21 9f 3d
       0.1086359 -0.116086714 -0.05357109 0.07770104
0003d0 be 2a 17 be 4c 56 33 be 98 4c 08 3d 30 18 15 bd
       -0.14762399 -0.17513388 0.03327617 -0.03640002
0003e0 52 36 1c be 9c 89 dc bd b0 a7 0c bd ec 16 ce 3d
       -0.15255097 -0.107684344 -0.034339607 0.10062966
0003f0 c0 b8 a6 bb d0 cf 18 bc 9e 2d 14 3e 98 7d e3 bd
       -0.005087942 -0.00932689 0.14470527 -0.111079395

linear4.bias f4 [30]
000000 14 f9 d3 3d fe 6e 03 be c9 68 07 be d1 83 40 bd
       0.10350242 -0.12835309 -0.13223566 -0.04700071
000010 4c f8 e3 bd 53 87 48 be 5c 96 3a 3d 3c 38 42 3e
       -0.11131343 -0.19582872 0.04555355 0.18966764
000020 e5 25 26 3e 78 da 91 bb c4 3b ab be 21 a2 66 bd
       0.16225393 -0.0044510923 -0.33444035 -0.056306962
000030 bc e2 36 3e b7 66 ec bd 17 6d 37 be 9b b2 97 3d
       0.1785993 -0.11543029 -0.17912708 0.07407113
000040 f4 53 dd bd 30 17 71 be 28 14 ae 3d b0 6c a1 3b
       -0.108070284 -0.23544002 0.08499938 0.0049262866
000050 77 82 ee be 52 63 97 bd 80 0f ab bd 1a 9c 3f bd
       -0.46583912 -0.07391991 -0.08352566 -0.04677973
000060 21 8a f4 bd e4 a9 cc 3c 4d 6f 76 be ca 1d b2 be
       -0.119404085 0.024983354 -0.24065895 -0.34788352
000070 b6 30 e3 bd 10 bf 1f be
       -0.11093275 -0.15600228

linear5.weight f4 [1, 30]
000000 6f 18 b7 3c ba fe f1 3c eb 4e 6c bc 5a 22 78 bc
       0.022350518 0.029540408 -0.014423112 -0.015144909
000010 bc 00 85 3d 63 09 2f 3c 08 f2 4c 3c 80 95 6d bc
       0.06494281 0.01068339 0.012508877 -0.014500976
000020 cf 11 ca 3d a8 03 b9 bb 1e a1 26 3d 4c 2a 8a 3c
       0.09866678 -0.005646188 0.040680997 0.016865872
000030 37 22 9c bc c6 d7 82 3d 26 b9 b7 ba 20 02 96 3b
       -0.019059284 0.06388812 -0.001401697 0.00457789
000040 7d 17 a3 3c 65 e1 36 bb 47 4d 44 bd 41 b8 83 3d
       0.019908661 -0.0027905342 -0.04792526 0.06431628
000050 c9 f2 bd bb 88 a7 e5 39 27 3f 5b bc 3f 2c 8d 3c
       -0.0057967645 0.00043803104 -0.013381756 0.017233012
000060 71 14 a3 3a 32 12 ac bc 2c 3d 46 bb 55 84 51 3c
       0.0012442005 -0.02100477 -0.0030248864 0.012787898
000070 e8 76 7b bd 19 3e 21 3c
       -0.061392695 0.009841465
