基于ABM的智能化经济模拟平台/code/worker_buffer/target_actor_checkpoint.pth (torch, 15807 bytes, 10 tensors)

linear1.weight f4 [30, 6]
000000 83 11 bb be f7 26 5c 3e b4 e6 50 3b b5 81 5b 3e
       -0.36536798 0.21499239 0.003187579 0.21436198
000010 38 e4 7b bd 91 5c 26 3e b6 c2 24 be e6 16 6a 3e
       -0.061496943 0.16246249 -0.16089901 0.22860298
000020 57 3a a4 be e9 14 df 3d 5e fb c4 3e b9 14 8b bd
       -0.3207576 0.1089266 0.38473028 -0.06791062
000030 14 34 ef bd d8 17 f1 3c e9 50 20 be a7 f9 e0 3e
       -0.11679855 0.029430315 -0.15655865 0.4394047
000040 31 5d b2 bd 20 31 92 bb 23 cf a6 3e 9d 7b 24 3e
       -0.08709181 -0.0044614226 0.32579908 0.1606278
000050 11 57 a5 3e b0 e3 e1 bd 68 35 67 3d c9 3e 3b be
       0.3229299 -0.11029756 0.056447417 -0.1828567
000060 8f 61 e8 bc 90 e6 c6 3e 63 c5 9d be 57 d8 80 be
       -0.028366832 0.3884778 -0.30814657 -0.25165054
000070 73 6a ba 3e aa 99 1a be 14 4e 67 be 4a a6 87 bd
       0.3640934 -0.1509768 -0.22588378 -0.06623514
000080 2c 4e 8f 3e 3b 55 53 3e c1 16 c6 3e 39 d5 09 bc
       0.27989328 0.20637982 0.38689235 -0.008412653
000090 15 5b a4 3e 94 50 ca 3e 7a 54 0b 3e da ca ce 3e
       0.3210074 0.395146 0.13606444 0.40389138
0000a0 cb 59 1a be f9 20 98 3e 36 1a 0f 3d d6 3b 10 be
       -0.15073316 0.29712656 0.034937106 -0.14085326
0000b0 3d 7d ad 3e 4a 93 34 be 9b ca cd 3e 49 db b7 bd
       0.33884612 -0.17634311 0.40193638 -0.08977372
0000c0 75 82 b5 bd c2 80 19 3e 10 dd 0d be 8e 42 87 3d
       -0.08862773 0.14990523 -0.1385386 0.06604491
0000d0 c1 42 8d 3e 1f eb cf 39 0c 7f c6 3d b5 6a d9 3e
       0.27589992 0.00039657296 0.09692201 0.42464224
0000e0 5c a2 94 3e ce a1 5b be ae af 4f be 56 27 7c be
       0.2903012 -0.21448442 -0.2028186 -0.2462438
0000f0 19 16 97 3d 23 64 9b be 4b 4a 94 3e de e2 bf 3e
       0.07377262 -0.30349836 0.2896293 0.37477773
000100 cb cb a1 3e 9a 85 c4 3d 5e 3c 8e bd 19 63 08 bd
       0.31600794 0.09595795 -0.06945108 -0.033297632
000110 b1 15 d1 bd 5a 34 e0 3e ec fb f3 3d c6 a8 d0 3c
       -0.102092154 0.4378994 0.11913285 0.025471102
000120 54 29 3c 3e 02 2d b4 be 68 1d b7 be bb 88 12 be
       0.1837514 -0.35190588 -0.35764623 -0.14309971
000130 a6 71 e4 3d f0 f5 bb 3e a0 3b 3a 3c 86 51 05 3e
       0.11154489 0.36711073 0.011366755 0.1301938
000140 04 fa 90 3e 7c ef 8f 3e 93 99 6d be b2 35 9b 3e
       0.28315747 0.281124 -0.23203115 0.30314404
000150 7f 68 0f 3e c0 8a 0f be 87 3e 99 3e 13 72 8e be
       0.14004706 -0.14017773 0.29930517 -0.27821407
000160 48 8a cd 3e 59 8f e0 bd d2 49 11 be b9 84 bc be
       0.40144563 -0.109648414 -0.14188316 -0.3682001
000170 6c eb c3 3d 75 f9 2b 3e 66 e7 7d 3e 24 0d 1f 3e
       0.095663875 0.16794379 0.24795303 0.15532357
000180 53 31 33 be aa 9e a0 be 62 0f 94 3d e5 1f 8d be
       -0.17499284 -0.3137105 0.072294965 -0.27563396
000190 e4 5d ec bd f9 32 89 3e 9b ed 9f be 35 23 05 3c
       -0.11541346 0.26796702 -0.31235966 0.00812607
0001a0 03 5b e4 3e 59 c6 a0 3e 08 a7 ba 3e a6 54 92 3d
       0.44600686 0.31401327 0.3645556 0.07145052
0001b0 02 45 b2 be 01 fd 25 3c 46 b4 69 3c 6d a2 c5 be
       -0.34818274 0.010131122 0.014264172 -0.38600484
0001c0 c6 40 e3 3e b0 f9 d2 3b da 60 5b 3e 81 56 a6 be
       0.44385356 0.0064384565 0.21423665 -0.32487872
0001d0 99 96 4a 3c de 11 90 be a2 36 90 3e cf 4b 61 3e
       0.012365007 -0.28138632 0.28166682 0.22001575
0001e0 de 61 22 3e 91 38 c8 be e2 8b e2 bd f8 93 67 be
       0.15857646 -0.39105657 -0.11061837 -0.2261504
0001f0 64 d2 10 3e 1b de 45 bc 88 0f 52 3d f5 b2 96 be
       0.14142758 -0.01207688 0.051284343 -0.29433408
000200 18 61 dd 3d fb 71 c4 3e 1b 8e 02 3e fc 53 84 3e
       0.10809535 0.3836821 0.12749521 0.25845325
000210 95 f5 ac bd 8c 0e e1 bd 38 2f 1e 3d bc 5f c0 be
       -0.084452786 -0.10989103 0.03861925 -0.3757304
000220 cb ea 44 be 48 dd 38 bd 41 0b 45 bd 7e f5 d6 3e
       -0.19230191 -0.045132905 -0.048106436 0.4198417
000230 51 4e df 3e 12 6f 6a 3e 0f 74 c6 3e 05 8d e6 bd
       0.43614438 0.22893932 0.3876042 -0.11257366
000240 aa bf 6d 3e 15 a2 76 3e 60 69 82 bd fe ce 6c bc
       0.23217645 0.24085267 -0.06367755 -0.014453648
000250 f7 35 91 be 2b ff c4 3e 52 47 c1 be 4d 89 96 3e
       -0.28361484 0.38475928 -0.37749726 0.29401627
000260 b0 ac c8 3d 9b d4 c0 3d ba 54 5a 3e 59 1a e5 bc
       0.097985625 0.09415551 0.21321383 -0.027966665
000270 9b fd cc 3e 9c 3e 5b be ce dd 7a be a4 a2 fe bd
       0.40037236 -0.21410602 -0.24498674 -0.12433365
000280 b2 44 e2 3e ef 32 01 be 93 82 b9 be 02 e9 aa bb
       0.44193035 -0.12617086 -0.36232433 -0.005215765
000290 50 06 42 bd 7b 45 8a 3e 57 49 9b be 42 dc f5 3c
       -0.0473693 0.27006134 -0.3032939 0.030012254
0002a0 dd 88 bd 3c eb a0 3f bd 8e a6 c2 be 38 f6 bb be
       0.02313655 -0.046784323 -0.38017696 -0.36711287
0002b0 84 25 a8 be e3 15 67 3e 89 67 6a 3e 42 e4 8a 3d
       -0.32841122 0.22566943 0.22891058 0.06781818
0002c0 33 d4 cd 3e 86 a9 82 be c9 9e a5 3e f2 70 7f be
       0.40200958 -0.2551996 0.32347706 -0.24945429

linear1.bias f4 [30]
000000 df f9 83 be c8 f8 39 3d de b3 8f 3d bc 9b f1 3c
       -0.25776574 0.045403272 0.07016729 0.029493205
000010 fa 7f 4c 3d 14 ce ca 3d c7 cd d2 bd f0 29 1a 3d
       0.049926735 0.099025875 -0.10293155 0.03763765
000020 48 10 91 3d a0 ea 4e 3e e3 82 51 be 8f 4b 4b be
       0.070831835 0.2020669 -0.20460086 -0.19853042
000030 62 9a bb be 3f f3 36 3e 61 4c 66 3d 2c de 5f bc
       -0.36641222 0.17866229 0.056225184 -0.01366381
000040 10 ce c4 3e b8 cd 18 3e 53 ad c9 bd 8c c1 38 3e
       0.38438463 0.14922225 -0.09847512 0.18042582
000050 f5 f5 bb 3d 24 ca 87 be 1d 87 65 be e5 1d 78 3e
       0.09177772 -0.2652141 -0.22414823 0.24230154
000060 44 87 7c bd 93 99 97 be b4 e5 f0 3e ed 67 82 be
       -0.061652437 -0.29609355 0.4705025 -0.25469914
000070 55 4c cd bd 2e d4 54 be
       -0.10024325 -0.20784065

linear2.weight f4 [30, 30]
000000 a4 82 f7 bd 3e 1d 80 bd c4 29 25 be 4a a7 11 3e
       -0.120854646 -0.062555775 -0.16129214 0.14223972
000010 9b a4 b7 3d fe 4a 01 3e 58 21 fd 3d 12 6c fd bd
       0.08966943 0.12626263 0.123598754 -0.123741284
000020 1c 78 0e 3e df 7f 56 3e a2 0d cb 3d 7e 6c 72 bd
       0.13913006 0.20947216 0.0991471 -0.059185497
000030 0c e0 c2 bd 35 ba ac 3d 91 75 4b 3e 5f 83 4f bc
       -0.0951539 0.08433954 0.19869067 -0.012665599
000040 74 9f 91 bc a8 7c 04 be 20 93 bc bd 12 a1 6c 3c
       -0.017776228 -0.12938178 -0.09207749 0.014442699
000050 f5 f3 18 be e1 69 c0 bd 3e 9f 1f 3e b5 eb d1 3d
       -0.14936812 -0.09395195 0.1558809 0.10250036
000060 3d 86 f0 bd 88 2b 2b 3e 14 c9 42 bd 3f 83 c6 3b
       -0.11744354 0.16715825 -0.047555044 0.006058126
000070 95 0d 98 3d 9a 82 6a bd 69 20 bf 3d 80 00 89 3d
       0.074244656 -0.057253458 0.093323536 0.066895485
000080 50 a1 08 be 90 60 53 bd d4 af 0a 3e 2e b3 b5 3d
       -0.13342786 -0.05160576 0.13543636 0.088720664
000090 5b 0f 17 3e f5 83 4a be 74 97 d5 bd e3 80 30 be
       0.14751951 -0.197769 -0.10429278 -0.17236666
0000a0 df a8 0a 3b 43 fb fd bd 13 d8 f2 bd 5c 2a 19 3d
       0.0021157784 -0.1240144 -0.11857619 0.037393913
0000b0 30 56 93 bc c1 ee f2 3d 64 8f 81 3d 73 c7 47 be
       -0.017985433 0.11861945 0.06326178 -0.19509678
0000c0 cf 8c 06 3e e5 03 5f 3d f5 93 e5 bd d5 2c 12 be
       0.13139652 0.054447073 -0.11209861 -0.14274915
0000d0 38 d4 30 bd 44 b1 0c 3e 34 d6 f1 bc 78 0a bc 3d
       -0.043171138 0.13739496 -0.029521085 0.09181684
0000e0 fc 51 53 3d d0 6c 36 be b3 40 d5 bd c7 05 ab 3d
       0.05159186 -0.17814946 -0.10412731 0.08350711
0000f0 92 8d 72 bd ad 62 58 3e a4 0a 1e 3d c4 6b d0 bd
       -0.059217043 0.21131392 0.038584366 -0.10176805
000100 4a 39 c5 3d 5b 9f e3 bc 8a 8f 44 3c cc 22 aa 3d
       0.09630068 -0.027785948 0.011997113 0.08307418
000110 9c 2c 6a bd 44 72 30 be 00 15 7a bd 90 8f db 3d
       -0.05717145 -0.17231089 -0.061055183 0.10720742
000120 d8 38 86 3d e6 c2 4a 3d 1b 0c f5 3d 76 05 9e 3c
       0.06553811 0.049502276 0.119651996 0.019289713
000130 b4 94 4a 3d d5 8c 24 3e 4a e7 ff 3d 74 fd b0 3d
       0.04945822 0.16069348 0.12495287 0.08642092
000140 27 f0 ca bc 27 cf 2f 3e 28 0e 00 3d 3d 3c 01 3e
       -0.024772717 0.17168866 0.0312635 0.12620635
000150 8a 72 08 bb 0a 9b 2c 3e 2f c2 69 bd 78 73 19 3e
       -0.0020820224 0.16856018 -0.057069954 0.14985454
000160 02 33 e1 bd e9 a4 7e bd fb 7d c0 bd 08 c2 40 3d
       -0.10996057 -0.06216899 -0.09399029 0.047060043
000170 4a 9f 2d be f2 bf bf bd ce 86 22 3e 63 0b 85 bd
       -0.16955295 -0.093627825 0.15871736 -0.064963125
000180 43 10 cd bd 55 8a 28 3e 18 a0 0c be b8 2e 1a 3d
       -0.10012867 0.1645902 -0.13732946 0.03764221
000190 ae 7f 25 be b9 ce 13 be 80 78 c5 3a 77 ff a8 bd
       -0.16161987 -0.14434327 0.0015065819 -0.08251851
0001a0 28 c3 0e be 00 8e 84 bb 5a f0 15 3e e5 65 26 be
       -0.13941634 -0.004045248 0.14642468 -0.16249807
0001b0 d4 66 55 3d ec d9 b6 bd 35 d2 e8 3d 58 4f 88 3c
       0.052100018 -0.08928284 0.11368219 0.016639397
0001c0 70 65 19 bc ab f4 d2 bd 23 5c 2d be b0 96 81 3c
       -0.0093625635 -0.10300573 -0.16929679 0.015818924
0001d0 c0 bf d8 bc 48 77 d6 3d c4 2b 12 bd ac 6a c0 3d
       -0.026458621 0.1047197 -0.03568627 0.09395346
0001e0 70 dd fb bd 7a 1d e5 3b 7d 1d 8c bc 33 02 1c 3d
       -0.12298095 0.0069920393 -0.017103905 0.038088035
0001f0 f2 d8 15 3e 30 82 b0 bd 4f 5c 51 3c 6c c7 7c 3e
       0.1463354 -0.08618581 0.012778356 0.24685448
000200 ab b6 9e bd 21 2e 22 3e f4 3f 5c bd 53 2c 21 bd
       -0.07749685 0.1583791 -0.053771928 -0.03934891
000210 ab 59 81 bd 1b e1 3d bd d1 ac dd bd 4f 0b d1 3d
       -0.06315931 -0.046357255 -0.10823978 0.10207235
000220 a2 8b 51 3d 4c d7 44 3e 05 f7 aa bd 9b a8 09 3e
       0.051158555 0.19222754 -0.083478965 0.13443224
000230 27 f9 88 3d 36 3b b9 3b 34 a2 17 3e b0 68 38 3e
       0.06688147 0.0056528104 0.1480797 0.18008685
000240 b0 57 81 bd db b8 61 3c c9 69 69 bc 1c 0a 50 3e
       -0.06315553 0.013776983 -0.014246413 0.20316356
000250 80 ef aa 3c d2 98 4f bb ca 9f 16 3e cd 3c a1 bc
       0.020866156 -0.0031676781 0.14709392 -0.019682312
000260 3d 4e 39 be 70 dd 2b bc f8 4e e0 bc fa aa c4 bd
       -0.18096252 -0.0104898065 -0.027381405 -0.09602924
000270 fc 70 45 bd a5 b8 e3 bd 7f 98 94 bd c8 b4 db bd
       -0.048203453 -0.111192025 -0.07255649 -0.10727841
000280 7b d8 dc bd e9 3e ab 3d 8c e4 c3 3d 85 ef b2 bd
       -0.10783478 0.083616085 0.09565076 -0.08737091
000290 10 2a 9b 3c cb cc 89 bd 80 69 5e 3c 64 c2 89 3d
       0.018940955 -0.06728514 0.013574958 0.0672653
0002a0 14 7b bd 3d 50 ef 5d 3d fe 6b ac bd 2e c7 0d 3e
       0.09251991 0.054183304 -0.084190354 0.13845512
0002b0 40 9a f7 bc d3 e7 04 be 40 69 00 be c1 cf e6 bd
       -0.03022492 -0.12979059 -0.1254015 -0.11270095
0002c0 f0 93 1c be e4 72 30 bd c0 cb 2a be 80 0e aa bc
       -0.15290809 -0.04307832 -0.16679287 -0.020758867
0002d0 f2 4f 6f 3d b8 31 c6 bd f7 e0 f1 3c 9a 7f c3 3d
       0.05842585 -0.09677452 0.029526217 0.095458224
0002e0 24 76 cf 3d 55 85 48 3e 96 e1 89 bd 95 a9 6f 3e
       0.101299554 0.19582112 -0.0673248 0.23404534
0002f0 de 47 0e 3e 7a 49 61 3e 38 2e e1 3d 5f 62 ff bd
       0.13894603 0.22000685 0.10995144 -0.12469935
000300 35 b4 4e bd 42 24 d8 3c b2 13 85 3d d5 2e fd 3d
       -0.050464828 0.026384477 0.06497897 0.12362448
000310 d8 8a af bd 20 aa 7c 3e c9 75 54 3e aa 24 a4 3d
       -0.08571404 0.24674273 0.20748056 0.080148056
000320 b1 0b 80 bd 35 7b 36 bd 4a 9b 32 3e 29 81 fc 3d
       -0.0625223 -0.044551093 0.1744205 0.12329323
000330 4d 2a 46 3e df ee 03 be ce 0e 46 3e cd a9 54 3d
       0.19352074 -0.12884091 0.19341585 0.051919747
000340 e3 b6 04 3e 12 72 85 bd cb 8f 43 be 6f 05 fe bd
       0.12960391 -0.06515898 -0.19097821 -0.1240338
000350 f1 1e 8d bb fb e6 dd 3c 63 dd cf bd 8d bf 90 3d
       -0.004306667 0.02708768 -0.10149648 0.070677854
000360 58 4d 87 bd a8 68 12 3e 1e d8 ef bd 3b f6 af 3d
       -0.06606549 0.14297736 -0.11711143 0.085918866
000370 21 c4 17 be ea ee 15 3d 58 78 07 be 28 3d c3 3c
       -0.14820911 0.0366048 -0.13229501 0.023832873
000380 8f 5c 58 3e 01 e7 3b 3e b0 1f 29 3e 3c 0c 7e bd
       0.21129058 0.1834984 0.16515994 -0.062023386
000390 76 2b 1b 3e 78 a0 3e 3e f6 f2 c4 bd 9c f0 56 3c
       0.15153298 0.18615901 -0.096166536 0.013118889
0003a0 29 ce a9 3c b0 09 ac 3d c4 8c 15 be 05 b3 3c 3e
       0.020728188 0.08400285 -0.14604479 0.18427666
0003b0 75 d0 48 3d a8 8d d7 bd 9d d9 2d 3e 67 cd 88 bd
       0.049026925 -0.10525066 0.16977544 -0.066798024
0003c0 70 85 94 bc 60 d0 46 bc 7d 16 e4 bd d6 f8 22 be
       -0.018130034 -0.012134641 -0.11137102 -0.15915236
0003d0 24 f3 db 3d 07 2d 29 be a4 d1 33 3d 80 43 55 bb
       0.10739735 -0.16521083 0.0439011 -0.0032541454
0003e0 17 0d c2 bd 46 15 04 3e 84 96 3f 3d 60 cc 85 bb
       -0.09475153 0.1289874 0.046774402 -0.0040832013
0003f0 4a 3a 78 bd 4e 0e 32 be a0 c1 6b 3c bc ef 30 3e
       -0.060602464 -0.1738827 0.0143894255 0.17278951

linear2.bias f4 [30]
000000 10 56 4a b8 c2 e9 f0 3c e7 cf d4 bd 45 50 e7 3d
       -4.8240705e-05 0.02940834 -0.10391217 0.11294607
000010 60 fe 02 3d 90 d4 40 bd d4 a1 4f 3e 7e 03 32 3e
       0.031980872 -0.047077715 0.20276576 0.17384145
000020 fc ee db bc 9f 75 01 be 03 ba 2d 3e 02 11 3e 3e
       -0.026847355 -0.12642525 0.16965489 0.18561175
000030 31 4c 15 3e 1d 4e cb 3d 55 71 3a bc 02 b7 13 be
       0.14579846 0.09927008 -0.0113795595 -0.1442528
000040 88 ca eb 3d 31 cd 80 bd 11 e3 06 3e 58 c3 1b bd
       0.11513239 -0.06289137 0.13172556 -0.03802809
000050 49 6b 3b be d9 ad ae bd d1 fe f4 bc 0b 0e 08 be
       -0.18302645 -0.085292526 -0.029906662 -0.13286607
000060 09 e0 b0 3d 15 51 02 3e 76 d2 23 3e dd 6a 4f 3c
       0.08636481 0.12726243 0.15998253 0.012659756
000070 c0 52 87 3e c8 ff 2e 3c
       0.2643032 0.0106811

linear3.weight f4 [30, 30]
000000 80 b9 89 ba ab 84 e0 bd 70 06 fb bd 70 e8 b7 3c
       -0.0010507554 -0.109628044 -0.12257087 0.022449702
000010 c8 92 4a 3d 00 cf 48 3a d0 8f 39 be e6 2b 86 bd
       0.049456388 0.000766024 -0.18121266 -0.06551342
000020 28 b7 80 bc 87 7f 12 be 74 cf 1f bd ca b9 cb bd
       -0.015712336 -0.1430646 -0.039016202 -0.09947546
000030 da d5 29 3e 7f 6a 31 be fa 40 0a 3e a1 4b 19 be
       0.16585484 -0.17325781 0.13501349 -0.14970256
000040 c0 8b 60 3b 6c b5 18 3d 6f fc 21 be b3 cb 4e bd
       0.0034262985 0.037282392 -0.15818952 -0.05048723
000050 16 c5 1e be ba bc d4 bd f0 48 57 3d 24 f1 d5 bd
       -0.1550487 -0.10387559 0.052559793 -0.104463845
000060 27 2b 8e bd 20 71 24 3e ac 2b b9 3d 70 8f 4e 3c
       -0.069418244 0.16058779 0.09041533 0.01260744
000070 90 38 f7 bc 92 90 84 bd 0e e9 7c 3d aa 6e b9 3d
       -0.030178338 -0.06472887 0.061745696 0.090543106
000080 3b 1b d6 3c e4 14 df 3d eb a4 de 3d 24 98 1d bd
       0.026136031 0.108926564 0.10871299 -0.03847517
000090 44 74 28 3d b7 3d 55 3c 54 39 73 3d bf ab a5 3d
       0.041126505 0.013015202 0.059380844 0.080893986
0000a0 15 08 19 bd da 33 bf 3c eb 86 af 3d 07 d4 87 bd
       -0.037361223 0.023340154 0.085706554 -0.06632238
0000b0 6a c0 0a 3e 1c 1d 8a 3d 12 34 b5 bc 64 35 dc 3b
       0.13549963 0.067438334 -0.022119556 0.006720232
0000c0 ee d3 15 bd 4d 58 1d 3e 26 6f f0 bd 5a 64 30 3d
       -0.036579065 0.15365715 -0.1173995 0.043064453
0000d0 1a ad bc 3d bc 00 dd 3d 5b 7f ce 3d fd fc 63 3d
       0.09212704 0.10791156 0.10082885 0.05566119
0000e0 e9 4c f1 3d 55 c4 fa 3d cf d4 3e 3e d7 63 5c 3e
       0.117822476 0.122444786 0.18635868 0.21522461
0000f0 d2 c4 28 3d c1 2a 2c 3d 65 fd 07 be dd ff e0 bd
       0.041203327 0.04203296 -0.13280256 -0.10986302
000100 16 e7 c2 3d c0 7f 8b bb c0 32 26 3d 32 d1 e9 3c
       0.095167324 -0.0042571723 0.040575743 0.028542135
000110 ec d4 38 bd 83 57 73 bc 8a a1 bb 3d fc 0b 81 3e
       -0.045124933 -0.014852407 0.091616705 0.25204456
000120 7a a0 57 3e d8 f6 7a 3d 53 33 10 bc e7 43 8c bd
       0.2105731 0.061270565 -0.008801299 -0.06848889
000130 31 5d 3b 3e b8 a1 3e 3e a3 71 bf bd 66 64 6d bc
       0.18297268 0.18616378 -0.09347846 -0.014489269
000140 fe ba 69 bd eb cf 8d 3d 2b cd 97 3d de 71 05 be
       -0.057063095 0.06924423 0.074121796 -0.13031718
000150 0c 34 f6 bb d6 87 0a 3e 50 9e fa bd 4a 62 ed bd
       -0.0075135287 0.1352838 -0.12237227 -0.11591013
000160 26 05 18 3e b2 99 1d 3e fc d9 2d 3e 56 27 00 bc
       0.14845714 0.15390661 0.16977686 -0.007821878
000170 1a 40 b7 3d 80 6b 7c bb f8 14 36 3e 74 33 87 3d
       0.08947773 -0.0038516223 0.17781436 0.06601611
000180 fe c8 b7 3d 41 84 8e bd 1a d8 03 be 40 1e 98 3d
       0.08973883 -0.06958819 -0.12875405 0.07427645
000190 e2 ba 02 3e 68 05 eb 3d 43 63 dd 3d e2 62 27 3e
       0.12766603 0.114756405 0.10809948 0.16346315
0001a0 8f 7b 5a bc 20 9a 1a 3e c4 bb 41 3c cf dc 19 3e
       -0.013335123 0.15097857 0.011824552 0.15025638
0001b0 da 25 ec bd 8d 20 f2 bd db 55 07 be 0f 50 9d 3d
       -0.11530657 -0.11822615 -0.13216345 0.076812856
0001c0 45 1e 6f 3e 60 cf 3f bd c8 d4 a5 bc c6 ef d4 3c
       0.2335139 -0.046828628 -0.020243064 0.02599324
0001d0 8c 53 08 be d7 a7 da 3d 5c 02 5c 3d cb 7e 43 bd
       -0.1331312 0.10676544 0.053713188 -0.04772834
0001e0 04 3d 3f 3e 15 0c 05 3d f4 df 9e 3c 97 5c 11 be
       0.1867562 0.032482225 0.019393899 -0.14195476
0001f0 51 2f 35 bd 9c 1b c9 3d fd e9 01 3e ee 30 8c bc
       -0.044234578 0.09819719 0.12686916 -0.017113175
000200 50 96 3d 3c 4d e0 40 3d 7a 8e 0b 3e 56 1c e1 bc
       0.011571482 0.04708891 0.13628569 -0.027479332
000210 3d a2 18 bd ab b0 84 3e 55 d4 34 3c 61 9b 69 bc
       -0.037264097 0.25916037 0.011036952 -0.014258237
000220 61 d7 d1 3d 1c f4 3f 3e 77 97 35 3e 33 f7 79 3e
       0.102461584 0.18745464 0.1773356 0.24410705
000230 0c cc 12 3e 30 06 52 3d 1b 9d 60 3e e4 12 25 bd
       0.1433565 0.051275432 0.21934931 -0.04030122
000240 98 32 54 3e 00 12 44 bb 8f fd 57 3d 62 3b 10 3d
       0.20722425 -0.0029917955 0.052732047 0.035212882
000250 76 46 65 bc 1a b7 50 bc 1d ef 11 3e 5b f0 4f bd
       -0.01399385 -0.012738967 0.1425137 -0.05076633
000260 94 70 e9 3c e6 43 dc bd 81 df 0c 3e 28 6d de 3c
       0.028496064 -0.10755138 0.13757135 0.02715166
000270 5c d3 0b be 7a 93 17 be 1c 86 61 3d 47 52 bb bd
       -0.13654846 -0.14802352 0.055059537 -0.091465525
000280 4f d0 05 bd 32 a7 2a be 57 18 23 3d a2 f1 88 bd
       -0.03266936 -0.16665342 0.039818134 -0.06686713
000290 ba b6 e5 3d 68 5d 8f bd 2f 5c fc bd ab 08 59 3d
       0.11216493 -0.07000238 -0.1232227 0.052986782
0002a0 a2 df 1a bd 71 bf 61 3d 7b 72 95 bd 66 da 03 bc
       -0.03781093 0.055114213 -0.07297226 -0.008047676
0002b0 21 49 9d 3d c8 cc ae 3c b8 80 f3 3d 1a 0c 39 bd
       0.07679964 0.021337882 0.118897855 -0.045177557
0002c0 68 b4 93 bd ea 32 b1 3d 2e e0 d5 bd 7a 1b 28 bb
       -0.07212144 0.08652289 -0.104431495 -0.0025651143
0002d0 8b f2 f6 3d 28 67 28 be 58 fe 27 bc 88 90 d5 3d
       0.1205798 -0.16445601 -0.010253511 0.10427958
0002e0 a7 37 7a bd 68 53 0f be b1 eb f0 3d 53 6a e2 bd
       -0.06108823 -0.1399666 0.117637046 -0.11055436
0002f0 00 fb d0 3d b8 08 ad bd b9 30 45 bd be bf 3a 3d
       0.102041245 -0.084489286 -0.04814217 0.045593016
000300 72 c3 bb 3d 0a 0a 8e 3d 24 d7 30 be 76 a7 f6 bd
       0.091681376 0.069355085 -0.1726957 -0.120436594
000310 15 d2 72 bc 9f 2e 1b be 94 84 16 3d 17 97 f6 3c
       -0.014820595 -0.15154503 0.03674753 0.030101342
000320 2c 53 16 3d f0 f3 2c 3d f2 a1 2a be 92 13 c6 bd
       0.036700413 0.042224824 -0.1666334 -0.096717015
000330 b4 21 43 be 9c cd 2d be 1a 85 2c 3e 76 ec 01 3e
       -0.19055825 -0.16972965 0.16847649 0.12687859
000340 01 c1 10 be ac 2a 10 3d 9b 6a cc bd 65 63 5f 3d
       -0.14136125 0.035196945 -0.09981271 0.05453815
000350 43 8a a0 3d 4e 1d 29 3e 93 38 53 3e 25 7c c7 bd
       0.07838871 0.16515085 0.2062705 -0.097404756
000360 ea 63 10 3e 57 ad f1 3d 2c 88 87 3d 44 d1 af 3d
       0.14100614 0.1180064 0.066177696 0.08584836
000370 42 61 8f 3b 65 05 bd 3d 5c 6f 7d 3d a2 5e 20 3b
       0.0043756077 0.092295446 0.06187378 0.0024470468
000380 1b 9b 60 bd cc 5a 9f 3d 74 61 0d 3e b7 f1 28 3e
       -0.05483542 0.0778099 0.13806707 0.16498457
000390 a9 0e 14 3e 4e 04 82 3d 2e 4d 25 3e 6b 78 14 3e
       0.14458717 0.06348477 0.16142723 0.14499061
0003a0 1d 02 6b 3e c8 24 56 3d ea 96 b1 bd 4b 80 fc bd
       0.22950025 0.05228117 -0.08671363 -0.123291574
0003b0 bc c7 30 be cc cb 33 3e cc d7 b7 bd 60 39 2c 3d
       -0.17263693 0.17558211 -0.08976707 0.042046905
0003c0 9f 12 4d 3e f4 aa c0 bd 85 16 27 be 2e 79 1e be
       0.20026635 -0.09407607 -0.16317184 -0.15475914
0003d0 4b 49 ff bd a4 92 6c 3d 92 e2 1c 3e 9c f7 33 3e
       -0.124651514 0.057757035 0.15320805 0.17574924
0003e0 0a 07 b9 bc e4 ff 18 be e0 23 e8 bb 70 e2 d2 bd
       -0.022586364 -0.14941365 -0.0070843548 -0.10297096
0003f0 76 8c bf bd bf 94 d9 bd 83 b4 61 bd d8 bd 01 3d
       -0.09352963 -0.10624074 -0.05510379 0.03167519

linear3.bias f4 [30]
000000 37 cf 06 be 13 72 3e 3e 46 06 5c 3e a3 b3 3f bc
       -0.13164984 0.18598203 0.21486768 -0.011700544
000010 a9 00 81 3e 47 4b ec 3d 01 6d e7 bc cb 51 94 3c
       0.25195816 0.115377955 -0.02825022 0.018105408
000020 03 fb 33 3d 6a 4c 19 be 18 65 a3 3c 5a 85 78 3e
       0.043940555 -0.14970556 0.019945666 0.2426962
000030 6d 82 90 bd bb 5a 83 3e e3 4f 27 3e 09 56 ee 3d
       -0.07056127 0.2565516 0.16339068 0.11637504
000040 79 cc 5e 3b 8b 01 06 be 90 74 a7 3d 69 fd 27 3d
       0.0033996387 -0.13086526 0.081765294 0.041013155
000050 c7 0b 10 be 00 24 1b bd 8f 2c 2b 3e 22 4b 4d 3e
       -0.14066993 -0.03787613 0.16716217 0.20048192
000060 58 80 8f bd e9 21 54 3e e5 28 96 3d cf 14 78 bc
       -0.070069015 0.2071606 0.07332019 -0.01514168
000070 e4 dc ac 3d f7 09 ab 3d
       0.08440569 0.0835151

linear4.weight f4 [30, 30]
000000 a0 86 f1 3b c4 15 00 3e 96 89 fc bd 02 66 1f be
       0.007370785 0.12508303 -0.1233093 -0.15566257
000010 05 ab ab bd 6e 9d 0b be 9c bb 97 3d 00 da 09 3e
       -0.08382229 -0.13634273 0.074088305 0.13462067
000020 60 8a da bc c8 79 c7 bc 8c fc 23 3e b3 f2 1a be
       -0.02667731 -0.024350062 0.16014308 -0.15131645
000030 3a ff 20 3e 94 93 d6 3d 9c e8 58 3d 3d 1d 33 be
       0.15722361 0.10477367 0.05295621 -0.17491622
000040 18 05 1e bd c4 7a 67 3d ca 5e 3a bc b0 7a 66 bd
       -0.038579077 0.056513563 -0.011375139 -0.056269348
000050 ad c6 2f 3e 82 49 0a 3e 64 ee 68 3d 30 ec 8b bd
       0.17165633 0.13504604 0.056867972 -0.068321586
000060 88 4f 2b 3e 84 15 e1 3d f6 d3 2a be 2f 6e 20 be
       0.16729558 0.10990432 -0.16682419 -0.15667032
000070 94 94 05 bd 38 e7 b3 3d ae e7 ae bd a2 dd 27 3e
       -0.0326124 0.08784336 -0.08540283 0.1639314
000080 a6 ff ce bd b6 38 0f bd 23 cf 91 3c af ed 05 bd
       -0.10107355 -0.034966193 0.017798966 -0.032697376
000090 75 24 e8 bb 0a 12 15 be 80 34 d3 bd 0a 25 0b 3e
       -0.007084424 -0.14557663 -0.10312748 0.13588348
0000a0 a0 b4 59 3e 61 3c ca 3d cc 35 de bc ac 7b 34 3c
       0.21260309 0.098747976 -0.027125262 0.011015814
0000b0 c6 e7 b3 bd 3f 97 77 3e 87 04 8c 3c 68 1d 12 bd
       -0.08784442 0.2417879 0.017092003 -0.035672575
0000c0 16 4a 10 3d b6 83 77 bd 0f 6d c1 3d dc b1 2b 3d
       0.035226904 -0.060428344 0.094446294 0.041917667
0000d0 c1 4a 2e 3e fc f1 a6 bc 3f 74 31 be 94 71 52 3e
       0.17020704 -0.020379059 -0.173295 0.20551139
0000e0 de 2a 66 3d 8c 48 96 bb 20 f6 15 bc 96 71 7b 3e
       0.056193225 -0.004586285 -0.009152919 0.24555048
0000f0 ef d1 15 be af ba 92 bd a0 c7 4f 3d 54 b2 0d 3e
       -0.14630865 -0.07164513 0.050727487 0.13837558
000100 6d 04 7a 3d c1 cd c9 bd 52 e8 e4 3d cf 46 a3 3d
       0.061039377 -0.098536976 0.11177124 0.0797249
000110 bb b5 9e bd 0c 52 da bd fe 06 49 3e e3 4e 1d be
       -0.07749506 -0.106601804 0.19631574 -0.15362124
000120 51 1f 2b 3e 3f f4 09 3e 19 07 a7 3d fc ca a2 bc
       0.16711165 0.13472079 0.08155651 -0.019872181
000130 ec 8b 26 3e a2 72 0a be 74 2e a0 bd e7 5a af bd
       0.16264313 -0.13520291 -0.0782136 -0.0856226
000140 ad d6 ff 3a 89 e8 00 be 0b 53 0a be e4 8c fb 3d
       0.0019518934 -0.12588705 -0.13508241 0.12282732
000150 c7 f9 c3 3b 2c 04 10 3e c6 53 6e 3c dc c7 d7 bd
       0.0059807035 0.14064091 0.01454634 -0.10536167
000160 68 67 32 3d 93 ee 31 3e a8 9a b3 3c 96 14 f5 bd
       0.043555647 0.17376165 0.021924332 -0.11966817
000170 52 17 2b 3e a8 3b 8e bd 43 ff 17 3e 2f 7a c9 bd
       0.16708115 -0.06944972 0.14843468 -0.09837758
000180 c3 82 f0 3d de bc 17 3e 4d df d0 3d ac a2 1a 3e
       0.11743691 0.14818141 0.10198841 0.15101117
000190 64 66 3c bc 88 13 1b bc 69 48 31 3e 31 3c 65 3e
       -0.011499021 -0.009465106 0.17312779 0.22386242
0001a0 71 1d 7d bd 84 dd 69 3e 2d 3b 3e be f5 7c f0 bd
       -0.061795656 0.22838408 -0.18577261 -0.11742584
0001b0 9b 1c ec ba 94 48 2e 3e b4 bf d0 bd 05 58 2c be
       -0.0018013896 0.17019874 -0.101928145 -0.16830452
0001c0 74 8d 18 bd e6 86 58 bd 4c 15 ca bd 1e 5b c1 bd
       -0.037244275 -0.052863024 -0.09867343 -0.09441207
0001d0 e8 b1 33 3e 72 21 13 be 00 7d 9c 3d 1a ab 97 bc
       0.17548335 -0.14368227 0.07641029 -0.018514205
0001e0 69 90 c3 bd 3f 26 8a 3d a7 91 8e bd bf 54 cc bd
       -0.095490284 0.06745576 -0.06961375 -0.099771015
0001f0 2c 04 fb 3d 3c 09 f9 3d 58 39 76 3d 8c f7 f6 3d
       0.12256655 0.121599644 0.06011328 0.120589346
000200 e0 36 84 3c c0 9c 7d 3b c7 07 0a be 95 c6 0b be
       0.016139448 0.0038698167 -0.1347953 -0.13649972
000210 b1 73 a4 bd ac 62 d6 bd 91 e0 1b be 8a 4b 31 3e
       -0.08029879 -0.10468039 -0.15222384 0.17313972
000220 22 46 14 be 94 b0 01 be 20 22 40 bc 74 e3 90 bd
       -0.14479879 -0.12665015 -0.011726886 -0.07074633
000230 72 9f cd bd 04 c0 e0 3d f6 0b 80 bd ca df 71 bd
       -0.100401774 0.10974124 -0.06252281 -0.059051313
000240 58 21 92 3d 1e bd 06 be 0b 82 1b be c3 c5 ec bd
       0.07135266 -0.1315808 -0.15186326 -0.115611576
000250 ab 20 9b bd 16 94 b6 3d ee aa 25 3e 51 ae 3a 3e
       -0.0757459 0.08914964 0.16178486 0.18230559
000260 8c ef 24 3d c2 71 44 3e d5 b3 82 3e 55 87 23 3e
       0.040267512 0.1918402 0.25527826 0.15969594
000270 72 99 11 be 8d b7 3a 3e d6 34 04 3e 7e 22 12 3e
       -0.14218691 0.18234082 0.1291078 0.1427097
000280 ca c4 17 3e ec 75 3c 3e 02 44 3c 3e f8 15 5e 3a
       0.14821163 0.18404359 0.18385318 0.00084719015
000290 4c 74 12 be f9 94 19 3e e4 42 07 3e cb 5f 39 be
       -0.14302176 0.14998235 0.1320911 -0.18102948
0002a0 5c 58 30 3d 35 12 d3 bd e0 cf a3 3c c7 c8 ba 3d
       0.043053016 -0.10306207 0.019996583 0.091203265
0002b0 c6 16 5b 3d 2f d1 1c 3d 68 47 16 3e 9c f4 78 3e
       0.053488515 0.03828543 0.14675677 0.24312061
0002c0 34 29 4c 3e 1d 1a 36 3d 73 a3 12 be 3a 32 83 3e
       0.19937593 0.044458497 -0.14320163 0.25624257
0002d0 f0 88 1e 3e bd 44 84 3d 26 0d f4 bd b4 f1 c6 3b
       0.15481925 0.06458423 -0.1191657 0.0060712937
0002e0 01 ac 98 3d 6f 40 13 be b1 af e2 3d 74 53 fd 3d
       0.07454682 -0.14380048 0.11068667 0.12369433
0002f0 56 0c 95 3d 12 c8 20 3e fc 19 0b bd 55 26 a0 3c
       0.072777435 0.15701321 -0.033960328 0.019549528
000300 69 43 8d 3d 55 59 d9 3c 45 5f 95 bd 9d ce a1 3d
       0.06897623 0.026531855 -0.07293562 0.079007365
000310 c2 56 f6 bd 18 95 01 3e 51 54 84 bd 48 4e 54 bd
       -0.120282665 0.12654531 -0.064613946 -0.051832467
000320 90 ab d5 3d dc f4 af bc c1 eb b6 3d 05 5b d8 bd
       0.104331136 -0.021479063 0.08931685 -0.105642356
000330 de 6c 26 be 22 32 96 3c 60 eb 3d 3d 57 6f 33 be
       -0.16252467 0.018334452 0.04636705 -0.17522942
000340 00 60 ef 37 79 8e 23 be 4c 86 05 3e 7c 8f 3b 3e
       2.8535724e-05 -0.15972318 0.13039511 0.18316454
000350 60 2a 93 3d 49 12 01 3e 98 ba 43 bd 99 ec 07 be
       0.07185817 0.12604631 -0.04778537 -0.13273849
000360 42 fc f2 bd bc 1f 9a 3c c5 71 b8 3d c0 7a 2f 3b
       -0.118645206 0.01881396 0.09006075 0.0026776046
000370 5f 6a 13 3e 93 fa 50 3b f7 d5 86 3c 43 f9 05 3e
       0.14396046 0.0031887635 0.016459448 0.13083367
000380 54 22 43 be de 78 83 bc ae 14 f1 bd b7 f9 09 3e
       -0.19056064 -0.016048845 -0.117715225 0.13474165
000390 6c f0 8d bd f8 df d4 bd ce c5 33 3e 7a 04 47 bd
       -0.069306225 -0.10394281 0.17555925 -0.048588254
0003a0 d2 3e 12 bd e0 5e 63 3e 6c 07 42 bd 98 f2 0f be
       -0.03570444 0.2220416 -0.04737036 -0.14057386
0003b0 b5 ed 8a bd 1c e0 fa 3c 9c 43 b2 3d fa e7 de 3d
       -0.0678362 0.030624442 0.08704302 0.1088409
0003c0 1b e7 48 3d 27 17 c2 3d f9 17 d5 3d 02 91 51 3b
       0.049048524 0.09477072 0.10404963 0.00319773
0003d0 4a 55 f0 3d 81 dc b3 bd 5b dc ac bd b2 cd ee 3d
       0.117350176 -0.08782292 -0.08440467 0.11660327
0003e0 b1 8e db 3d e6 ff de bd 67 9b c1 3d e4 ae c2 bd
       0.107205756 -0.108886525 0.09453469 -0.09506014
0003f0 b9 f6 d0 bd 46 12 68 3c 58 79 0f 3e 4d 30 97 3b
       -0.102033086 0.014164513 0.14011133 0.004613912

linear4.bias f4 [30]
000000 f4 36 d3 bd 7c c9 59 3e c1 72 12 be 39 7b 28 3e
       -0.10313216 0.21268266 -0.14301588 0.16453256
000010 80 54 09 be b3 5a 04 3e c4 43 39 be 1a ed 2b 3e
       -0.1341114 0.12925224 -0.18092257 0.16789666
000020 dd 2a e2 bd 33 e8 87 bd 24 37 dd bd bc b0 87 bc
       -0.11043332 -0.06636085 -0.10801533 -0.016563766
000030 90 ee 20 3e ce b7 92 bd 00 ba 3f 3e 64 f1 5e bd
       0.15716004 -0.07163964 0.18723297 -0.054429427
000040 cb ea 82 3c 61 33 61 3d 8b e1 20 3e 43 39 66 bd
       0.015981099 0.05498064 0.15711038 -0.056206953
000050 70 b5 56 bd 22 be 50 bd 11 02 3e bc 22 81 0e 3e
       -0.052419126 -0.050962575 -0.011597172 0.13916448
000060 6e 91 86 3d 03 63 14 be 64 86 06 be 2e b0 cb bd
       0.06570707 -0.14490895 -0.13137203 -0.09945713
000070 2c 7b fd 3d 46 fc 42 3d
       0.12377009 0.047603868

linear5.weight f4 [3, 30]
000000 77 d9 c5 ba d9 9a 25 3d 80 5f 2a 3d e3 68 11 3d
       -0.0015094717 0.040430877 0.041594982 0.03550042
000010 ac ad 09 bb 54 9f 46 3d 88 9e 21 3b 10 97 06 3d
       -0.0021008058 0.04849179 0.0024661142 0.03285891
000020 53 d1 8c 3d 77 ed fa 3c c7 81 0c 3d d7 88 5d 3d
       0.06875863 0.03063081 0.034303453 0.05408558
000030 11 9f 36 3d ac 57 72 3d 8e 6e 4c 3d a0 33 6b 3d
       0.04458529 0.05916564 0.04991012 0.05742228
000040 60 5e 1c 3d ad 03 c1 3d 12 d4 2f 3d 6d 21 b4 3d
       0.03817594 0.09424529 0.042926855 0.08795438
000050 4a 8e 3b 3d b6 c6 66 3d 6b 33 6d 3d 35 42 38 3d
       0.045789994 0.05634185 0.057910364 0.044985015
000060 0a 71 46 3d 87 9a 92 3b 12 5f 36 3d b0 d5 5c ba
       0.048447646 0.0044739875 0.04452426 -0.0008424176
000070 e3 6f 3b 3d 88 ad 08 3d 85 dc 05 bb 92 c4 7f bd
       0.045761 0.033368617 -0.002042563 -0.062443323
000080 41 3e 62 bd 87 89 7d bd e0 3a af b9 cd 0c 85 bd
       -0.05523515 -0.061898734 -0.00033422466 -0.06496582
000090 94 8f 2f 3a 20 83 86 bd 7a bf 8d bd 65 dc 37 bd
       0.0006697115 -0.06567979 -0.06921287 -0.04488792
0000a0 32 c1 8a bd c9 29 7b bd 4e 61 7e bd 05 5f 4d bd
       -0.0677513 -0.061319146 -0.062104516 -0.050139446
0000b0 c4 1b 85 bd 66 aa 7c bd b4 58 77 bd 27 b5 0d bd
       -0.064994365 -0.061685942 -0.06038733 -0.03459659
0000c0 20 a5 84 bd 38 32 24 bd 72 20 6f bd 7d 76 5a bd
       -0.064768076 -0.040086955 -0.05838055 -0.053335655
0000d0 fa 7b 5f bd 74 16 81 bd 31 7a 79 bd 28 86 9e bc
       -0.054561593 -0.06303111 -0.060907546 -0.01935108
0000e0 1f 04 97 bd 7f 54 30 bb 68 b4 7b bd 66 b3 82 bd
       -0.07373833 -0.0026905832 -0.061451346 -0.06381874
0000f0 4e c1 3f bb c2 80 39 3c 27 8b e2 bc bd 12 42 3c
       -0.0029259506 0.011322202 -0.027654244 0.011845288
000100 5a b8 bc 39 af d2 ef 3a 1c 26 b1 bb 37 7b 9d 3c
       0.00035995507 0.0018297042 -0.0054061543 0.019223792
000110 80 29 9d bd 14 22 cf bb 95 fb 54 bd 3c 3c c7 bc
       -0.07673931 -0.006321201 -0.05199774 -0.024320714
000120 d2 ff 58 3c 2d 34 8a bd 11 19 81 3c 7b 83 aa bc
       0.013244586 -0.06748233 0.015759023 -0.020814648
000130 d0 34 f6 3b 86 88 87 bd 45 fa f0 3b e6 69 a0 bd
       0.00751362 -0.06617837 0.007354053 -0.078326985
000140 dc 65 50 bd 08 6a a3 bc e5 0c e2 bc 59 c2 47 3c
       -0.05087839 -0.01994802 -0.02759404 0.012192332
000150 6c eb 0a bb 01 9c be 3a a4 bb 80 bd 50 49 b2 3a
       -0.0021197451 0.0014542342 -0.062857896 0.0013602171
000160 ca d1 08 3c 88 69 83 3c
       0.008350799 0.016041532

linear5.bias f4 [3]
000000 94 4b 8c 3d 81 9a 83 bd 71 6a 02 3c
       0.06850353 -0.06425954 0.007959948
